unitree_0_sa.pt (torch, 85182 bytes, 10 tensors)

0.weight f4 [64, 19]
000000 de 29 a1 bd 45 26 31 3e 24 6d 22 b7 85 38 f1 3c
       -0.07869314 0.17299755 -9.681364e-06 0.029445896
000010 2d e8 52 be 31 f4 e2 bd 07 00 1e bd ef d7 e1 3d
       -0.2059638 -0.11081732 -0.038574245 0.11027514
000020 9a c5 ff bd ce 1a 2a be 56 89 c5 bd 71 af 08 3e
       -0.124888614 -0.16611788 -0.096453354 0.13348176
000030 6b 5c 2c be 4e 50 3a be 0e 77 58 bd 8f a8 25 bd
       -0.1683213 -0.18194696 -0.052847914 -0.040443953
000040 83 06 eb bc 86 38 c6 3c d4 9b cb bd 0f 31 95 bd
       -0.028689628 0.024196874 -0.09941831 -0.07284748
000050 c1 49 40 3e 89 2d 69 be fa bd a8 3d ea 2e c9 ba
       0.18778135 -0.22771277 0.0823936 -0.0015349064
000060 7d 42 8a bb d8 5c 9d 3d 39 58 f0 3d d1 fd a6 bd
       -0.004219352 0.07683724 0.11735577 -0.081538804
000070 f0 9a 2e 3e a8 47 0e 3e ed 95 eb bd 6d d8 48 3d
       0.17051291 0.13894522 -0.115032054 0.049034525
000080 4e 3e 18 be c1 91 2e be f4 8d 23 3e 7a de ff 3d
       -0.14867517 -0.17047788 0.1597212 0.12493606
000090 31 9e bb 3d e5 c5 80 3b 39 3c 4f 3e 69 2d b2 bc
       0.09161032 0.003929841 0.20237817 -0.021750169
0000a0 9c 6a 1b be 41 32 21 be a6 2b 63 be 1b 1c 2e be
       -0.15177387 -0.15741827 -0.2218462 -0.17002909
0000b0 33 7f 9d 3d 0a 43 1f 3e 88 69 4f 3e 48 ef ee bd
       0.07690277 0.15552917 0.202551 -0.11666733
0000c0 b8 ff a8 bd 8e a6 da 3d ac fe 52 bd ae 55 64 3e
       -0.082518995 0.10676299 -0.051512405 0.22298309
0000d0 2c e5 a1 3d c0 f3 b9 bd e1 63 48 3c 48 05 04 3e
       0.07905039 -0.09079695 0.012230844 0.1289264
0000e0 ed 8a 66 be 1d 14 42 be 66 50 07 3b f7 d4 4c be
       -0.22513933 -0.18952985 0.0020647286 -0.20003115
0000f0 4a 1c 35 bd d0 c5 f0 3b ca 24 61 be e2 1f 3c be
       -0.04421643 0.0073478 -0.2198669 -0.18371537
000100 a7 f6 c2 bd c7 27 fe 3d b2 5c e0 3c 49 e5 3c be
       -0.095197015 0.12409931 0.02738795 -0.1844684
000110 f1 30 6a 3e 80 50 fd bd 65 af 98 bc 91 1e f0 ba
       0.22870232 -0.1236887 -0.018638322 -0.0018319656
000120 17 a3 88 bd bf 07 69 bd 1e e3 f3 bd 94 d2 42 3d
       -0.06671732 -0.056892153 -0.119085535 0.047564104
000130 2c 6d 03 3e 6d 87 49 be 2d 74 ac bd cd 9f da bc
       0.12834615 -0.19680567 -0.08420596 -0.026687527
000140 9e f4 4d 3e 5d ff 3b 3e 91 9c 87 bd 18 db b0 3d
       0.20112845 0.18359132 -0.066216595 0.08635539
000150 f8 df 43 3e ba 6d 65 3d f4 d3 88 3d 1d c8 95 3d
       0.19128406 0.056012847 0.06681052 0.07313559
000160 d6 07 58 3e dd 71 2e be 94 d3 5b be 1e da 59 be
       0.21096739 -0.17035623 -0.2146743 -0.21274611
000170 78 68 3e 3e ec 4e 1a 3d b3 11 2c 3e e1 c1 82 3d
       0.18594539 0.037672922 0.16803627 0.06384636
000180 19 2a 5c be 27 45 2b 3e ba e3 07 3e b0 e3 5a 3e
       -0.21500434 0.16725598 0.13270465 0.21375918
000190 76 57 f2 3c 5c fc 1c bc e2 64 dd 3d c2 70 d9 bd
       0.02958272 -0.009581652 0.108102575 -0.1061721
0001a0 b7 4c 40 3d 5b ad 0f be ac 06 41 be 0b 1f a0 3d
       0.04694816 -0.14030974 -0.18850201 0.07818421
0001b0 c2 c1 56 3c 85 d6 33 be f8 82 9f bd a2 88 29 be
       0.013107719 -0.17562301 -0.07788652 -0.16556028
0001c0 04 bc df 3d fa f5 33 3d 3b b6 1c 3e 37 36 6a 3e
       0.10924533 0.043935753 0.1530389 0.22872244
0001d0 d6 42 40 3e d7 46 92 3b f5 01 82 bd 7c aa ed 3d
       0.18775496 0.004464011 -0.063480295 0.11604783
0001e0 18 a5 d9 bd 19 3c 38 3e ff 56 d5 3d c9 0c ba 3d
       -0.10627192 0.17991675 0.10416984 0.0908447
0001f0 38 41 48 be cd d7 1e be f7 cb 0a be 78 6b b2 bc
       -0.19556129 -0.15512009 -0.13554369 -0.02177976
000200 86 42 27 bd 68 47 1c 3e d4 05 15 3d ef 95 f1 3d
       -0.040834926 0.15261614 0.03638251 0.11796176
000210 4f ac 04 3d a9 9b 31 3e dd b4 2a 3e ab 03 38 3e
       0.03239089 0.17344536 0.16670556 0.17970149
000220 02 66 0d 3e b7 6e 2b bd 6a ac aa 3d 7b d3 63 be
       0.13808444 -0.041853633 0.083336666 -0.22248642
000230 b7 fa 3f 3e e7 a0 cc bd 6c e2 87 bc 5b bd 51 be
       0.18747984 -0.09991627 -0.016587459 -0.2048239
000240 bd 0d 6b 3d 1d 81 e3 bd 52 fb 93 bd b8 e4 96 bd
       0.05738615 -0.11108611 -0.0722567 -0.073678434
000250 4a 97 54 bd 5f e3 22 be 57 97 dd bc 7b f3 ca bd
       -0.051902093 -0.15907048 -0.027049704 -0.099097215
000260 df 3e b9 bc 0f 46 1d bd 40 03 55 be c3 16 5b be
       -0.022612987 -0.03839689 -0.20802021 -0.21395402
000270 03 62 f8 bc 5e db c0 3d 9b 4e 89 3d db 42 8f bc
       -0.030320173 0.09416841 0.06704446 -0.017487934
000280 60 c6 38 3e 45 f8 a3 3d ad 50 e3 3c c3 b7 b3 3d
       0.18044424 0.08006338 0.02774843 0.08775284
000290 b6 5b 30 be 2b 10 1f be 87 a6 45 be 58 af c6 3d
       -0.17222485 -0.15533511 -0.19301806 0.09701413
0002a0 bf ae 99 3d 2c 40 78 3d dc 3c be bd ce 4e 1d be
       0.07504033 0.060608074 -0.09288952 -0.15362093
0002b0 71 a7 42 be a5 14 22 3d 49 be 0d bd c7 be 2d 3e
       -0.19009186 0.03957047 -0.0346053 0.16967307
0002c0 50 0a 37 3e 7f 67 6c bd 8a d3 6a be 44 f0 3b 3e
       0.17875028 -0.05771589 -0.22932258 0.18353373
0002d0 30 25 26 be 33 a2 60 3e 39 69 02 3e f2 3d 2e be
       -0.16225123 0.21936874 0.12735452 -0.17015818
0002e0 3f 04 ea bb f3 6e 0f 3e ec c5 d1 bc f4 5d d0 bd
       -0.0071416195 0.14007168 -0.025607072 -0.1017417
0002f0 5e 23 e5 3d 4b ad 65 3e 15 0d 1a 3e d1 bb a6 3d
       0.111883864 0.22429387 0.15044053 0.08141292
000300 15 cf aa 3d 02 e8 61 3d e1 3a 3e 3c 39 a2 37 3e
       0.08340279 0.0551529 0.0116107175 0.17932977
000310 97 6f 80 3d b3 b2 68 be 22 0e 44 be 3d 91 22 be
       0.06271284 -0.22724418 -0.19146016 -0.15875717
000320 29 cd 21 3e 4b 73 5d 3e 4f 06 2a be 85 ef 05 3e
       0.15800919 0.21626012 -0.16603969 0.1307965
000330 14 88 94 bd 08 e2 d9 3d 27 e0 28 be 7f d4 13 be
       -0.07252517 0.10638815 -0.16491757 -0.1443653
000340 ba fa 41 3e 81 0e 4e be 89 0d 0a be 6a e6 d0 3d
       0.18943301 -0.2012272 -0.13481726 0.10200198
000350 8f 19 63 be 34 08 ec 3b 69 7f 0d be ad c0 3b be
       -0.22177719 0.0072031263 -0.13818134 -0.18335219
000360 6f 70 bd 3d b1 8c fd bd 25 e8 ea bd e4 85 4a 3e
       0.09249961 -0.123803504 -0.11470059 0.19777638
000370 b0 5d 13 be 74 ee 40 3b 77 42 2c be 7c 23 f2 bd
       -0.14391208 0.0029439004 -0.1682223 -0.11823174
000380 63 e9 63 be b6 1b 6a 3e e6 e4 72 3d 6e e6 05 3e
       -0.22256999 0.22862133 0.059300326 0.13076183
000390 50 7b 2e 3e 16 a1 44 3e 33 70 d8 bc db 7c 18 3e
       0.17039227 0.19202074 -0.026420688 0.14891379
0003a0 44 34 4e be 58 69 2c 3e 6f 49 f7 3b d3 c2 03 3d
       -0.20137125 0.1683706 0.0075465958 0.03216822
0003b0 09 a1 b1 bd 45 46 8e bc fe 02 10 bc 7e a4 c6 3d
       -0.08673293 -0.017367491 -0.008789776 0.09699343
0003c0 6b 50 65 be 33 04 b7 3b ec f8 ab 3d 0d ca 66 be
       -0.22393958 0.0055852174 0.083970875 -0.22538014
0003d0 da 8b 45 be d5 76 e4 3d 5b e0 58 bd a6 79 43 bd
       -0.1929163 0.11155478 -0.052948337 -0.047723435
0003e0 06 6b d9 bd e7 83 ae bd 6f 99 07 be ec 37 15 3e
       -0.10616116 -0.08521252 -0.13242124 0.14572114
0003f0 ad c7 1f bc 3d ee 85 bc 19 50 99 3c 1a 01 4b 3e
       -0.009752196 -0.016348952 0.018714951 0.19824639

0.bias f4 [64]
000000 2b 4c 9c 3b b6 29 1e 3e 8d a3 68 3d b9 7b 91 3d
       0.004769822 0.15445599 0.0567966 0.07103676
000010 1a e2 02 3e 90 14 00 3e 68 e6 89 bd 66 42 5d 3e
       0.12781563 0.12507844 -0.067334 0.2160736
000020 5a 38 4e 3e aa 00 1b be 66 41 57 3e aa 03 d2 3d
       0.20138684 -0.15136972 0.21021041 0.10254605
000030 fa 14 33 3e 54 9d 03 be 84 fb d3 3d aa 19 5d be
       0.1748847 -0.12852985 0.10350707 -0.21591821
000040 bd d6 29 be 0c eb cb bd 42 ac 92 3d fe fe b8 3d
       -0.16585822 -0.09956941 0.07161762 0.09033011
000050 d1 37 df bd 8a cb 2e bb 2a e2 88 bc ed 2d 8a 3d
       -0.10899318 -0.0026671612 -0.016709406 0.06747041
000060 6b 6a ef 3c f4 8f 1e 3e de 46 51 3e 7d 5c 97 bc
       0.029225549 0.15484601 0.2043719 -0.018476719
000070 58 14 90 3d f7 db 53 be 71 37 29 be 21 c6 29 3e
       0.0703513 -0.20689379 -0.16525055 0.16579486
000080 54 85 32 be f3 a4 22 be 1a 73 31 3e 5d 19 1f be
       -0.17433673 -0.15883236 0.17329064 -0.15537019
000090 5c b4 58 3e 45 71 f3 bd c2 ea 13 bd 8f 8e 35 be
       0.21162552 -0.11886839 -0.036112554 -0.17730163
0000a0 63 78 3b be 4c 41 dd bd 1e c6 b1 bd 68 57 02 be
       -0.18307643 -0.1080347 -0.08680366 -0.12728655
0000b0 c1 ca 16 3c 91 26 27 3d 77 8e 36 be 93 3f 04 be
       0.009203614 0.040808264 -0.17827784 -0.12914877
0000c0 b1 6a b3 3c 49 85 77 bd a3 64 3b 3e 5e c7 19 3d
       0.02190146 -0.060429845 0.18300109 0.037543647
0000d0 fd cc 53 be 69 ed ba 3d ff f3 de 3c 01 0a 4c be
       -0.20683666 0.09127314 0.027215956 -0.19925691
0000e0 da 71 68 3d 05 f0 cd bc 01 e1 05 3e 46 cd 2e be
       0.056749202 -0.025138864 0.13074113 -0.17070493
0000f0 0b 6d 67 3e 71 96 ec 3d 2e dc 5c be d1 8d 14 be
       0.2260019 0.11552132 -0.21568367 -0.14507224

2.weight f4 [128, 64]
000000 40 89 ae bb ce e4 ff 3d 60 7e 50 3c b4 e8 bc bd
       -0.00532642 0.12494813 0.012725443 -0.09224072
000010 00 e4 f3 3b 12 44 a0 3d bc 8b 02 bd 48 de 0f 3d
       0.007442951 0.078254834 -0.031871542 0.035124093
000020 78 af ad bd 22 e1 e3 3d bc b2 bc bd 1e 05 df 3d
       -0.08480734 0.11126925 -0.092137784 0.10889648
000030 a4 d1 bf 3d 44 ff ca 3d 68 1f 1d 3d fa fe a4 bd
       0.09366158 0.09911969 0.03836003 -0.080564454
000040 40 ae fa bb d4 8e bb 3d dc c0 af 3d 8c aa 41 3d
       -0.0076501667 0.09158102 0.08581707 0.047281787
000050 e0 12 d1 3d d8 94 74 3d 00 46 ad ba 52 6b d6 3d
       0.10208678 0.05971226 -0.0013219714 0.104696885
000060 ac 68 18 bd be cf a4 bd 38 5b ee 3c 10 fe 1c 3c
       -0.037209198 -0.08047436 0.02909623 0.009582058
000070 e0 be 6c 3d 80 06 67 bc 24 1a 32 bd 60 5d 1f bd
       0.05779922 -0.014100671 -0.04348196 -0.03890741
000080 60 e8 33 3c 98 ca 92 3d 58 04 8c 3d 00 0b 83 bd
       0.0109806955 0.07167548 0.06836766 -0.063985825
000090 c2 cd b8 bd 2c a6 13 3d 78 92 6e 3d 60 43 c6 3c
       -0.0902362 0.036047146 0.058245152 0.024202049
0000a0 c0 a4 50 bc c6 f8 ba 3d ac f4 f0 3d ec 46 a3 bd
       -0.012734592 0.09129481 0.117654175 -0.07972512
0000b0 62 c1 fa bd e4 83 69 3d f4 d8 e0 bd c2 b1 d5 3d
       -0.12243916 0.057010546 -0.109788805 0.10434295
0000c0 dc 93 cf 3d 04 93 69 3d 20 66 d2 bd 70 e4 1d bc
       0.10135624 0.05702497 -0.10273385 -0.009636983
0000d0 78 62 f2 bd 12 16 c2 3d 00 f6 a8 bc 90 03 c6 bc
       -0.11835188 0.09476866 -0.020625114 -0.02417162
0000e0 0c 35 d8 bd 94 62 2b bd 14 b5 9d bd 00 cf 42 bc
       -0.10556993 -0.04184206 -0.077005535 -0.011890173
0000f0 ca f2 d7 bd d6 78 e3 bd 54 84 5d bd 68 97 a0 bc
       -0.10544355 -0.11107032 -0.054081276 -0.019603446
000100 a2 d0 fa 3d a0 a3 8c 3c 70 7d ac bd 06 96 fb bd
       0.12246825 0.017167866 -0.08422363 -0.12284474
000110 70 3c 33 bd 5c 4b 48 bd da e5 ad 3d 08 a7 de bd
       -0.04375881 -0.048899993 0.08491106 -0.108717024
000120 f0 92 6b 3d 90 55 9b 3c cc 7a 6a bd f0 6d 5f bc
       0.057513177 0.018961698 -0.057246014 -0.013637051
000130 48 54 9d 3c b0 e4 a8 bc 7c 7e 41 3d ae 5c 98 bd
       0.019205227 -0.02061686 0.047239766 -0.07439552
000140 50 87 5a 3d 58 ac ac bc fe ee fb bd 02 cd db bd
       0.0533517 -0.021078274 -0.123014435 -0.107324615
000150 5c a9 9c 3d ae f8 f0 3d ac 86 bb 3d 10 73 aa 3d
       0.0764949 0.11766182 0.09156546 0.08322728
000160 6c b4 5e 3d 1c dc e1 3d 60 8f 93 bc 40 10 fc 3d
       0.054371282 0.11028311 -0.018012702 0.12307787
000170 56 f1 ff 3d a4 dd f1 3d d4 0d b6 3d 28 46 13 bd
       0.12497203 0.11809853 0.08889356 -0.035955578
000180 b4 e2 c2 3d 60 36 36 3d a0 3c fb bb 48 b0 db 3c
       0.095158964 0.04448545 -0.007667139 0.026817456
000190 d8 3e 9a 3c 00 53 c8 3c 36 d7 d8 bd 20 d8 cb 3d
       0.018828794 0.02445364 -0.10587923 0.09953332
0001a0 c4 9c 15 bd 74 a7 a6 3d 10 5e 06 bc 6c ce f3 bd
       -0.036526456 0.08137408 -0.008201137 -0.11904606
0001b0 b8 9e d6 3c c4 11 e2 bd a8 4e 37 bd c0 67 cb 3c
       0.02619873 -0.11038545 -0.044752747 0.024829745
0001c0 a8 f4 69 bd b8 cc b6 bd 78 db 41 3d 98 63 51 bd
       -0.057118088 -0.08925766 0.047328442 -0.05112037
0001d0 2c 61 c6 3d 98 dd f5 bc 94 01 97 bd ac 68 10 3d
       0.09686503 -0.03001289 -0.07373348 0.035256073
0001e0 78 1f ab bc 08 d9 41 3d 90 5e 5d bc 3e 74 e9 bd
       -0.020889029 0.047326118 -0.013511315 -0.113991246
0001f0 b8 77 93 bd dc 65 d9 3d 40 09 33 3c e0 65 d7 3b
       -0.07200569 0.10615131 0.010927498 0.0065734237
000200 60 a4 e9 bb c6 ed e1 3d 76 fa f4 bd 94 23 1a 3d
       -0.0071301907 0.1103168 -0.11961834 0.037631586
000210 42 46 ff bd a0 5c ff 3d bc f4 d3 3d 20 ce c5 bd
       -0.124645725 0.12468839 0.10349414 -0.09658456
000220 8e 24 c3 3d 70 b7 b8 3d fc db 51 3d 76 65 9c 3d
       0.09528457 0.09019363 0.051235184 0.0763654
000230 b0 0f 55 3d c2 8f 93 bd 7c dc da 3d e4 60 0e 3d
       0.052016914 -0.07205154 0.10686585 0.03476037
000240 80 11 14 bb 54 31 af bd 30 5e 28 3c 30 02 dd 3c
       -0.0022593439 -0.085543305 0.010276362 0.026978582
000250 88 0f ff bd a8 e9 8b 3d 14 4d 4d 3d a0 ef 60 3c
       -0.12454134 0.06831676 0.050122336 0.013729006
000260 40 b9 46 3b f0 49 32 bd 98 24 8e bc f0 98 76 3c
       0.003032282 -0.043527544 -0.017351434 0.015051112
000270 84 c8 5a 3d 80 31 a8 3c 5c a4 57 3d e0 2c 35 3d
       0.053413883 0.020531416 0.05264698 0.04423225
000280 06 f0 cc bd 88 66 bf 3c f0 d5 0e 3c de 46 9d bd
       -0.10006718 0.02336432 0.008717999 -0.076795325
000290 d8 dd b7 3c c6 92 c0 3d c0 f2 6e bb 92 22 eb 3d
       0.02244465 0.09402995 -0.0036460608 0.11481203
0002a0 ec 18 3e 3d 72 06 c4 bd bc fa e1 3d c0 70 4c 3b
       0.046410486 -0.09571542 0.11034152 0.0031195134
0002b0 9a fb bc bd 72 83 f3 bd f0 9e 26 3d 78 36 48 bd
       -0.09227677 -0.118903056 0.04067892 -0.04888007
0002c0 f0 bb db 3d b8 7d db 3d 8c 9b 0d bd 64 ba 0b 3d
       0.107292056 0.10717338 -0.03457217 0.034113303
0002d0 10 52 7f 3c d4 de b4 bd e0 2c 03 3d 20 dd 67 3c
       0.01558353 -0.088315636 0.032025218 0.014151841
0002e0 82 87 f9 3d 72 f4 fe 3d f0 b5 0a bc 48 2c 0c bd
       0.12184049 0.12448968 -0.008466229 -0.034221917
0002f0 de ad dc 3d 14 9d 60 bd 0e da 88 3d 20 5a bd bc
       0.1077535 -0.0548373 0.06682216 -0.023114264
000300 14 0f 94 3d 50 b4 4a 3d 3a 7e 90 3d d2 14 bf 3d
       0.072294384 0.049488366 0.07055326 0.09330143
000310 8c 31 81 3d 18 3d fc 3d 8e 5b ef 3d d4 27 de bd
       0.063082784 0.1231634 0.116873845 -0.1084744
000320 34 74 fc 3d 86 fe a2 3d 38 e8 21 bd c8 38 cf bc
       0.123268515 0.07958703 -0.0395281 -0.02529563
000330 f6 52 be bd 10 3b 27 3c ae cd ba bd 78 45 da bc
       -0.09293167 0.010206953 -0.091212615 -0.026644453
000340 98 ec 22 3d 08 5b ca bd 14 6a 4f bd 0e 5e 9f bd
       0.039776415 -0.09880644 -0.050638273 -0.077816114
000350 a8 e2 5b bd d8 38 80 bd a0 7c 40 bd d8 ca 1c bd
       -0.053682953 -0.06260842 -0.04699385 -0.038279384
000360 04 74 a8 3d 74 32 86 bd 8e 25 d3 3d 1c e3 0f bd
       0.08225253 -0.06552592 0.10309897 -0.035128698
000370 40 6e 78 3c 72 32 fa 3d b0 7c 8c 3c d8 a4 90 bc
       0.015163004 0.12216653 0.0171493 -0.017656729
000380 32 5d f3 bd 40 82 ce 3d 9c f9 f8 3d 08 c5 36 bd
       -0.1188301 0.10083437 0.12156984 -0.044621497
000390 96 09 f5 3d 80 8f 7c bb da d6 cf 3d 2a d3 ab 3d
       0.11964719 -0.003853768 0.101484016 0.08389886
0003a0 34 91 c9 bd c6 40 f7 bd de 0b bf bd 50 d1 09 3d
       -0.098421484 -0.120729014 -0.09328435 0.03364688
0003b0 a8 6f bd bd 60 09 07 bd 10 0c 96 3c 40 bd a5 bb
       -0.09249812 -0.032967925 0.018316299 -0.0050579607
0003c0 8c 21 d0 bd 90 30 1e bd c0 97 01 3d f6 b2 d1 3d
       -0.101626486 -0.03862053 0.03163886 0.10239212
0003d0 0a 5b 98 bd d8 35 8e 3c 2e 3d dc bd 4c fe 52 bd
       -0.07439239 0.01735966 -0.107538566 -0.051512048
0003e0 36 0b c2 3d 1a f8 b1 3d 0e f6 8a 3d 7a ee 82 bd
       0.094747946 0.086899 0.067852125 -0.06393142
0003f0 5c 84 b6 3d 64 ea 98 bd b8 ee b0 3d dc 82 3e 3d
       0.08911964 -0.074665815 0.08639282 0.046511516

2.bias f4 [128]
000000 74 93 2d 3d 24 b4 86 3d 98 58 13 3d f0 fb 1b 3d
       0.04237695 0.06577328 0.03597316 0.038082063
000010 f0 e5 d1 3d 10 4f a2 3c 84 77 8e 3d 50 e5 6b 3c
       0.10248935 0.01981309 0.069563895 0.014397934
000020 64 d4 55 3d 58 ae 95 3c 36 67 9d bd ae 6c e8 3d
       0.052204505 0.01827161 -0.076857015 0.11348854
000030 b4 60 b9 3d 24 8e 85 bd b2 ed cb 3d 10 55 f7 3c
       0.09051648 -0.06521252 0.09957446 0.030191928
000040 e6 24 a4 3d ce c9 97 bd 90 fe ad bd 0e 10 b2 3d
       0.0801485 -0.07411538 -0.084958196 0.086944684
000050 00 ac 22 bd 74 29 aa bd d0 59 45 bd 5c aa d2 bd
       -0.039714813 -0.08308688 -0.048181355 -0.102864
000060 b4 fe 16 3d 7c c2 9d 3d 80 78 a1 3d 20 c9 be 3d
       0.036863998 0.077031106 0.07884312 0.09315705
000070 e8 9a f7 3c 1e 1f c3 bd c4 90 d6 bd 7c 19 76 bd
       0.030225232 -0.095274195 -0.104768306 -0.060082898
000080 a0 17 2a bd 58 d8 6c bd 06 8a e0 bd b0 1f 66 bd
       -0.041526437 -0.05782351 -0.10963826 -0.056182563
000090 00 35 31 bc e8 de 9f bc 78 7f 9e 3c 0e 06 ab 3d
       -0.010815859 -0.01951547 0.019347891 0.08350764
0000a0 20 2f a6 bc 20 16 65 3c 82 b3 c9 bd bc d3 f8 bd
       -0.020286143 0.013982326 -0.098486915 -0.1214976
0000b0 30 1f f3 3d a8 e7 42 3d 98 9b 89 3c a0 eb 74 3c
       0.11871183 0.047584206 0.016797826 0.0149487555
0000c0 2c 65 c3 bd ba f5 dc bd 98 3e 33 3d 40 c9 70 bb
       -0.095407814 -0.10789056 0.043760866 -0.0036741048
0000d0 80 7b bf bd 76 90 db 3d 48 8b a8 bd a0 a3 ec bd
       -0.09349728 0.10720913 -0.08229691 -0.115546465
0000e0 0c 3a 88 3d 4e 5d 8b 3d 02 4d ea 3d 86 d1 9f 3d
       0.066516966 0.06804906 0.11440469 0.07803635
0000f0 64 ad 87 3d 2a dd fb bd f8 aa cf bc 48 94 e6 3d
       0.066248685 -0.12298043 -0.025350079 0.11258751
000100 c8 96 c8 3d 9a e2 a7 bd 74 9f 21 3d 48 a3 d4 3c
       0.09794384 -0.08197518 0.039458707 0.025956765
000110 b8 c1 e3 bd ca 36 81 bd 28 24 16 bd 34 83 58 3d
       -0.11120933 -0.06309278 -0.036655575 0.0528595
000120 58 da e9 3c ae 56 e9 3d be b6 8a bd 1c a3 2c 3d
       0.028546497 0.11393486 -0.067731366 0.04214774
000130 18 53 d1 3d f4 ef cf 3d b0 0d 58 3c 5c ee 6b bd
       0.10220927 0.10153189 0.013186857 -0.057600364
000140 d6 d3 85 bd 0a a7 88 bd e8 81 c4 bd 8e 61 c6 bd
       -0.06534545 -0.06672485 -0.0959509 -0.09686576
000150 ec 3d 7b bd 00 5e b1 3d a0 49 07 3d 60 e9 6f 3d
       -0.06133835 0.08660507 0.0330292 0.058572173
000160 7c c3 49 3d c4 a3 34 3d b0 a8 f8 3d 18 df aa 3c
       0.049258694 0.04410149 0.121415496 0.020858333
000170 9c f4 a1 bd a0 8a 44 bd b8 1f fd bd 14 8d 40 3d
       -0.07907984 -0.047983766 -0.123595655 0.047009543
000180 7c e4 8f bd ee bb e5 3d 9a 9f a3 bd 00 3c 06 39
       -0.07026002 0.11217485 -0.07989426 0.00012801588
000190 44 55 dc 3d d8 2e 3e 3d f0 6f 9e 3d 70 01 36 3d
       0.107584506 0.046431392 0.07736194 0.044434965
0001a0 48 61 dd bd d8 d4 9c bc 08 1b cb bd b4 6c dc bd
       -0.108095706 -0.01914446 -0.09917265 -0.10762921
0001b0 00 18 dc b8 3e a8 e6 bd 78 1d 74 3d 40 5f 71 3c
       -0.00010494888 -0.112625584 0.059598416 0.014732182
0001c0 e0 74 d0 3b 40 c3 96 bb 2c 3d 49 3d d2 bf 8b bd
       0.006361589 -0.0046009123 0.049130604 -0.06823696
0001d0 4c 1d 28 3d 34 81 f5 3d 64 e1 bc bd ca ca e1 bd
       0.041043565 0.11987534 -0.09222677 -0.11025007
0001e0 b0 66 fd 3d b8 fe c4 bc aa 1c fd 3d 1a 8c 95 bd
       0.12373102 -0.02404724 0.12358983 -0.07302113
0001f0 10 f0 c4 3d c0 37 10 3b f0 96 ad bc fc c5 7b bd
       0.09616101 0.0022005886 -0.021190137 -0.06146811

4.weight f4 [64, 128]
000000 9c 31 97 bb 13 ab 8d bd 01 0f 31 bd 69 8f 20 3c
       -0.004614068 -0.069173954 -0.0432272 0.009799817
000010 cb b6 96 bc 65 f4 20 bd b5 d3 7b 3d 0d 14 81 3d
       -0.01839771 -0.039295573 0.061481196 0.063026525
000020 aa 18 c1 3c ff ea 04 3d f1 e4 32 3d f0 b1 94 bd
       0.023571331 0.032450672 0.043675367 -0.072605014
000030 26 c8 32 3c 0a c5 35 3d c7 5f 87 bd e2 ea e9 3c
       0.010911977 0.044377364 -0.06610065 0.028554384
000040 c5 69 26 3a e8 9f 15 3d 25 6d 85 3a 17 9d 2c 3d
       0.00063481583 0.03652945 0.0010179622 0.042142
000050 68 aa f1 3c f6 29 8a bd cd 90 05 3d 1d bd 36 3d
       0.029500201 -0.06746285 0.032608796 0.044613946
000060 bc 76 a2 3d 30 08 ab 3d d3 d1 90 3d 12 56 08 bd
       0.07932803 0.08351171 0.07071271 -0.033285208
000070 47 b9 ac bd bf ef 6f 3d 43 08 9c 3d 17 67 27 bd
       -0.08433776 0.05857825 0.07618763 -0.0408698
000080 d4 e0 4c 3d fa 38 26 3d da 0a a3 3d c8 86 a5 3d
       0.0500191 0.04058168 0.07961054 0.08082348
000090 d1 0e b3 bb a5 df 93 bd c7 fc 97 3d 61 16 6f 3d
       -0.0054644127 -0.07220391 0.0742126 0.05837095
0000a0 2e f4 66 bd 76 db 96 bd 4d 89 37 3d c2 06 53 3d
       -0.05638521 -0.073660776 0.044808675 0.051520117
0000b0 c6 c4 9d 3d 38 27 64 bd 4e 48 52 3d 97 2c 6e 3d
       0.07703547 -0.055701464 0.051338486 0.058147993
0000c0 d7 d4 b5 b9 88 46 1c 3d 84 50 23 3d b8 32 c9 bb
       -0.00034681588 0.0381532 0.039871708 -0.0061400793
0000d0 e4 e7 54 3d c3 b8 97 3d a2 bd d3 3c 71 67 12 bd
       0.05197896 0.074082874 0.02584726 -0.03574318
0000e0 4a 96 1a bd 2b 7d b2 bd 0c f2 7b 3d 0a 13 ed bc
       -0.037740983 -0.0871528 0.06151013 -0.028939743
0000f0 0a 47 92 3d 35 9b 40 3d 2b 5f 93 bd be d3 93 3d
       0.07142456 0.047023017 -0.07195886 0.07218121
000100 13 c5 f2 bc d9 92 13 bd 89 d6 01 3d 15 7f d6 b9
       -0.029634988 -0.036028717 0.031698737 -0.00040911944
000110 a5 74 43 bb 82 50 c4 3c 51 09 0a bd 44 45 6b 3d
       -0.0029824164 0.02396417 -0.03370029 0.057439104
000120 78 d4 6f 3d e6 c2 13 3d 27 84 8f bd 6e c6 05 bd
       0.058552235 0.03607454 -0.07007628 -0.03265994
000130 d8 aa cc ba e8 86 85 bd c7 b1 12 3d 51 cd 2a 3c
       -0.001561488 -0.06519872 0.035814073 0.010424928
000140 0a c1 74 bd e4 0d 02 3d ed 1f 0c bc 67 3a 65 3d
       -0.05975441 0.03175153 -0.008552534 0.0559639
000150 e6 a6 ae 3d c4 8c b8 bc 87 93 7b bd c2 12 05 bd
       0.08527927 -0.02252806 -0.06141999 -0.032488592
000160 5a c7 08 3c c1 20 8a bc 75 8a 57 3d 6a 1a 07 3d
       0.00834831 -0.016861321 0.052622277 0.032984175
000170 81 13 85 bd c5 56 5e bd b2 3c 91 3d 9a b2 96 bd
       -0.06497861 -0.05428197 0.07091655 -0.07358284
000180 e0 21 94 3d cc 8c 0a bd ed ee 28 bd 09 b3 21 bd
       0.07233024 -0.03382568 -0.041243482 -0.03947738
000190 12 06 08 3d 1a 4f 47 bc b8 ce c6 b8 aa 0c a7 3d
       0.033208914 -0.012164855 -9.47988e-05 0.08156712
0001a0 87 d2 2d bd 6f 0e 9a 3d 65 9e fc bc a6 8b f1 3c
       -0.042437103 0.07522284 -0.030837247 0.029485535
0001b0 63 54 94 3c e0 41 da 3c 9a 36 86 bd 5c 89 1b bd
       0.018106645 0.02664274 -0.06553383 -0.037972793
0001c0 36 cb f7 3c d5 f3 6b 3d 38 0a c0 3c b3 65 51 bd
       0.030248266 0.057605583 0.023442373 -0.05112238
0001d0 55 d4 50 bd e4 6e 3a bd 95 6d 7c bd 12 6b 72 3d
       -0.050983746 -0.04551591 -0.061627943 0.05918414
0001e0 02 31 31 3d 8e ef a8 3d ec 5c 9b 3d cf ec 86 3d
       0.043259628 0.082488164 0.07586083 0.065881364
0001f0 5e 51 a0 3d 68 12 8c bd e7 5b 22 3d 84 c3 8b bb
       0.078280196 -0.06839448 0.039638426 -0.0042652506
000200 26 3c 70 bd cf bf 68 3d 21 c7 2a bd 40 46 45 bd
       -0.058651112 0.056823548 -0.04169381 -0.0481627
000210 25 39 90 bd 24 8d 7d 3d c4 4e 94 3d 2d b2 7b 3c
       -0.070421495 0.06190218 0.07241586 0.015362305
000220 e6 13 9e bc f6 d8 70 3d c4 68 b4 3b 05 cb d0 3c
       -0.019296598 0.05880066 0.005505653 0.025487432
000230 78 4a 52 3c 92 ea 24 bd a2 c5 87 bc 61 59 90 3c
       0.012835138 -0.040262766 -0.01657373 0.017620744
000240 14 b6 18 3c 68 ae b2 3d b1 bd 85 bd c5 97 99 3d
       0.009320755 0.087246716 -0.065303214 0.07499651
000250 1d ce 1f 3d 70 5e 01 bd 89 1a ae bd 44 ea fe bc
       0.039014924 -0.031584203 -0.08501155 -0.031117566
000260 1c 43 db bb 65 06 b0 3d 48 90 a3 3d 4b fa a1 3d
       -0.0066913497 0.0859497 0.07986504 0.07909068
000270 51 85 b8 bc a8 d7 f2 bc 42 8a 9b bd e5 71 77 3d
       -0.022524508 -0.029643849 -0.0759473 0.060411353
000280 7e e3 41 bd f5 c3 0b bc 8a 6a 2d bd d7 be 85 3c
       -0.047336094 -0.0085306065 -0.04233793 0.016326351
000290 db 47 d3 3c 96 23 0b bd 89 e3 a8 bd ff e2 2a bd
       0.0257911 -0.033969484 -0.08246524 -0.041720387
0002a0 2c 22 9a 3d 87 97 d1 3b 12 57 ea 3c 0e 2b 55 3d
       0.07526049 0.0063962373 0.028605971 0.052043013
0002b0 75 d0 90 3b fa 2c 9a 3c c3 e6 b9 3b c3 8d 98 bd
       0.0044193813 0.018820275 0.005673261 -0.07448914
0002c0 f3 cc 31 bd 86 8b f8 3c 67 d7 35 3c 17 95 78 3d
       -0.043408345 0.030339967 0.011098719 0.06068906
0002d0 4d dc 88 bd ac f6 93 3c f7 03 d9 b9 e6 2b 58 3c
       -0.06682644 0.018061958 -0.0004139242 0.01319406
0002e0 33 80 9d 3b 44 6b cd bb a4 1a 2a bd 4c 9d 0f bd
       0.0048065423 -0.0062688906 -0.041529313 -0.03506212
0002f0 30 91 5b bd 6b 0a 9e bd 22 eb 1e 3d a1 af a7 bd
       -0.05360526 -0.07716831 0.03879846 -0.081877954
000300 23 ee 66 3d 85 7d ea 3c 1e fa 8f 3b 67 60 b4 3d
       0.05637945 0.028624306 0.00439383 0.0880745
000310 93 d4 bd 3c 36 5a 76 3d d5 fe ea bc ec 33 cb 3c
       0.023172652 0.060144626 -0.028685967 0.024805032
000320 7d 90 a2 3d fb 24 26 3d 64 08 0a bd 1e 3a 30 3c
       0.07937715 0.04056261 -0.03369941 0.010756044
000330 b7 26 ab bd b1 6f a5 3d d0 cc 21 bd f5 35 86 3d
       -0.08356994 0.08077944 -0.039501965 0.0655326
000340 67 92 2b 3d c4 c1 92 3d e2 ed ad 3d 90 9d 99 3d
       0.041887667 0.07165864 0.08492638 0.07500756
000350 57 0a 83 bc 85 8d f2 bc b3 19 20 3d f8 29 d1 bc
       -0.015996141 -0.029608497 0.03908701 -0.025532708
000360 c7 0a 86 3d 95 31 3c 3d 01 0f 8b bd 80 55 4f 3d
       0.06545024 0.045945723 -0.06789971 0.05061865
000370 13 b7 59 bd f7 07 d5 3b dd 17 9f 3d cc d5 d5 3c
       -0.05315311 0.0065011936 0.077682234 0.026102923
000380 34 f1 96 bd 73 ef 47 3d f2 c3 44 3d d0 d4 4b bd
       -0.073702246 0.04881234 0.04803843 -0.0497635
000390 e9 04 8c bd 1d 02 28 3d 10 cd 0d bd 79 64 92 bd
       -0.06836874 0.04101764 -0.03461939 -0.0714807
0003a0 72 56 83 bd 7e 87 7c bd 35 dd ae bc 2f e3 17 bc
       -0.064129725 -0.061652653 -0.021345714 -0.009270473
0003b0 bf f7 43 3d 31 7d 0d 3c 47 e9 fd bc 52 16 92 bd
       0.04784369 0.008635805 -0.030995024 -0.071331635
0003c0 3c 53 b2 3d 4e c7 a0 bd 7d bc b5 bc ca 13 0d 3c
       0.08707282 -0.07850514 -0.022184605 0.008610675
0003d0 f2 09 f8 3c 5a fd 9d 3d 24 f7 82 3d e8 7d d7 bc
       0.03027818 0.077143386 0.063947946 -0.026305154
0003e0 95 d3 47 3d 22 62 88 bd 08 0d 89 bd 65 c1 65 bd
       0.048785765 -0.06659342 -0.06691939 -0.05609264
0003f0 ed 1c f0 3c 30 a5 8a 3d 23 71 70 bd bc 35 8c bc
       0.029310668 0.06769788 -0.058701646 -0.017115466

4.bias f4 [64]
000000 c3 a4 8e ba 20 22 7b bd 37 72 8a 3d 68 6a 96 bc
       -0.0010882843 -0.06131184 0.06760066 -0.018361285
000010 87 85 8c 3b 7b 97 75 bd 54 82 93 3b dd 72 da 3c
       0.0042883786 -0.059958916 0.0045016203 0.0266661
000020 a5 5b a9 bd 2e f5 69 3c 0e d5 1d 3d fc 8e 43 bb
       -0.08269433 0.014279647 0.038533263 -0.0029839864
000030 30 ec 6d bc 96 62 50 bd 53 fe 16 bd 20 23 92 bd
       -0.0145216435 -0.05087527 -0.036863636 -0.07135606
000040 fd fd b1 bd 61 08 ae bd 72 d1 81 bc 9f 07 97 bd
       -0.086910225 -0.08497692 -0.015846942 -0.073745005
000050 86 a2 0d 3d 12 f8 57 3d 87 c4 75 bd 1f b2 7d bd
       0.034578823 0.052726813 -0.060001876 -0.061937448
000060 0e d8 0d bb 27 ed 8e 3c 9e 3b ad 3a ac ca 18 3b
       -0.0021643671 0.017447067 0.001321662 0.0023314161
000070 da 01 29 3d 19 66 7d bd b3 06 fc 3c b9 e8 44 bd
       0.04126153 -0.061864946 0.030764913 -0.048073504
000080 b9 d9 4c 3d f0 cb 19 bd e0 1d 87 bc 82 c9 3a 3d
       0.050012324 -0.037548006 -0.016493738 0.04560233
000090 6f 23 81 bd 45 e9 81 3d e8 0f a7 bd 22 2a 5a bd
       -0.063055865 0.06343321 -0.08157331 -0.053262837
0000a0 aa 09 97 3d 77 4c 48 bc 79 e7 89 3d 1e 31 94 3c
       0.0737489 -0.012225262 0.06733603 0.018089827
0000b0 3a 97 32 3b 71 61 41 3d aa e3 8d bd b4 26 5b 3d
       0.0027250783 0.047212068 -0.06928189 0.053503707
0000c0 18 17 95 bd 2c ab 89 bc 28 92 c9 bc df 8a a5 bd
       -0.072797954 -0.016805254 -0.024605826 -0.08083128
0000d0 11 5a 85 3d 4e 67 24 bd 3a 82 9c bd 24 69 19 3d
       0.065113194 -0.04013758 -0.07642026 0.037453786
0000e0 76 0a c4 bc 29 c5 11 3d 7a bc 22 3c 89 15 a9 3d
       -0.02393077 0.035588417 0.009932632 0.08256061
0000f0 dd 12 6d bd f0 0b 38 bd ae cf 9d bd 8b e2 0e 3c
       -0.057879318 -0.04493326 -0.077056274 0.008721004

6.weight f4 [32, 64]
000000 5c fb a9 3d 2a e9 8b bd d6 de c1 bd 40 62 50 bd
       0.08299896 -0.06831582 -0.09466331 -0.05087495
000010 50 6e 2b bc d0 c3 ef bc b0 b6 80 bd 7c b8 ee 3d
       -0.010463312 -0.029268175 -0.06284845 0.11656281
000020 86 1f c6 bd 28 46 8f bc b4 51 3b bd 76 cf fd 3d
       -0.09673981 -0.017489508 -0.045732215 0.12393086
000030 d0 cd 91 bc 3e 66 c4 bd 8c c4 ec bd 30 ff da bd
       -0.017798334 -0.09589814 -0.11560926 -0.106932044
000040 fc de 6e 3d 42 5e d5 3d 2e 59 bf 3d 28 05 89 bc
       0.058318123 0.10418369 0.093431816 -0.016726092
000050 a2 ae c1 3d 40 08 fd 3b 94 39 ef 3d 0c 16 e7 bd
       0.09457137 0.0077219307 0.11680904 -0.11283502
000060 40 fc 5f bb 40 80 05 3c aa ca eb 3d d0 31 f8 bc
       -0.0034177452 0.008148253 0.115132645 -0.03029719
000070 90 2b 4c bd 52 46 a9 3d a6 62 a3 3d 08 95 cc bc
       -0.049846232 0.08265366 0.079778 -0.024973407
000080 2c 34 8b bd c8 64 0c bd 60 f6 93 3c 54 4b 1d 3d
       -0.0679706 -0.0342758 0.018061817 0.038401917
000090 42 2d 8b 3d b0 ba ec bc 02 8a e9 bd f0 2a c8 3c
       0.067957416 -0.028897613 -0.11403276 0.024434537
0000a0 d0 4a fc bd f8 a6 db bd 08 37 fc bc 68 02 a5 3c
       -0.12318957 -0.10725206 -0.03078796 0.020142749
0000b0 a0 ab 5e bc d2 47 e5 3d e6 7e f5 bd 2c f1 04 bd
       -0.013590723 0.11195339 -0.119870946 -0.032456562
0000c0 50 6b b3 3d 66 b0 b5 3d 40 e0 d1 bc f0 99 bc bc
       0.087607026 0.08871536 -0.025619626 -0.023022622
0000d0 c8 76 6a bd fc 9f 19 3d 2c a0 fd bd fc ce 37 bd
       -0.057242185 0.03750609 -0.12384066 -0.04487513
0000e0 30 ca b7 bc 38 9c c3 bc c0 ed d9 bd 40 4e 4f 3c
       -0.022435278 -0.023878202 -0.1064105 0.012652934
0000f0 80 91 07 bd c8 ec 00 3d f8 e4 d5 3c a0 d2 74 3c
       -0.033097744 0.031475812 0.026110157 0.014942795
000100 04 3e e4 3d d4 44 4b 3d 48 30 d9 bd 84 f9 a6 3d
       0.11144641 0.049626186 -0.10604912 0.0815306
000110 5a 70 db 3d f4 ba 46 bd 82 31 de 3d ce b7 a8 3d
       0.10714789 -0.048518136 0.108492866 0.08238183
000120 be 81 c4 3d ba a9 d9 bd 30 8d 03 bc 00 6b 41 bc
       0.09595059 -0.10628076 -0.008029267 -0.011805296
000130 40 66 76 bb 58 e7 d5 bc e0 f5 88 3c f4 0a fb 3d
       -0.0037597567 -0.02611129 0.016718805 0.122579485
000140 c8 0c e4 bc 4c 01 65 bd a6 f6 e1 3d 3c 04 b4 bd
       -0.027838126 -0.05590944 0.110333726 -0.0878987
000150 90 45 c0 bd c0 85 26 3c 0c c9 d7 3d 66 30 d9 bd
       -0.09388268 0.010163724 0.105363935 -0.106049344
000160 5a d1 f0 3d 82 5c 85 3d d0 80 31 3d b4 ff 3f 3d
       0.11758681 0.06511785 0.043335736 0.046874717
000170 1c ff 3d bd b0 71 e7 3d c8 38 d4 3d 64 9a 53 3d
       -0.04638587 0.11300981 0.10362393 0.05166091
000180 cc 28 55 bd 9c cf b2 3d 00 de e6 b9 c0 e2 4d bc
       -0.05204086 0.087310046 -0.0004403442 -0.012566268
000190 60 e7 bd 3c 1e de ff bd be 17 e1 3d 5c e0 79 bd
       0.023181617 -0.12493537 0.109908566 -0.06100498
0001a0 b6 24 ee bd 68 18 c9 3c 6c 89 c7 bd 80 3c 15 3b
       -0.11628096 0.02454777 -0.09743008 0.0022771657
0001b0 60 ed 89 3c e8 5d 4a 3d 9c 49 9c bd dc a3 06 3d
       0.016836822 0.049405962 -0.076312274 0.032871112
0001c0 f6 77 b2 3d 1a 4c d0 bd 64 32 2a bd 80 51 a1 3a
       0.08714287 -0.10170765 -0.041551962 0.0012307614
0001d0 96 a0 bc 3d 04 13 07 bd b0 1e ed bd f4 ce 79 bd
       0.09210317 -0.03297712 -0.11578119 -0.06098838
0001e0 00 37 69 bb e6 83 f5 bd 02 5f cc bd d0 ce 48 bd
       -0.003558576 -0.11988048 -0.09979059 -0.049025357
0001f0 8c f1 1e 3d e0 e4 55 3c bc 98 24 bd f4 4e ff bd
       0.038804576 0.013055056 -0.04018472 -0.12466231
000200 b4 11 78 bd e2 4b 99 bd 5c 22 b3 bd 4e ba 8c 3d
       -0.060563758 -0.074851766 -0.08746788 0.06871472
000210 b0 8b cb 3d 30 e6 c6 bd a8 bd be 3c d4 f6 1f bd
       0.09938753 -0.097118735 0.023283795 -0.039053753
000220 58 8d 97 bc 78 c3 66 bd e4 07 62 3d 9c 59 c2 3d
       -0.018500015 -0.056338757 0.055183306 0.09489748
000230 f0 1e bf bc 18 92 b8 3d 70 5a 9b 3c bc 28 7e bd
       -0.023330182 0.0901224 0.018964022 -0.062050566
000240 30 63 48 3d d6 04 9e 3d 24 95 99 3d 54 0f 43 3d
       0.048922718 0.07715766 0.074991494 0.04762204
000250 22 12 c4 3d 82 74 f8 bd ec 14 32 bd b8 42 8a bc
       0.09573771 -0.12131597 -0.043476984 -0.016877517
000260 8c 8a 98 3d 7e f0 c1 3d 3c a5 1c bd 4e bf bd bd
       0.07448301 0.09469698 -0.038243517 -0.09265004
000270 78 04 69 bd e2 46 dd bd 10 1d 8b 3c 60 d6 b8 3c
       -0.056889027 -0.108045354 0.016981632 0.02256316
000280 24 32 6b bd 32 71 ac bd 14 94 a5 bd b0 67 50 3c
       -0.057420865 -0.08420028 -0.08084884 0.0127200335
000290 80 11 65 3c 80 68 84 bb d4 22 81 3d 00 81 7a bd
       0.013981223 -0.0040407777 0.06305471 -0.06115818
0002a0 00 e5 a5 3a a8 68 9d 3d a0 f0 3a 3d 0a 0e f8 3d
       0.0012656748 0.07685977 0.045639634 0.12112053
0002b0 80 8c b3 bc 88 fb ce bc 40 29 7f bb 7c b5 b4 3d
       -0.021917582 -0.025266424 -0.00389345 0.08823678
0002c0 32 72 8e bd 8c 0b cd 3d 28 a9 45 bd 44 e3 0b 3d
       -0.06955375 0.10011968 -0.048257023 0.034152284
0002d0 f8 c7 4a 3d 8e b8 c4 3d a4 98 79 3d 70 89 15 bd
       0.04950711 0.096055135 0.060936585 -0.036508024
0002e0 68 71 8a 3c 18 8d 64 3d b4 d2 43 bd 40 c2 8c bc
       0.01689978 0.05579862 -0.047808364 -0.01718247
0002f0 54 11 4a bd 80 cf b1 3c b8 e7 ff 3c 3c 39 a5 bd
       -0.04933293 0.021705389 0.031238422 -0.08067557
000300 80 25 d6 3b 18 e6 79 bd 04 78 ea 3d 5c 83 41 bd
       0.006535232 -0.06101045 0.114486724 -0.047244415
000310 62 d5 8d bd 78 02 8e 3c 9c 4e 3f bd 22 15 c2 3d
       -0.06925465 0.017335162 -0.046705827 0.09476687
000320 60 87 f7 bb b2 b8 e9 3d 12 65 b6 bd 00 5d 5f bb
       -0.0075539798 0.11412181 -0.089059964 -0.0034082532
000330 84 85 eb bd bc cc ed bd fc a1 f8 bd a0 62 e2 bb
       -0.115000755 -0.116113156 -0.12140271 -0.0069087297
000340 50 8c 0d bc 58 c2 b3 bc 18 d4 5b bd 38 63 df 3d
       -0.00863941 -0.021943256 -0.053669065 0.10907596
000350 0e 50 d9 bd 80 ff be 3b 40 ff e4 bc 74 7e 15 bd
       -0.10610972 0.005828798 -0.027953744 -0.03649755
000360 00 74 96 39 50 d8 74 3d 0e f6 a9 bd 10 df 1e bd
       0.00028696656 0.059776604 -0.08298884 -0.038786948
000370 b0 cd 95 bd cc 31 8f 3d dc 07 95 3d 48 bd 07 3d
       -0.073146224 0.0699192 0.0727689 0.033139497
000380 62 c2 b3 bd 20 f6 1b 3c 74 fe 68 bd c6 55 bf bd
       -0.0877731 0.00951913 -0.05688329 -0.09342532
000390 a0 88 cb 3d 98 55 80 bd be f0 a8 3d 84 e8 39 bd
       0.099381685 -0.06266326 0.08249043 -0.04538776
0003a0 b0 0f 2e 3d a2 a3 a2 3d 94 83 0c bd 90 dc b4 3c
       0.04249543 0.07941367 -0.03430517 0.022077829
0003b0 68 0f ba 3d c6 0d 9e 3d 3e 78 9f bd 1e ae 8e 3d
       0.0908497 0.07717471 -0.07786606 0.06966804
0003c0 18 07 12 3d a0 e5 da bc 30 d1 77 3d 00 2e 93 bc
       0.035651296 -0.026720822 0.06050223 -0.01796627
0003d0 84 46 77 3d 00 38 b2 b9 0a 92 d4 3d e8 d5 e8 3c
       0.060369983 -0.0003399253 0.10379417 0.028422311
0003e0 16 89 e4 bd de 9b e0 bd 86 81 82 3d f8 eb 45 bd
       -0.111589596 -0.10967229 0.06372361 -0.04832074
0003f0 38 e6 c9 3c 22 05 99 3d d0 94 fc bd c0 21 bc 3d
       0.02464591 0.07471682 -0.12333071 0.09186125

6.bias f4 [32]
000000 00 7f 33 3b 42 ef eb bd 20 30 4f 3d c2 1c b5 3d
       0.002738893 -0.11520244 0.050583005 0.08843376
000010 cc af f9 3d 16 a0 94 bd c4 2c 38 3d a8 4b f0 bc
       0.12191734 -0.072570965 0.044964567 -0.02933295
000020 c0 fe 2c bd 20 ed 29 3d 34 e7 2b 3d d4 e1 73 3d
       -0.042235136 0.041485906 0.04196854 0.05954154
000030 e0 02 71 3d 0e 00 c6 3d 14 d8 a2 3d 70 72 4d 3d
       0.058840632 0.09667979 0.0795137 0.050157964
000040 c0 90 cf bd ac 2c b3 bd 70 c8 e9 3c cc 08 3f 3d
       -0.10135031 -0.08748755 0.028537959 0.04663925
000050 1e e5 aa 3d 9c 4f eb 3d a6 33 df 3d 06 ea cb bd
       0.08344482 0.11489794 0.10898523 -0.09956746
000060 50 9e 4a bd ac 26 40 bd b4 29 38 3d 3a 90 a3 3d
       -0.049467385 -0.04691188 0.044961646 0.079864934
000070 08 26 d3 bd 6c d7 84 bd 40 ff 1e 3b b4 04 3b bd
       -0.10309988 -0.06486401 0.0024261028 -0.045658782

8.weight f4 [12, 32]
000000 aa 20 33 be 4e 47 e6 bd a1 a8 c9 3c 2a 69 0c 3e
       -0.17492929 -0.11244069 0.024616541 0.13711992
000010 19 5f 34 3e e9 94 1a 3e 6c 47 ae 3d d0 27 24 be
       0.17614402 0.15095867 0.085097164 -0.16030812
000020 9f 40 83 3d 0b f0 7c 3d 1d f2 14 bd f5 85 06 3d
       0.0640881 0.06175236 -0.03636371 0.032842595
000030 dc 88 0c be 08 bc a7 bc dc 58 7f bd 55 0b 29 3e
       -0.13724083 -0.020475402 -0.062340602 0.16508229
000040 5f 32 24 be 7c b9 a6 3d 6a 69 27 3e 5d d9 cb 3d
       -0.1603484 0.08140847 0.16348806 0.09953568
000050 7e c4 ef 3c bc 9c 24 3a 60 ea 69 3d e9 96 c0 bd
       0.0292685 0.0006279459 0.057108283 -0.09403784
000060 1f 51 2b 3e 03 7b d3 bd c0 a3 34 be e0 19 d7 bd
       0.16730164 -0.10326197 -0.1764059 -0.10502982
000070 30 8e 2a 3e 7c 66 db bd 00 24 d6 bd fd 7a c0 3d
       0.16655803 -0.10712907 -0.10456085 0.09398458
000080 a0 f7 f9 bd 0e 27 ee 3d b5 12 58 bd 57 2d 18 bc
       -0.12205434 0.11628543 -0.052752215 -0.009288154
000090 52 77 8e 3d d7 ac c2 3c 4b 8e ea 3d 78 6f b7 bd
       0.06956352 0.023764057 0.114529215 -0.08956808
0000a0 6b d3 f5 bd c6 a4 16 be fb 68 18 be e1 f1 17 bd
       -0.120032154 -0.14711294 -0.14883797 -0.037095908
0000b0 d8 cd 6e bd 00 e8 f8 bc 15 2c db 3d 3e 22 54 bc
       -0.058301777 -0.030384064 0.10701767 -0.012947617
0000c0 4e 92 74 3d 8c 7b 1a be 2b f9 a0 bc a2 d7 98 bd
       0.05970984 -0.15086192 -0.019650063 -0.07463004
0000d0 11 b9 49 3d d3 21 2e 3e 21 3a ce bd f1 f1 02 3e
       0.04924876 0.1700509 -0.10069681 0.12787606
0000e0 64 24 06 3e a9 42 0a 3e 46 9f 17 3e d6 35 e0 3d
       0.1309982 0.13501991 0.14806852 0.109477684
0000f0 db c0 29 be a6 34 fc 3d 40 38 15 3d d4 ce 46 3d
       -0.16577475 0.123147294 0.036430597 0.04853709
000100 47 a8 1c be 94 98 0b 3d 9e 2f fd 3c c7 c0 f6 bd
       -0.15298568 0.034081057 0.030906495 -0.12048488
000110 3b a0 a3 bd 3e 59 19 bc e2 59 01 be 96 46 9e 3c
       -0.07989546 -0.009359656 -0.12631944 0.019320767
000120 8b 01 e2 3d 77 3e 07 bd a3 18 8b bd d4 60 31 be
       0.110354505 -0.033018555 -0.067918085 -0.17322093
000130 28 37 24 3d 2d 14 ac bd be 1d b3 3d 54 94 23 3e
       0.040091664 -0.08402286 0.08745907 0.15974551
000140 78 51 1a be 6b 94 95 bd 6d 00 0d be fe 32 f1 3d
       -0.1507014 -0.07303699 -0.13769694 0.11777304
000150 2f 0e 53 3d f7 5e bf bd ee 31 29 3e fe a1 89 3d
       0.0515272 -0.09344285 0.16522953 0.06720351
000160 f3 a1 5b bd d9 c8 03 be 14 0a 24 3e c1 2d 91 3d
       -0.053621244 -0.12869586 0.1601947 0.07088805
000170 22 21 37 3d ac 29 26 be 39 7d d9 bd 92 8d 64 bd
       0.044709332 -0.16226834 -0.106195875 -0.055799074
000180 78 84 83 3d bb 39 1c be 4f 6d 58 3d cc ed f2 bd
       0.06421751 -0.15256397 0.05283862 -0.118617624
000190 d6 50 12 3e dd 30 18 be 19 cc d1 bd 21 3b 4f 3d
       0.14288649 -0.1486239 -0.10244007 0.0505935
0001a0 17 38 38 bd 3f 91 3d bd 45 30 02 3e 0a de 17 3e
       -0.044975366 -0.046281096 0.12713726 0.14830795
0001b0 08 42 0c be 3a 2b 1e be 3a 6d 13 bd 5d 66 2b 3d
       -0.13697064 -0.15446177 -0.03599284 0.041845668
0001c0 a8 f3 50 bd 74 3f 12 be 5a d2 2b 3d 9d bd 9e bd
       -0.05101362 -0.14282018 0.041948654 -0.077510096
0001d0 81 0e 2e be c9 28 0c 3e ed 89 ab 3d a3 ec ca 3d
       -0.1699772 0.13687433 0.08375917 0.09908416
0001e0 9f ee 10 bd 80 78 92 bd 76 c3 21 3e 80 40 c4 3d
       -0.035383817 -0.0715189 0.15797219 0.09582615
0001f0 08 8b 03 3e 9f 47 fe 3d 3e 4c 01 3d 7e 21 d4 bd
       0.12846005 0.124160044 0.03156685 -0.10357951
000200 0b 5f 95 bd 60 74 bb 3d 5e 2f 31 be 30 ca 87 3d
       -0.07293519 0.09153056 -0.17303225 0.06630361
000210 85 81 7b bc fc a6 f5 3c 43 85 32 bd 96 15 3e bc
       -0.015350704 0.02998685 -0.04358412 -0.011601826
000220 32 5f 00 be 97 d7 db bd 0c 6c 32 3e da 54 b5 3a
       -0.12536314 -0.1073448 0.17424029 0.0013834492
000230 e3 f9 e9 bd ef ee 16 be bb 9c 3e bc b0 13 2e be
       -0.11424615 -0.14739583 -0.011634047 -0.16999698
000240 3e 44 0e 3a 6b 85 53 3d 8b 87 4a bd 0d 8d ba bd
       0.0005427039 0.05164091 -0.04944567 -0.091089346
000250 30 15 b8 3d c2 d9 d8 3c c7 fd 15 3d 5b 2f ce 3c
       0.08988416 0.026471023 0.036618974 0.025169065
000260 e4 de 68 3d 49 12 4c bd 77 6e 82 bb 5c 42 2c 3b
       0.05685319 -0.049822126 -0.0039804536 0.002628467
000270 57 90 7c 3c 20 b1 f1 bd 52 6e 82 bd 4c 16 11 be
       0.015415273 -0.11801362 -0.06368698 -0.14168662
000280 ab ab 3e bc 69 a7 32 be 6b d3 19 bd fe 51 0e 3e
       -0.0116376085 -0.17446674 -0.03755514 0.13898465
000290 6b 53 df 3d 25 08 c3 bd eb a8 1d be e5 35 0b be
       0.109045826 -0.09523038 -0.15396468 -0.13594778
0002a0 05 5b 02 3d e9 fd d8 3c da f0 e9 bd f1 75 2a 3e
       0.031825084 0.026488261 -0.11422892 0.16646554
0002b0 36 c7 20 be 4e bf 91 bd d8 54 bf 3d 5b c9 96 3d
       -0.15700993 -0.071165666 0.093423545 0.07362624
0002c0 1b b3 14 be a3 b3 7f bd 58 e8 19 bb a9 8f 16 be
       -0.14521448 -0.062427174 -0.0023484435 -0.1470324
0002d0 fe 0d c9 bc 0d f6 8d bd e3 d8 cb bd 20 1c e0 3c
       -0.024542805 -0.06931696 -0.09953477 0.027357161
0002e0 0b b2 23 3e c2 d4 92 bd 92 3d cd bc 79 d2 35 3d
       0.15985887 -0.071694866 -0.025053773 0.044390175
0002f0 9e d9 cf bd 02 af 89 3d 37 e5 aa 3d 17 56 13 3e
       -0.10148929 0.06722833 0.083445005 0.1438831
000300 0f 70 2c be 63 ad 2f 3e 90 c2 b3 3d 4f 13 de 3d
       -0.16839622 0.17155986 0.08777344 0.108435266
000310 29 8b 01 be ea 24 11 3d 58 c8 2a 3d 97 ff da bd
       -0.12650742 0.035435595 0.04169497 -0.10693281
000320 56 50 07 3e be fc 03 3d 6a cb e3 bd f0 8a 11 be
       0.1321424 0.032223456 -0.111227825 -0.14213157
000330 e3 94 4f bd 4b 7e 27 3d 0f f2 7b 3d 4b 74 1a be
       -0.0506791 0.040891927 0.061510142 -0.15083425
000340 6c 69 83 bd 64 c6 03 be 5a f7 96 bd 83 eb 15 3e
       -0.06416592 -0.12868649 -0.07371397 0.14640622
000350 f5 5a e2 bc 5e b1 a1 3d 3f d5 f2 3d a3 b5 b7 bd
       -0.027631262 0.07895158 0.1185708 -0.08970191
000360 f1 d7 1b 3e f3 04 22 be b2 a6 f5 bd 8c c6 de 3c
       0.15219094 -0.158222 -0.11994685 0.027194284
000370 6d 11 b0 bd 35 fd af 3d 04 2d 0a bb af 66 30 3e
       -0.08597074 0.08593217 -0.002108396 0.1722667
000380 07 31 bc bd a5 f8 1d be 58 52 ff bc 28 9e a7 3c
       -0.09189039 -0.15426882 -0.031167194 0.020461157
000390 7c a3 5d bd 50 f2 42 3d f5 7b 58 3d 5f 79 d6 bd
       -0.05411099 0.04759437 0.05285259 -0.104723684
0003a0 08 68 18 3b 84 66 6a 3d 0d 09 15 be 4a ef a4 bc
       0.0023255367 0.057226673 -0.14554234 -0.020133633
0003b0 8f e1 e9 ba 84 ab ea 3d 3d 57 74 3d 4a 8d fc bd
       -0.0017843711 0.11458495 0.05965351 -0.12331636
0003c0 3e 94 99 bd 41 a6 75 3d 4c 41 a2 bd fd 31 4d bd
       -0.07498978 0.059973005 -0.07922611 -0.0500965
0003d0 3f 6a 05 be 54 0d 49 bc 7c b4 12 be 08 eb 38 bb
       -0.13028811 -0.012271244 -0.14326662 -0.0028216261
0003e0 16 62 53 bd 33 70 00 be c5 5d f6 bc 49 f3 64 bd
       -0.051607214 -0.125428 -0.03007401 -0.055896077
0003f0 1b db 28 3e 3b 59 99 3d 01 41 1f 3e 0f a7 0e bd
       0.16489832 0.074877225 0.15552141 -0.03482729

8.bias f4 [12]
000000 32 6a 18 3d 91 25 4e bd 7f ec 1c be 98 fa 2c be
       0.03721065 -0.050328795 -0.15324591 -0.16892469
000010 69 fa 16 bd 78 5f c4 bd 9c fd f2 bd c1 4d e0 bd
       -0.036859903 -0.09588522 -0.118647784 -0.109523304
000020 88 fc 38 bd fc e9 03 3e cd 0c 10 3e 20 b8 48 bd
       -0.045162708 0.12882227 0.14067383 -0.04900372
