unitree_2_ar.pt (torch, 19322 bytes, 5 tensors)

fc1.weight f4 [64, 31]
0	0xbdb7d39c	-0.08975908
1	0x3c8a716d	0.016899789
2	0xbdf66828	-0.12031585
3	0xbca07611	-0.019587548
4	0x3d5c3aa5	0.053766865
5	0x3cc5fa82	0.024167303
6	0x3d771ed9	0.060332153
7	0xbc53ae10	-0.012919918
8	0x3e164233	0.1467369
9	0xbdc1a4ab	-0.09455236
10	0xbc20197b	-0.0097717
11	0xbdfa6154	-0.12225595
12	0xbe1d4a22	-0.1536031
13	0x3d923c1f	0.071403734
14	0xbde0f4a8	-0.109841645
15	0xbdc3693b	-0.095415555
16	0xbe16679f	-0.14687966
17	0x3d2f3a50	0.04278022
18	0xbe1a71ca	-0.1508247
19	0xbd927aff	-0.07152366
20	0xbdf2df40	-0.11858988
21	0xbdf3f1a4	-0.11911324
22	0x3e028387	0.12745486
23	0xbc53d286	-0.012928611
24	0xbce6e20a	-0.028183956
25	0xbcccf5c2	-0.02501953
26	0xbc9904e8	-0.018679097
27	0xbe2b2e56	-0.16716895
28	0xbc011ae1	-0.007879944
29	0x3d9c50ae	0.07632576
30	0x3cec5b19	0.028852032
31	0xbe2bdf73	-0.16784458
32	0x3d717392	0.058948107
33	0xbdbe1ae6	-0.09282474
34	0xbe26d56b	-0.1629235
35	0x3db757da	0.08952303
36	0x3d84b896	0.064805195
37	0xbd935ca0	-0.07195401
38	0xbde1473e	-0.109999165
39	0xbde3d471	-0.11124504
40	0x3c351bac	0.011053961
41	0xbc70eeb5	-0.01470535
42	0x3dcb538f	0.09928047
43	0x3cfd6e83	0.030936485
44	0xbdfd3b7e	-0.12364863
45	0x3d8e3def	0.06945407
46	0x3d9992f3	0.074987315
47	0xbd8c3595	-0.068461575
48	0x3c9d995e	0.01923817
49	0x3da36eef	0.07980143
50	0x3c1098be	0.008825479
51	0xbe1ec9df	-0.15506695
52	0x3e2b7684	0.16744429
53	0x3dde3683	0.10850241
54	0x3c667cbe	0.014067827
55	0xbd9ac719	-0.07557506
56	0x3d351ed7	0.044218864
57	0x3d651bd2	0.055934735
58	0xbce9d412	-0.028543506
59	0x3df4a1e4	0.11944941
60	0xbe077fb0	-0.13232303
61	0xbe08e232	-0.13367537
62	0xbbf7e05a	-0.0075645866
63	0xbcff91fe	-0.031197544
64	0xbe377184	-0.17914397
65	0x3df8e9e0	0.12153983
66	0xbe326be0	-0.17423964
67	0xbd205ec9	-0.039152894
68	0xbd88b7ef	-0.066757075
69	0x3d63b1d9	0.05558953
70	0xbd926ceb	-0.07149681
71	0x3ded37e6	0.115829274
72	0x3cda00ab	0.026611647
73	0x3dbbff18	0.09179515
74	0xbdc52967	-0.096270375
75	0x3e06cb45	0.13163479
76	0x3c018d8e	0.007907284
77	0x3dbccbe1	0.09218574
78	0xbdb052f2	-0.086095706
79	0x3e30bf38	0.17260444
80	0xbe293077	-0.16522394
81	0x3d5e94ba	0.054341055
82	0xbe0654b2	-0.13118246
83	0x3daecba1	0.08534933
84	0xbd3a7a82	-0.04552699
85	0xbceef347	-0.029168738
86	0xbe2fd833	-0.17172317
87	0x3e32eb4c	0.17472571
88	0xbdfab779	-0.12242026
89	0xbd44226a	-0.047884382
90	0x3c522589	0.012826332
91	0xbe2486c9	-0.16067041
92	0xbdd52f6e	-0.10409437
93	0x3b9adf83	0.0047263517
94	0xbdbd6e10	-0.092495084
95	0xbdacfcb8	-0.0844664
96	0x3d69d337	0.057086196
97	0x3deac495	0.11463276
98	0xbe37a005	-0.17932136
99	0x3d912740	0.070875645
100	0x3e2e7d4c	0.17039984
101	0x3e244595	0.16042168
102	0xbdaf9b7d	-0.08574579
103	0xbda977cc	-0.082748026
104	0xbdb41ae2	-0.0879419
105	0x3d2ff445	0.042957563
106	0xbdf19aa2	-0.11797072
107	0x3db96ba4	0.09053734
108	0x3e055207	0.13019572
109	0xbda648ff	-0.08119392
110	0x3d79b9f2	0.060968347
111	0xbdb8984d	-0.09013424
112	0xbdda1c5c	-0.1064994
113	0xbc4606db	-0.012086595
114	0xbde496ca	-0.11161573
115	0xbc02bd00	-0.007979631
116	0x3c0056d7	0.007833204
117	0x3e2da475	0.16957267
118	0xbdd12158	-0.10211438
119	0xbd88c9d1	-0.066791184
120	0x3d2eb498	0.042652696
121	0xbd6d68a9	-0.05796114
122	0xbd17ca59	-0.03705821
123	0xbd6b3cb2	-0.05743093
124	0xbe17c862	-0.14822534
125	0x3e3242ea	0.17408338
126	0x3df23743	0.118269466
127	0x3db81505	0.08988384
128	0xbe0c1625	-0.13680322
129	0xbdc385fa	-0.095470384
130	0xbc052a41	-0.00812775
131	0xbe31aab8	-0.1735028
132	0x3dbc1d50	0.091852784
133	0x3e1d6c4e	0.15373346
134	0x3dedc75f	0.11610293
135	0xbd27e564	-0.04099025
136	0x3df7a263	0.1209152
137	0x3dabe2f1	0.08392895
138	0xbd8b438d	-0.06799994
139	0xbe10ee2a	-0.14153352
140	0x3e01e61d	0.12685438
141	0x3e0b7cea	0.1362187
142	0x3e0b93f0	0.13630652
143	0xbdff1ad9	-0.12456293
144	0xbd91caca	-0.07118757
145	0xbd803c7e	-0.06261538
146	0xbd92e4fc	-0.071725816
147	0xbc8d861e	-0.017275866
148	0xbe05ab0b	-0.13053529
149	0x3d1544df	0.036442634
150	0x3d3d4faa	0.04621855
151	0x3e337813	0.17526273
152	0xbe1b6e63	-0.15178828
153	0x3cbb4dd0	0.022864252
154	0xbe3266cb	-0.17422025
155	0x3dd1b030	0.10238683
156	0xbc3173ee	-0.010830862
157	0x3d62cb0e	0.05536943
158	0xbd37de6b	-0.04488985
159	0xbd3bf493	-0.04588754
160	0x3e1201eb	0.14258544
161	0xbd9fdcf2	-0.07805814
162	0xbd9deeba	-0.07711549
163	0x3d370fce	0.044692807
164	0x3d0af398	0.033923715
165	0xbdc7c497	-0.097542934
166	0x3e01d254	0.1267789
167	0x3d19fabd	0.03759264
168	0xbd4727e8	-0.048622042
169	0x3dfe9860	0.12431407
170	0xbdee7626	-0.11643629
171	0xbc88b9e3	-0.0166902
172	0x3d91b3b9	0.071143575
173	0xbd54067f	-0.051764008
174	0x3d5a599e	0.05330812
175	0xbd84589f	-0.06462216
176	0x3e2627c7	0.16226111
177	0xbe07fde7	-0.1328045
178	0x3d0dc312	0.03460986
179	0xbdba2b89	-0.09090335
180	0xbe3491e6	-0.17633781
181	0x3bf8b0df	0.007589444
182	0xbc88814f	-0.016663222
183	0xbe054fdf	-0.1301875
184	0xbe27d409	-0.16389479
185	0xbd6d1dc4	-0.057889715
186	0x3d8b18f1	0.067918666
187	0xbd6798d0	-0.056542218
188	0xbc0deaec	-0.008661967
189	0x3e3240f4	0.1740759
190	0x3d954cdd	0.07290051
191	0xbe04611e	-0.12927672
192	0x3e00a61d	0.12563367
193	0x3bcf9ec7	0.0063360664
194	0xbe0f2434	-0.13978654
195	0x3c93894a	0.0180098
196	0xbcfa6265	-0.030564496
197	0xbdc1dc17	-0.09465807
198	0xbdff77ab	-0.12473997
199	0x3d63020f	0.055421885
200	0xbd0f814d	-0.03503542
201	0x3d478a8e	0.04871612
202	0xbe2533bc	-0.16133016
203	0x3dfaf61c	0.12253973
204	0xbe312387	-0.17298709
205	0xbd8079b5	-0.06273214
206	0xbc102b18	-0.008799337
207	0x3e24e2df	0.1610217
208	0x3de6ad31	0.112635024
209	0xbbc6f393	-0.006071517
210	0xbac8cbc2	-0.0015319514
211	0x3e2b4971	0.16727234
212	0x3dfc4ef6	0.12319748
213	0x3da00e59	0.078152366
214	0x3c118435	0.008881618
215	0xbd271f88	-0.040801555
216	0xbe202b63	-0.1564155
217	0x3dbcc464	0.09217146
218	0x3e1afd41	0.15135671
219	0x3e1cb057	0.15301643
220	0xbb80422f	-0.0039141397
221	0xbb86fcf5	-0.0041195103
222	0x3e029008	0.12750256
223	0xbcbcda28	-0.023053244
224	0xbdc62cfa	-0.09676547
225	0x3d073663	0.03301085
226	0xbe150145	-0.14551266
227	0x3e137f17	0.1440395
228	0x3e182e61	0.14861442
229	0xbd9ceb41	-0.076620586
230	0x3d757bc3	0.05993248
231	0x3d3a9bb0	0.04555863
232	0x3b94b358	0.004537981
233	0x3cdfdbb3	0.02732644
234	0xbe20d666	-0.15706787
235	0xbd3d1e40	-0.046171427
236	0x3d958182	0.07300092
237	0x3e1e86e3	0.15481143
238	0x3d6d6ce2	0.057965167
239	0x3cb8b147	0.02254547
240	0x3ca3a330	0.019975275
241	0xbe2404f0	-0.16017509
242	0xbe0c130b	-0.1367914
243	0xbe084044	-0.13305765
244	0xbd42cdf3	-0.04755969
245	0xbe1a95eb	-0.15096252
246	0xbe0c1300	-0.13679123
247	0xbe16784b	-0.14694326
248	0x3d91b0ba	0.07113786
249	0x3ded85cb	0.115977846
250	0x3ca9faa3	0.020749396
251	0xbd8d0823	-0.068863176
252	0x3ce6a511	0.028154882
253	0xbbef4076	-0.0073013855
254	0xbcf56c73	-0.02995894
255	0x3dd58ca5	0.104272164

fc1.bias f4 [64]
0	0xbe07ef9b	-0.13274996
1	0x3d3d9c6c	0.046291754
2	0xbe00e0e8	-0.12585795
3	0xbdf9155f	-0.12162279
4	0xbd4a792c	-0.049431965
5	0xbdabc3b9	-0.083869405
6	0xbd31551b	-0.043294054
7	0xbe30ea99	-0.17276992
8	0xbe24c7bf	-0.16091822
9	0xbda36508	-0.079782546
10	0x3cbe0f36	0.023200613
11	0x3c219331	0.009861753
12	0xbda57c56	-0.08080356
13	0xbe1502a0	-0.14551783
14	0xbcd27c8e	-0.025694158
15	0xbdd54b6d	-0.10414777
16	0xbdac6f53	-0.08419671
17	0xbd1eacd7	-0.03873905
18	0xbcb412ef	-0.021981684
19	0x3ca3fd37	0.020018203
20	0x3e20883b	0.15676968
21	0xbdd52066	-0.1040657
22	0xbe046d9e	-0.1293244
23	0x3d321e8e	0.04348617
24	0xbe124000	-0.14282227
25	0xbda1a74f	-0.0789324
26	0xbe18ccaa	-0.14921823
27	0xbd62f7b0	-0.055411994
28	0x3d9dbda0	0.07702184
29	0xbe199ba8	-0.15000784
30	0xbe3000f0	-0.17187858
31	0xbde8a56f	-0.11359679
32	0xbe2786cd	-0.16360016
33	0x3c6badd3	0.014384705
34	0x3c32bdf4	0.010909546
35	0xbe13699a	-0.14395753
36	0x3db592a4	0.0886586
37	0x3d1dab71	0.038493577
38	0x3e2e7d2d	0.17039938
39	0x3d3fc7ce	0.046821408
40	0x3d810efb	0.063016854
41	0xbe308aee	-0.17240497
42	0x3c72e6f3	0.01482557
43	0x3daad604	0.083416015
44	0x3e2c5482	0.16829112
45	0xbd1ca161	-0.03823984
46	0xbd77b7b1	-0.060477916
47	0xbe12ff74	-0.1435526
48	0x3dd63654	0.10459581
49	0x3df62419	0.12018604
50	0xbd0cfae6	-0.034418963
51	0xbe21ef04	-0.15813833
52	0xbda60693	-0.08106723
53	0xbd8aa3d1	-0.06769527
54	0x3e1d4306	0.15357599
55	0xbd10dd3d	-0.03536724
56	0xbdee0fb2	-0.116240874
57	0xbe09e7f3	-0.13467388
58	0x3cb33611	0.021876367
59	0x3e3694ee	0.1783025
60	0xbe0109b8	-0.12601364
61	0x3e26758b	0.16255777
62	0xbbfae19a	-0.0076562883
63	0x3e2c79dc	0.1684336

fc2.weight f4 [32, 64]
0	0x3def2f50	0.11678946
1	0x3dae8d42	0.085230365
2	0x3dd0ab48	0.10188919
3	0x3deaa80e	0.11457835
4	0x3d4928f8	0.049111336
5	0x3dd111ac	0.10208449
6	0xbca83b90	-0.020536214
7	0x3ddb54d8	0.10709542
8	0x3d5ff680	0.05467844
9	0x3cf52d98	0.029928967
10	0xbd82e7ce	-0.063918695
11	0xbdf7b15c	-0.120943755
12	0xbc527e50	-0.012847498
13	0xbd780f9c	-0.06056176
14	0xbd9c6aba	-0.07637544
15	0xbd10dcbc	-0.03536676
16	0xbd36d464	-0.044636145
17	0x3d1c7ba8	0.038203865
18	0xbbc5a380	-0.0060314536
19	0xbb60ad00	-0.0034282804
20	0xbda64d9e	-0.08120273
21	0xbd229074	-0.039688542
22	0x3d3be4dc	0.045872554
23	0x3def17f2	0.11674489
24	0xbd9a1274	-0.07523051
25	0x3dddbc34	0.108269125
26	0xbd3d33c8	-0.04619196
27	0x3dbdb874	0.09263697
28	0x3cb671c8	0.022271052
29	0xbcfe9480	-0.03107667
30	0x3d8a4fda	0.06753512
31	0xbbc27560	-0.0059344023
32	0x3b2dc480	0.0026514828
33	0x3d0f63c4	0.035007253
34	0x3d039628	0.032125622
35	0x3cff6af0	0.031178921
36	0xbd744b4c	-0.05964212
37	0xbca1ea88	-0.019765154
38	0xbcb62dc0	-0.022238612
39	0xbc83dcd0	-0.016096503
40	0x3d7aa42c	0.061191723
41	0xbc3dd0d0	-0.011585429
42	0xbdc5a702	-0.09650995
43	0xbd9e9eda	-0.07745142
44	0xbd56ca7c	-0.052439198
45	0xbdcb67be	-0.099318966
46	0xbcec6b78	-0.028859839
47	0xbd200d04	-0.039074913
48	0x3d2fcef8	0.04292199
49	0x3d2420ac	0.04007022
50	0xbd0ad564	-0.03389491
51	0x3d84a016	0.064758465
52	0x3c280dd0	0.010257199
53	0x3de1c08a	0.11023052
54	0x3d4c71f8	0.049913377
55	0x3cd3e7c0	0.025867343
56	0xbd93930a	-0.0720578
57	0xbcd748e0	-0.026279867
58	0xbd8be28e	-0.06830321
59	0x3d88f516	0.066873714
60	0x3da39a80	0.07988453
61	0x3d526530	0.05136603
62	0xbdb3058a	-0.08741291
63	0x3d1dce00	0.038526535
64	0xbdcb402a	-0.09924348
65	0x3cdccaf0	0.026952237
66	0x3ddb5138	0.107088506
67	0xbd87cdea	-0.06631072
68	0x3c9bd938	0.019024476
69	0xbd9b2a06	-0.07576375
70	0xbd939a9a	-0.07207222
71	0xbddf3a34	-0.10899773
72	0x3daf20c0	0.085511684
73	0xbbe951c0	-0.007120341
74	0x3b462980	0.0030237138
75	0xbd2d4e1c	-0.04231082
76	0x3dd1e8b4	0.10249463
77	0xbd6fa214	-0.05850418
78	0xbbfff3a0	-0.007811025
79	0xbda7955e	-0.081827864
80	0xbc5dd510	-0.013539568
81	0xbdf0273e	-0.11726235
82	0xbde357e4	-0.11100748
83	0x3d357ff4	0.04431148
84	0x3dfae4e0	0.12250686
85	0x3dd898a0	0.10575986
86	0xbdb3cfb0	-0.087798476
87	0xbd6a854c	-0.057256028
88	0x3da0901e	0.07839988
89	0xbd98a04c	-0.07452449
90	0xbb26ab80	-0.0025431812
91	0xbde02b72	-0.109457865
92	0x3d1dac70	0.038494527
93	0x3d72cd00	0.059277534
94	0xbc121d50	-0.008918121
95	0x3df376ca	0.118878916
96	0x3d7fd644	0.0624602
97	0xbb487c40	-0.0030591637
98	0xbda46a68	-0.08028108
99	0x3df11f3c	0.117735356
100	0xbd8117f2	-0.06303395
101	0x3dbaa842	0.09114124
102	0xbcf3e950	-0.029774338
103	0x3de4e44c	0.11176357
104	0xbc92c6a8	-0.017916992
105	0xbd92157e	-0.071330056
106	0x3d0e49a0	0.034738183
107	0x3d6e3f98	0.058166116
108	0x3dffd830	0.12492406
109	0x3d118c5c	0.035534248
110	0xbd6c5790	-0.057700694
111	0xbdd94d86	-0.106104895
112	0x3daa9bf2	0.083305255
113	0x3df596ca	0.11991651
114	0xbc60b740	-0.013715565
115	0x3d71ff98	0.059081644
116	0x3d708c38	0.058727473
117	0xbdd70d3c	-0.10500571
118	0x3c8dfc68	0.01733227
119	0x3d81192e	0.06303631
120	0x3dfcc480	0.12342167
121	0xbcbf2f48	-0.023337975
122	0x3d6139e4	0.05498685
123	0x3db29784	0.087203056
124	0x3d6d975c	0.058005676
125	0xbcd6a768	-0.026202872
126	0xbd2f9418	-0.042865843
127	0x3ac3d500	0.0014940798
128	0xbd1905fc	-0.037359223
129	0x3df2cf1a	0.11855908
130	0xbd7d726c	-0.0618767
131	0x3c64a0d0	0.013954356
132	0xbcdad3e0	-0.026712358
133	0xbdd6e12a	-0.104921654
134	0x3d4eb700	0.05046749
135	0x3d78329c	0.06059514
136	0xbdf8fd72	-0.12157716
137	0xbcf968e8	-0.030445531
138	0xbdc913c2	-0.09818222
139	0xbc2efce0	-0.010680407
140	0xbdb4a326	-0.088201806
141	0xbd83bbc4	-0.06432298
142	0xbcc1e750	-0.023669869
143	0x3d784fc0	0.06062293
144	0x3d977e90	0.07397187
145	0xbd48c100	-0.049012184
146	0xbc3a6510	-0.011376634
147	0x3defc61e	0.1170771
148	0x3cf3e248	0.029770985
149	0x3cd0ea20	0.025502264
150	0x3dfcc0b0	0.1234144
151	0xbd0ff07c	-0.035141453
152	0xbad00300	-0.0015870035
153	0xbd28594c	-0.041100785
154	0x3c6feaa0	0.014643341
155	0x3d9d7448	0.076881945
156	0x3db1f24c	0.086887926
157	0xbd6860ec	-0.056733057
158	0x3dba48e8	0.09095937
159	0x3dd60978	0.10451025
160	0xbcf96f48	-0.03044857
161	0x3d8c0ad6	0.06838004
162	0xbd0dc01c	-0.034607038
163	0x3d929bf4	0.07158652
164	0x3dff2eee	0.12460123
165	0xbdf4a9ea	-0.11946471
166	0x3dfc05ca	0.12305792
167	0x3c12f700	0.008970022
168	0xbdd12338	-0.102117956
169	0x3da94742	0.082655445
170	0xbd4f6440	-0.050632715
171	0x3d289850	0.04116088
172	0x3d87e722	0.06635882
173	0x3d2a7910	0.04161936
174	0x3cdd6ab0	0.027028412
175	0x3d0a0fb0	0.033706367
176	0x3cc520d0	0.024063498
177	0x3dbda168	0.092593014
178	0xbcf11b60	-0.029431999
179	0x3d9f88fa	0.07789798
180	0x3da6b042	0.08139087
181	0xbbf6ce00	-0.0075318813
182	0x3dc8e9d2	0.09810223
183	0x3d4ab750	0.049491227
184	0x3c82fd08	0.015989795
185	0x3afa5f80	0.0019101948
186	0x3dac0192	0.08398737
187	0xbdb5f244	-0.08884099
188	0x3dcd8e1e	0.10036872
189	0xbda2d87c	-0.07951447
190	0xbddff7a6	-0.10935907
191	0x3d04f8d4	0.032463863
192	0xbdfe8eb6	-0.12429564
193	0xbdb28cc8	-0.08718258
194	0x3d7d16b4	0.06178923
195	0x3d00d8b0	0.03145665
196	0xbdcd9f90	-0.100402
197	0xbc9c5308	-0.019082561
198	0x3bee6200	0.007274866
199	0x3d539fc8	0.05166605
200	0xbc959638	-0.018260106
201	0x3d49ef34	0.049300388
202	0xbdc4785e	-0.09593271
203	0xbd0d30b4	-0.034470275
204	0xbdba495e	-0.09096025
205	0xbdde1e56	-0.1084563
206	0xbdea5966	-0.11442833
207	0x3de043c6	0.10950427
208	0x3c9d58f0	0.019207448
209	0x3d268994	0.04065855
210	0x3c2a9180	0.0104106665
211	0xbd115dd0	-0.035489857
212	0x3dadb260	0.08481288
213	0xbd5e3650	-0.054251015
214	0xbc5c77d0	-0.0134563
215	0xbda5e62a	-0.08100541
216	0x3cb15dc8	0.021651164
217	0xbd45d5e8	-0.0482997
218	0xbd8839f4	-0.06651679
219	0xbc40c8a0	-0.011766583
220	0x3d8b28c0	0.06794882
221	0xbdb5a6be	-0.08869694
222	0xbd023990	-0.031793177
223	0xbdee0466	-0.11621933
224	0xbce314a0	-0.027719796
225	0xbdd846da	-0.10560389
226	0xbd136fe0	-0.035995364
227	0xbd21acdc	-0.039471492
228	0x3df23948	0.11827332
229	0x3ce88518	0.028383777
230	0xbd523a40	-0.051325083
231	0x3dc889de	0.09791921
232	0xbd0bb2b8	-0.034105986
233	0xbde569ec	-0.112018436
234	0xbc18b5c0	-0.009320676
235	0x3d93cd94	0.07216945
236	0x3ca686e8	0.020328
237	0x3d418150	0.047242463
238	0xbd6c870c	-0.05774598
239	0x3d95bf56	0.07311885
240	0xbc1340a0	-0.008987576
241	0xbb2ed7c0	-0.002667889
242	0xbdeba6a6	-0.11506395
243	0xbd4ed57c	-0.050496563
244	0xbd8a76c8	-0.06760937
245	0x3d8ab4d6	0.06772773
246	0x3c3c2e50	0.011485651
247	0xbcae6dd8	-0.021292612
248	0x3c5c7310	0.013455167
249	0x3dac7704	0.08421138
250	0xbc7ae930	-0.015314385
251	0xbc8804b0	-0.016603798
252	0x3dc24d02	0.09487344
253	0x3db2bf94	0.08727947
254	0x3dec7946	0.115465686
255	0x3cf09378	0.029367194

fc2.bias f4 [32]
0	0x3c8b6ab0	0.017018646
1	0x3c336ec0	0.010951698
2	0x3d87cb8a	0.06630619
3	0x3d5efe48	0.05444172
4	0xbdcef8c6	-0.101060435
5	0xbd83d79a	-0.06437607
6	0x3dfbc854	0.12294069
7	0x3dc3d3de	0.09561895
8	0xbdc0dbde	-0.09416936
9	0x3da44558	0.08021039
10	0xbc6663e0	-0.014061898
11	0x3d157abc	0.036494
12	0xbdeefd42	-0.11669399
13	0xbda62fd0	-0.08114588
14	0x3d0c4a44	0.034250513
15	0x3ba2dd80	0.0049702525
16	0x3c1d48a0	0.009599835
17	0xbc4b9f20	-0.012428075
18	0x3dd25842	0.1027074
19	0x3c7aba70	0.015303239
20	0x3d670754	0.056403473
21	0x3c044420	0.008072883
22	0x3d4f5cd0	0.050625622
23	0x3c9a46e8	0.018832639
24	0xbc9aa0c0	-0.01887548
25	0x3dd7271e	0.10505508
26	0x3c077d10	0.008269563
27	0x3de2b016	0.11068742
28	0x3ca12d10	0.019674808
29	0xbc405da0	-0.011741072
30	0x3d3f7718	0.046744436
31	0x3c965a10	0.018353492

fc3.weight f4 [1, 32]
0	0xbdacee99	-0.084439464
1	0xbe120af6	-0.14261994
2	0xbd1b1ee0	-0.03787124
3	0x3dfc0ad2	0.12306751
4	0x3cf8172e	0.03028449
5	0x3cfdad92	0.030966554
6	0xbda243ba	-0.07923074
7	0x3db9d78f	0.09074318
8	0xbd39a1d7	-0.045320358
9	0xbe256f74	-0.16155797
10	0x3da9b8ce	0.08287202
11	0x3dfb9913	0.12285056
12	0xbd282fc6	-0.041061185
13	0xbe156b1d	-0.14591642
14	0x3e33038a	0.17481819
15	0x3cf7630c	0.030198596
16	0xbda41441	-0.080116756
17	0xbe01dc7e	-0.12681767
18	0xbe0515f9	-0.12996663
19	0xbe088313	-0.13331251
20	0x3e1b89ca	0.15189281
21	0xbdb3b6e6	-0.087751195
22	0xbde99e98	-0.114072025
23	0x3d4a5b32	0.049403377
24	0xbc87470a	-0.016513366
25	0x3d9c3a78	0.076283395
26	0x3cc82a59	0.024434255
27	0xbe33ac01	-0.17546083
28	0xbe0993b1	-0.13435246
29	0x3c5d7aea	0.0135180745
30	0x3e08389c	0.13302845
31	0xbd0ff35b	-0.03514419
