unitree_1_sa.pt (torch, 85182 bytes, 10 tensors)

0.weight f4 [64, 19]
0	0xbe0c8306	-0.13721856
1	0x3d44c5d8	0.04804024
2	0x3e1e52bc	0.15461248
3	0xbdc7bce1	-0.09752823
4	0xbe3343c7	-0.17506324
5	0x3d47bb93	0.04876287
6	0xbccd5f17	-0.025069756
7	0xbe1c284d	-0.15249749
8	0xbe3e37e2	-0.18576005
9	0x3dba65e2	0.09101464
10	0x3e0ca13e	0.13733384
11	0x3e655493	0.22395544
12	0x3d9d97ce	0.0769497
13	0xbd318860	-0.043342948
14	0x3d9504b6	0.07276289
15	0x3e2ebe15	0.17064698
16	0xbbf0a7fd	-0.0073442445
17	0xbe4d162d	-0.2002799
18	0x3d9ce72e	0.076612815
19	0x3e4098a9	0.18808235
20	0xbda5dcd3	-0.080987595
21	0x3ce4d303	0.02793265
22	0xbd170eb0	-0.03687924
23	0x3e56845b	0.20948927
24	0xbd0b6572	-0.034032293
25	0x3c96e60e	0.018420245
26	0xbc964501	-0.01834345
27	0xbdf61015	-0.12014786
28	0x3e23e87b	0.16006653
29	0x3d8fe43d	0.07025955
30	0x3e460e72	0.19341448
31	0x3c53901f	0.012912779
32	0xbdd5edb5	-0.1044573
33	0xbd47ec4c	-0.048809335
34	0x3e144c20	0.14482164
35	0x3d18c62a	0.03729836
36	0xbce7a773	-0.028278088
37	0x3e2aa025	0.16662653
38	0x3ce20b05	0.027593145
39	0xbd663b6d	-0.056209017
40	0xbcdac228	-0.026703909
41	0x3e1d1bd7	0.15342651
42	0x3e562cb4	0.2091549
43	0xbde89df1	-0.1135825
44	0xbdbd6fa9	-0.09249813
45	0x3e2d1a07	0.1690446
46	0xbe4e2f3c	-0.20135206
47	0x3da5b05c	0.080902785
48	0xbae62cf9	-0.001756101
49	0xbe0545ef	-0.13014959
50	0xbaa6c0c3	-0.0012722242
51	0x3e24aabf	0.1608076
52	0xbd40cce7	-0.04707041
53	0x3d53d8f6	0.051720582
54	0x3e613229	0.21991791
55	0x3d8d0673	0.06885996
56	0xbd737f1f	-0.059447404
57	0x3cf7ca5e	0.030247863
58	0x3df09808	0.11747748
59	0xbe47a549	-0.19496645
60	0x3e444078	0.19165218
61	0xbe3e2d54	-0.18571979
62	0x3cb7f820	0.022457182
63	0x3d858f60	0.06521487
64	0xbd83996a	-0.06425746
65	0xb88c9312	-6.703114e-05
66	0xbdde3831	-0.108505614
67	0x3e6a2f31	0.22869565
68	0xbdedb09c	-0.11605951
69	0xbd2c5893	-0.04207666
70	0xbd05bb4f	-0.032649335
71	0x3dbc2fed	0.091888286
72	0x3dcfa007	0.10137945
73	0x3db475a9	0.088115044
74	0xbdc7ff0a	-0.09765442
75	0x3df0e011	0.11761487
76	0xbdf722cb	-0.12067183
77	0xbc26d914	-0.010183591
78	0x3e6a34d5	0.22871716
79	0x3e694840	0.22781467
80	0xbdbbea37	-0.09175532
81	0x3e412371	0.18861176
82	0xbe109351	-0.14118697
83	0xbe4cf9e5	-0.20017202
84	0x3e587132	0.2113693
85	0xbdda83b7	-0.10669654
86	0x3d8f5600	0.06998825
87	0xbc212674	-0.009835828
88	0x3dad4690	0.08460724
89	0x3ddd04cd	0.10791931
90	0xbdfda5c9	-0.12385137
91	0x3e238671	0.15969254
92	0x3d42a8a7	0.04752412
93	0xbd1bae3e	-0.038007967
94	0xbe5a51c4	-0.21320254
95	0x3e20ae7e	0.15691563
96	0xbcf0a300	-0.0293746
97	0xbd2b51e4	-0.041826144
98	0x3d3faab8	0.04679367
99	0xbdb92bd8	-0.09041566
100	0x3cdd7958	0.0270354
101	0x3e3241a8	0.17407858
102	0xbd88d42b	-0.06681093
103	0xbe6436a9	-0.22286476
104	0xbd57c44f	-0.05267745
105	0xbe4476a2	-0.1918588
106	0x3d4e7a5c	0.05040966
107	0xbd9d78a5	-0.07689027
108	0xbd60da2f	-0.054895576
109	0xbbda3b8c	-0.0066599306
110	0x3d238b74	0.039927915
111	0xbe2994a0	-0.16560602
112	0xbe206f3f	-0.15667437
113	0xbe67ce56	-0.22637305
114	0xbd2dbe26	-0.042417668
115	0x3db05d60	0.0861156
116	0x3dec1619	0.11527652
117	0xbd1f2969	-0.03885785
118	0xbe21aaa0	-0.15787745
119	0xbdeb91c4	-0.11502412
120	0xbcf42a8d	-0.029805446
121	0x3e59dd4b	0.21275823
122	0x3e28859f	0.16457222
123	0xbe1e8a2c	-0.15482396
124	0xbd8176a1	-0.06321455
125	0xbe5174e3	-0.20454745
126	0x3dacb48e	0.084328756
127	0xbe2e0471	-0.16993882
128	0x3d1da645	0.038488645
129	0xbe31c19b	-0.17359011
130	0xbd76a3b6	-0.06021472
131	0x3b8a7a3c	0.0042259973
132	0x3dc88f92	0.09793009
133	0xbd5ac1a4	-0.053407326
134	0xbe05cd7d	-0.13066669
135	0x3dbfaddc	0.09359333
136	0x3e075677	0.13216577
137	0x3d3bc3df	0.045841094
138	0x3de19e5d	0.110165335
139	0x3d05ee62	0.032698043
140	0x3e0682cd	0.13135834
141	0xbe1d474e	-0.15359232
142	0x3d5b0677	0.053472962
143	0x3e4c7a18	0.1996845
144	0xbd0ad020	-0.03388989
145	0x3cb4f163	0.022087758
146	0x3d3cbcfd	0.04607867
147	0xbd0146cc	-0.031561658
148	0xbe65aaa6	-0.22428378
149	0xbc0782df	-0.008270948
150	0xbe315046	-0.17315778
151	0x3e32940f	0.17439292
152	0xbd2f5fea	-0.04281608
153	0x3da58853	0.080826424
154	0x3d8b1156	0.06790416
155	0xbd93a5e0	-0.072093725
156	0xbe39b4a2	-0.18135312
157	0x3d977e20	0.07397103
158	0x3e3a557f	0.18196677
159	0xbc1cc2e4	-0.00956795
160	0xbd97d1dd	-0.07413075
161	0xbd0b748f	-0.034046706
162	0x3dc834c0	0.09775686
163	0x3e627d83	0.22118191
164	0x3e124a66	0.14286193
165	0xbd17b976	-0.037042104
166	0x3e41715d	0.18890901
167	0x3d4f9634	0.050680354
168	0xbe5ec34f	-0.21754192
169	0xbd41e715	-0.047339518
170	0x3d8d4127	0.068971924
171	0x3dd7d3bd	0.10538433
172	0xbe001fc3	-0.12512116
173	0xbe41b12d	-0.18915243
174	0xbe45264e	-0.19252893
175	0xbe2841af	-0.16431306
176	0x3d7eb549	0.062184606
177	0x3e5b1500	0.2139473
178	0xbe06fd31	-0.13182522
179	0xbe0173dd	-0.12641855
180	0xbe45777c	-0.19283861
181	0x3d36fae8	0.044672877
182	0x3d0a7639	0.033804152
183	0x3e521bd6	0.20518431
184	0xbda35c14	-0.07976547
185	0x3e0b34de	0.13594386
186	0xbe0e49ba	-0.13895312
187	0xbe0bc2fb	-0.13648598
188	0x3e5abe4d	0.21361656
189	0xbe540296	-0.20704111
190	0xbe276ea1	-0.16350795
191	0xbde1a05f	-0.110169165
192	0xbe303a6b	-0.17209785
193	0x3e2c8ee9	0.16851391
194	0xbcdf4612	-0.027255092
195	0xbc47a5cf	-0.012185528
196	0x3e221ac5	0.15830524
197	0xbde6e1e9	-0.11273558
198	0xbd6d7aae	-0.057978325
199	0x3c2f5741	0.010701955
200	0xbdc75818	-0.097335994
201	0x3df369ee	0.11885439
202	0xbc929c2f	-0.01789674
203	0xbd9ba88d	-0.07600508
204	0xbe08a93a	-0.13345805
205	0x3d23d3fa	0.03999708
206	0xbd820ccc	-0.06350097
207	0x3de166d1	0.11005939
208	0x3e3cd594	0.18440849
209	0x3de4e39a	0.11176224
210	0xbdb9f204	-0.09079364
211	0x3e69297e	0.22769734
212	0xbe60130d	-0.21882267
213	0x3d07c9d8	0.033151478
214	0xbe017300	-0.12641525
215	0x3c90193f	0.017590163
216	0xbdcb51b6	-0.099276945
217	0x3e452e21	0.19255878
218	0x3e474291	0.19458987
219	0x3d980459	0.07422704
220	0x3e4aa6c8	0.19790184
221	0xbe37e54e	-0.17958567
222	0x3e3ad565	0.18245466
223	0x3e66ac1a	0.22526589
224	0xbd443390	-0.047900736
225	0x3dc6716f	0.096896045
226	0xbe11cb53	-0.14237718
227	0xbe4d9f60	-0.20080328
228	0x3e41de75	0.18932517
229	0x3d8d6a43	0.069050334
230	0xbd1fd528	-0.03902164
231	0xbd1d9fd9	-0.03848252
232	0x3e269275	0.16266806
233	0xbe3ca939	-0.18423928
234	0x3dfa4f96	0.12222211
235	0xbe2fbd4b	-0.17162053
236	0x3e5b9eea	0.2144734
237	0x3e17e8fc	0.1483497
238	0x3d9f086b	0.077652775
239	0xbd8e42df	-0.069463484
240	0x3c8bf205	0.017083177
241	0x3e5cd192	0.2156432
242	0x3de4554b	0.11149081
243	0xbddf42f5	-0.10901443
244	0xbd7f0a15	-0.062265474
245	0x3e16bb7f	0.14719962
246	0xbdd2d9ec	-0.102954715
247	0x3e17a04d	0.14807244
248	0x3bca82ae	0.006180129
249	0x3d494bef	0.04914468
250	0x3e6ac811	0.22927882
251	0x3dc85ebf	0.097836964
252	0xbe211461	-0.1573043
253	0x3da98afd	0.08278463
254	0x3e4bedb9	0.19914903
255	0xbd64f3fe	-0.05589675

0.bias f4 [64]
0	0x3bc32efa	0.005956528
1	0x3e3d0c21	0.18461658
2	0xbe153759	-0.14571895
3	0xbe2c8fd9	-0.16851749
4	0x3e6ac78b	0.22927682
5	0xbd6ee6bc	-0.058325514
6	0x3b7f4f2a	0.0038957098
7	0xbdb236b0	-0.08701837
8	0x3dcadb59	0.099051185
9	0xbbd21f91	-0.0064124544
10	0xbe11f90e	-0.14255163
11	0x3e587d7a	0.21141616
12	0x3e5ee3aa	0.21766534
13	0xbcfb70e4	-0.030693479
14	0xbe664679	-0.2248782
15	0x3e6870ef	0.22699331
16	0x3ddfa95d	0.10920975
17	0x3e0a3e67	0.13500367
18	0x3c6adb53	0.0143345175
19	0xbe4608d3	-0.19339304
20	0x3e1c67e2	0.15274003
21	0x3e2f95ad	0.1714694
22	0xbe59cc16	-0.21269259
23	0x3dbca2c0	0.092107296
24	0xbe1b571c	-0.15169948
25	0xbd959dca	-0.073054865
26	0xbe496ef3	-0.1967123
27	0xbe4c95ed	-0.19979067
28	0x3db833c9	0.08994252
29	0x3e478311	0.19483592
30	0xbd4deefd	-0.050276745
31	0xbe59efa2	-0.21282819
32	0x3e4cf404	0.2001496
33	0x3e69ce4b	0.22832601
34	0x3e3b90c7	0.18316947
35	0x3e4782cf	0.19483493
36	0x3de65f75	0.11248676
37	0xbdb0a520	-0.08625245
38	0xbda0605b	-0.07830878
39	0xbe398492	-0.18116978
40	0xbd0030dc	-0.031296596
41	0x3cc9ecc1	0.024649026
42	0x3cce6743	0.025195723
43	0xbd9638f2	-0.0733508
44	0x3de461ab	0.11151441
45	0xbe0f1296	-0.13971934
46	0x3a9d0464	0.0011979458
47	0x3b304107	0.0026894228
48	0xbe3227ce	-0.17397997
49	0xbe08f776	-0.13375649
50	0xbe5c7e0e	-0.21532461
51	0xbe5c6e1e	-0.21526381
52	0xbda8f743	-0.082502864
53	0x3dc20e3e	0.09475373
54	0x3ddf6a55	0.10908953
55	0x3e1b63b3	0.15174751
56	0xbb857968	-0.0040733106
57	0x3e430dcf	0.19048236
58	0xbd187728	-0.03722301
59	0x3e671587	0.22566806
60	0xbd09bfb1	-0.033630077
61	0x3e565134	0.20929414
62	0x3e3a92e3	0.18220095
63	0xbe313cd3	-0.17308359

2.weight f4 [128, 64]
0	0xbde84eda	-0.11343165
1	0xbde3c41a	-0.11121388
2	0xbc3b0e50	-0.011416987
3	0x3dc39e02	0.09551622
4	0xbd8d7aa8	-0.069081604
5	0x3ce039d0	0.027371317
6	0x3c4f00d0	0.012634471
7	0x3dee9836	0.11650126
8	0xbd97ff62	-0.07421757
9	0x3db12d90	0.086512685
10	0x3cbffa00	0.023434639
11	0x3df9560a	0.12174614
12	0x3defb402	0.11704256
13	0xbcad2be8	-0.0211391
14	0xbd0864fc	-0.03329943
15	0x3d71e8bc	0.059059843
16	0x3b9a2f20	0.004705325
17	0x3ccad660	0.024760425
18	0x3df300aa	0.11865361
19	0x3c3a0a90	0.011355057
20	0x3d8bbe0e	0.068233594
21	0x3dfb8338	0.12280887
22	0x3df830da	0.12118693
23	0xbd854572	-0.06507386
24	0x3d354060	0.044250846
25	0x3df5975c	0.1199176
26	0x3d6e04ec	0.058110163
27	0xbbf5e340	-0.007503897
28	0x3dfe7a50	0.12425673
29	0xbce133c8	-0.027490512
30	0xbc95d970	-0.018292159
31	0xbd3a1890	-0.04543358
32	0x3c2469a0	0.010034949
33	0x3d8edace	0.069753274
34	0x3d8f270c	0.069898695
35	0x39990400	0.00029185414
36	0x3dc021b8	0.09381431
37	0x3d8e8158	0.06958264
38	0x3cce1db0	0.02516064
39	0xbd8e46ec	-0.06947121
40	0x3d91815a	0.0710475
41	0xbcc03908	-0.023464695
42	0x3d53a20c	0.05166821
43	0xbd4257e4	-0.0474471
44	0x3bb23660	0.005438611
45	0xbd1f217c	-0.038850293
46	0xbd21672c	-0.039405033
47	0x3d65e1cc	0.05612354
48	0x3ddea7ec	0.10871872
49	0xbdbaee9c	-0.091275424
50	0xbdaf5ac2	-0.085622326
51	0x3b888b40	0.0041669905
52	0x3de73ea4	0.112912446
53	0x3dae102c	0.08499178
54	0x3d24332c	0.040087864
55	0xbc723890	-0.014783993
56	0x3ca695b8	0.020335063
57	0xbda8d248	-0.08243233
58	0x3dfded14	0.12398735
59	0xbdfafc86	-0.12255196
60	0xbde0d79e	-0.10978626
61	0x3d803112	0.062593594
62	0xbd403908	-0.04692939
63	0xbb3fa980	-0.0029245317
64	0x3d976002	0.07391359
65	0x3dc0ec20	0.09420037
66	0xbd3cea38	-0.046121806
67	0xbdeb8de2	-0.115016714
68	0x3d243c08	0.040096313
69	0x3cccc908	0.024998203
70	0xbc9452e8	-0.018105939
71	0xbdee5ab4	-0.11638394
72	0x3dbc3fc2	0.09191848
73	0xbdc51674	-0.09623423
74	0x3d50acf0	0.050946176
75	0xbdc72544	-0.09723905
76	0xbd0ee0d4	-0.03488238
77	0xbc9737e8	-0.018459275
78	0x3d33adf8	0.04386708
79	0xbd8b0b10	-0.067892194
80	0xbca06e20	-0.019583762
81	0xbd7e727c	-0.0621209
82	0x3dc05fb8	0.09393257
83	0xbcebb788	-0.028774038
84	0xbdd262a8	-0.102727234
85	0x3d8384e6	0.06421833
86	0xbda0319a	-0.07821961
87	0xbd787a84	-0.060663715
88	0xbd554500	-0.052067757
89	0xbd50f3f8	-0.051013917
90	0xbca2a308	-0.01985313
91	0xbda96744	-0.082716495
92	0x3df73370	0.12070358
93	0x3d999d78	0.07500738
94	0x3d8c6ac2	0.068563
95	0xbdc92916	-0.0982229
96	0x3b3f43c0	0.002918467
97	0xbd99962e	-0.074993476
98	0x3d3c3b44	0.045954958
99	0xbdfda838	-0.12385601
100	0x3daa019c	0.08301088
101	0xbd346a28	-0.04404655
102	0x3d996c20	0.07491326
103	0xbdb07cea	-0.086175755
104	0xbd25f2cc	-0.040514752
105	0x3b9f1340	0.0048545897
106	0xbd335178	-0.043778867
107	0xbad38f00	-0.001614064
108	0xbd1fcad0	-0.039011776
109	0x3daaa358	0.083319366
110	0xbd8bf82c	-0.068344444
111	0x3da0b720	0.07847428
112	0x3defdff8	0.117126405
113	0xbc164040	-0.009170592
114	0xbc71f8e0	-0.014768809
115	0xbcb007a8	-0.021488026
116	0xbc9d4700	-0.019198895
117	0xbc950588	-0.018191114
118	0x3d236694	0.039892748
119	0x3ddf5624	0.10905102
120	0x3dfbb4a8	0.12290317
121	0x3df846fa	0.12122913
122	0x3df075cc	0.11741218
123	0xbc3e3b00	-0.011610746
124	0x3dd0962a	0.101848915
125	0xbdda1d04	-0.106500655
126	0x3d6e4958	0.058175415
127	0xbde92ade	-0.113851294
128	0x3c951cc0	0.018202186
129	0x3dd6769c	0.10471842
130	0xbdf373f0	-0.11887348
131	0xbdfb0eb8	-0.12258667
132	0x3c3e4f20	0.011615545
133	0xbdd08e0a	-0.10183342
134	0x3d5164a8	0.051121384
135	0x3d5d260c	0.053991362
136	0x3dc44448	0.09583336
137	0x3d5db2f0	0.054125726
138	0xbdfe3c30	-0.124138236
139	0xbab34c80	-0.0013679415
140	0x3d278644	0.04089953
141	0x3dfc4d94	0.12319484
142	0xbdc6afca	-0.09701498
143	0xbcf21428	-0.029550627
144	0x3dd54b5a	0.10414763
145	0xbd1460c0	-0.03622508
146	0x3dda8d34	0.106714636
147	0xbdd967aa	-0.106154755
148	0x3da67b52	0.0812899
149	0x3d1f43d8	0.03888306
150	0xbdca5596	-0.098796055
151	0x3d8aadf6	0.06771462
152	0x3d9b7b20	0.075918436
153	0x3dc912ba	0.09818025
154	0x3d53eb5c	0.051738128
155	0x3cb5f1a8	0.022209957
156	0x3da95722	0.082685724
157	0x3d0a4820	0.03376019
158	0x3df17e72	0.11791696
159	0x3dea765a	0.11448355
160	0xbd8197ba	-0.06327768
161	0x3dc176a8	0.0944646
162	0x3d430280	0.047609806
163	0x3ddbcb80	0.10732174
164	0x3decb666	0.11558227
165	0x3d81b6e8	0.06333715
166	0x3c3e85d0	0.011628583
167	0x3dd93c44	0.10607198
168	0xbdf586b6	-0.11988585
169	0x3b3a7000	0.0028448105
170	0xbdb4c182	-0.08825971
171	0x3d8c7fd4	0.06860319
172	0xbd662d7c	-0.05619572
173	0xbda44898	-0.08021659
174	0x3cac4120	0.021027148
175	0xbb745280	-0.003728062
176	0xbd43cad0	-0.04780084
177	0xbd9d0556	-0.076670334
178	0xbdb51c18	-0.08843249
179	0xbda02694	-0.07819858
180	0x3def69ec	0.11690125
181	0x3be4a1a0	0.006977275
182	0xbdcee886	-0.10102944
183	0x3d358ce8	0.04432383
184	0xbd544624	-0.051824704
185	0x3d13e594	0.036107615
186	0xbdc8c2f2	-0.09802808
187	0xbdd058b0	-0.10173166
188	0x3d028b70	0.03187126
189	0x3dbfcf6e	0.09365736
190	0xbdeb78c6	-0.11497645
191	0x3d65dde8	0.05611983
192	0x3de28d84	0.11062148
193	0x3dcb3a62	0.09923245
194	0x3cc597e8	0.024120286
195	0x3d1240dc	0.035706386
196	0x3d1e6818	0.03867349
197	0x3c71cca0	0.014758259
198	0xbbb68700	-0.0055702925
199	0xbd9e06c0	-0.07716131
200	0xbcfa5528	-0.030558184
201	0xbcb87370	-0.022515982
202	0x3dc33210	0.09531033
203	0xbd076da4	-0.033063546
204	0x3db587ee	0.08863817
205	0xbd377afc	-0.04479502
206	0xbd969bb4	-0.07353917
207	0x3d25f250	0.04051429
208	0xbd84fbce	-0.064933404
209	0xbcca8ae8	-0.024724439
210	0x3d72059c	0.05908738
211	0x3dd8b426	0.105812356
212	0xbd6ec20c	-0.058290526
213	0x3d85cc40	0.06533098
214	0x3dd37cea	0.1032656
215	0xbdb4e1da	-0.0883214
216	0x3d66e2a0	0.05636847
217	0xbda2c88a	-0.07948406
218	0x3d36526c	0.044512197
219	0xbcece9b8	-0.02892004
220	0xbd1f3aa8	-0.0388743
221	0x3d4f3620	0.050588727
222	0xbd9e6608	-0.07734305
223	0x3d7dfa18	0.062006086
224	0x3dbfe32c	0.093695015
225	0xbd8b20a0	-0.06793332
226	0x3d41a9d0	0.047281086
227	0x3d7f55e8	0.062337786
228	0xbdf5c94a	-0.120012835
229	0xbcbaf620	-0.02282244
230	0xbdbb20c0	-0.09137106
231	0xbdca3164	-0.09872702
232	0x3de8f508	0.11374861
233	0x3d7c7e40	0.06164384
234	0x3d54ef78	0.051986188
235	0x3db9846a	0.09058459
236	0xbcffa988	-0.031208768
237	0x39d15c00	0.00039932132
238	0x3be775e0	0.0070636123
239	0x3c9cf7b8	0.01916109
240	0x3d66ee04	0.056379333
241	0x3d6c44c0	0.057682753
242	0xbdc4f772	-0.09617509
243	0xbde137e0	-0.109969854
244	0xbddcb204	-0.10776141
245	0xbdb83148	-0.08993775
246	0xbddb62c4	-0.107121974
247	0x3d896892	0.06709398
248	0x3db1bd30	0.08678663
249	0x3d9fcf4e	0.07803212
250	0xbd9d8dc2	-0.07693054
251	0x3d2066d8	0.03916058
252	0x3ce468b0	0.02788195
253	0x3c38ea70	0.011286363
254	0xbc63e3b0	-0.013909265
255	0x3b73cd00	0.0037201047

2.bias f4 [128]
0	0xbd7ba760	-0.061438918
1	0xbc983810	-0.01858142
2	0x3d6577d4	0.05602248
3	0x3ce116c0	0.027476668
4	0xbd0f6220	-0.03500569
5	0xbdce8c86	-0.100853965
6	0xbd714fe4	-0.05891408
7	0xbdbbdd8c	-0.09173116
8	0xbd315df4	-0.04330249
9	0x3daf0d78	0.08547491
10	0x3cae6318	0.021287486
11	0xbd512f94	-0.051070765
12	0x3d050eec	0.032484934
13	0x3dc95a4c	0.09831676
14	0x3d0c3e70	0.034239233
15	0x3da8b072	0.08236779
16	0x3d914148	0.070925295
17	0xbdda7fa8	-0.1066888
18	0xbdfa905e	-0.12234567
19	0xbdc4794a	-0.095934466
20	0x3d2f8330	0.04284972
21	0xbdb0683a	-0.0861363
22	0xbd36b0e4	-0.04460229
23	0xbd1f0948	-0.03882721
24	0x3d004204	0.031312957
25	0xbdd632f8	-0.1045894
26	0xbd298c44	-0.041393533
27	0xbd848d80	-0.064723015
28	0xbc638030	-0.013885543
29	0xbc603cd0	-0.013686374
30	0x3df1df66	0.11810188
31	0x3db506aa	0.08839162
32	0x3cc74480	0.024324656
33	0xbde5accc	-0.11214599
34	0xbc8cc290	-0.017182618
35	0x3de83ddc	0.11339924
36	0xbcb8c610	-0.022555381
37	0x3c1b8fd0	0.009494737
38	0xbde8bb1c	-0.11363813
39	0xbc868ae8	-0.016423658
40	0xbd2372c4	-0.03990437
41	0xbdfad626	-0.12247877
42	0x3da08b68	0.0783909
43	0x3d5d36c0	0.05400729
44	0x3ded239e	0.11579059
45	0x3c3cbb90	0.011519328
46	0xbbd5a8e0	-0.0065203756
47	0xbdd6f2de	-0.10495542
48	0x3dfbd814	0.12297073
49	0x3c9587f0	0.018253297
50	0x3df88ac8	0.121358454
51	0xbd342860	-0.043983817
52	0xbda4d49a	-0.08048363
53	0x3d9c771e	0.07639907
54	0x3de43138	0.111422
55	0xbdc7c4a6	-0.097543046
56	0x3dee115e	0.11624406
57	0x3d015ee8	0.03158465
58	0x3d10bf88	0.03533891
59	0x3d9947da	0.07484408
60	0x3d973672	0.073834315
61	0xbdea49d0	-0.1143986
62	0x3cebb3e0	0.028772295
63	0x3dbb5d24	0.091486245
64	0x3c4029a0	0.011728674
65	0x3cc79bd8	0.024366304
66	0xbc659090	-0.014011517
67	0x3d2ebfec	0.0426635
68	0xbd8e38ac	-0.06944403
69	0xbd8acc88	-0.067772925
70	0xbdc41c0e	-0.095756635
71	0xbd31fcd0	-0.04345399
72	0x3a9a2f00	0.0011763275
73	0x3c8f6f40	0.017509103
74	0x3c067750	0.008207157
75	0xbd82e1d2	-0.06390728
76	0x3deb71ae	0.11496292
77	0xbd2c3140	-0.042039156
78	0x3ccc74d8	0.02495806
79	0xbd8c75aa	-0.0685838
80	0x3df63b5e	0.12023042
81	0x3dc9a826	0.09846525
82	0xbda64a42	-0.08119632
83	0xbd4d9c78	-0.05019805
84	0x3d553c9c	0.052059755
85	0x3df7579c	0.12077257
86	0xbd544fb0	-0.05183381
87	0xbdfd5b12	-0.12370886
88	0xbd853690	-0.065045476
89	0xbd49b380	-0.04924345
90	0xbd71ea94	-0.0590616
91	0xbdf086e2	-0.11744477
92	0x3d8f3c32	0.06993903
93	0x3d8265e6	0.06367092
94	0x3d64cf78	0.05586192
95	0x3ddf2190	0.108950734
96	0x3dd7522a	0.105137184
97	0x3d855e4c	0.06512126
98	0xbd2849d4	-0.041086033
99	0x3cae3d98	0.021269605
100	0xbd9f7c36	-0.07787363
101	0xbd730140	-0.059327364
102	0xbdaf630c	-0.085638136
103	0xbd5c8408	-0.053836852
104	0x3d1933dc	0.037402973
105	0x3dcbddfa	0.09954448
106	0xbd80b7cc	-0.062850565
107	0x3d7337b8	0.05937931
108	0xbd452570	-0.048131406
109	0x3dc65eda	0.0968606
110	0xbd9f25bc	-0.07770869
111	0x3debc130	0.11511457
112	0xbcc35eb8	-0.023848876
113	0x3cc4e888	0.02403666
114	0xbdb2b6e4	-0.0872629
115	0xbc066cf0	-0.008204684
116	0x3d915b36	0.07097475
117	0x3dd71ef2	0.10503949
118	0x3dcef054	0.10104433
119	0x3cfeab18	0.031087443
120	0x3db74ff2	0.08950795
121	0xbddf5202	-0.109043136
122	0x3d93fe86	0.07226281
123	0x3d821a2a	0.06352647
124	0xbdfed220	-0.12442422
125	0xbd467c60	-0.048458457
126	0x3d0352b4	0.032061294
127	0x3d9cdad6	0.07658927

4.weight f4 [64, 128]
0	0xbd3fb22f	-0.04680079
1	0x3c590d8e	0.013247861
2	0xbd1cda9e	-0.038294427
3	0x3d1f775f	0.0389322
4	0xbd740041	-0.059570555
5	0x3d550b4a	0.05201272
6	0x3d4a2f96	0.049361788
7	0xbd348f0a	-0.044081725
8	0xbc763944	-0.015028302
9	0x3c709c07	0.014685637
10	0x3d96ba03	0.07359698
11	0xbbe2543e	-0.006907015
12	0x3d17f430	0.03709811
13	0x3d77b2ed	0.06047337
14	0xbd59c356	-0.053164802
15	0x3cf84037	0.030304058
16	0xbd349299	-0.04408512
17	0x3cdc64ab	0.026903471
18	0x3cb32955	0.021870295
19	0xbdb4fdbb	-0.08837458
20	0xbd51810e	-0.051148467
21	0xbc8d845f	-0.017275034
22	0x3d88b458	0.06675023
23	0xbc74135b	-0.014897193
24	0xbd0fafe2	-0.035079844
25	0x3d45f85d	0.04833256
26	0xbc97d06c	-0.018532
27	0xbc015071	-0.007892714
28	0xb9380648	-0.00017549947
29	0x3d9c652b	0.07636484
30	0xbd49b2d1	-0.0492428
31	0x3d94efcb	0.072722994
32	0x3d0a82ee	0.03381627
33	0xbd292ed5	-0.041304428
34	0x3d6e30ef	0.058152135
35	0xbd114c37	-0.035473075
36	0xbd126c86	-0.035748027
37	0x3d061c7f	0.03274202
38	0x3d8def1e	0.069303736
39	0xbcb6b816	-0.022304576
40	0x3d32a6af	0.043615993
41	0x3d469064	0.048477545
42	0x3d941ff7	0.07232659
43	0x3d9409e7	0.07228451
44	0xbcaaf1ef	-0.020867316
45	0xbd198afe	-0.03748607
46	0x3cef2b72	0.029195521
47	0xbd034afc	-0.032053933
48	0xbc8bf6ab	-0.017085394
49	0x3ba2be4a	0.004966532
50	0x3d8a4464	0.06751326
51	0x3da9d89f	0.0829327
52	0x3cbc0e53	0.02295605
53	0xbd6e6f67	-0.05821171
54	0x3d8cad49	0.06868989
55	0xbd1c38e6	-0.0381402
56	0x3d29a5f5	0.041418035
57	0xbcaecdac	-0.021338306
58	0xbd3eaaaa	-0.046549477
59	0x3d8647b3	0.06556644
60	0x3d0e5c2c	0.03475587
61	0x3ce3ec54	0.027822651
62	0x39da548c	0.00041643193
63	0xbc7c607a	-0.015403861
64	0x3d5a0b7f	0.05323362
65	0x3bf20cd4	0.007386783
66	0x3cbcd77a	0.023051966
67	0x3d8a9cb5	0.06768171
68	0xbd0b1944	-0.033959642
69	0x3d0aaea0	0.03385794
70	0x3c87cbd2	0.016576681
71	0xbd8312ff	-0.064001076
72	0xbda66506	-0.081247374
73	0x3d5df4e1	0.054188613
74	0xbd7c97cf	-0.061668213
75	0x3d854371	0.06507004
76	0xbdaef985	-0.08543686
77	0xbd665df7	-0.056241956
78	0x3d4dcbfc	0.050243363
79	0x3d35bdfb	0.044370633
80	0x3ca7aa9e	0.020467099
81	0x3d3f589f	0.046715375
82	0x3c355e39	0.011069828
83	0x3d28a6e4	0.041174784
84	0xbcff6827	-0.031177593
85	0x3c99aea6	0.018760037
86	0xbc7cbdaf	-0.0154260835
87	0xbd5f874a	-0.05457238
88	0xbb04a016	-0.002023702
89	0xbd1cc2f6	-0.038271867
90	0xbd778e5e	-0.060438506
91	0xbd867a27	-0.065662675
92	0xbd206359	-0.039157245
93	0x3d90d2da	0.07071467
94	0x3c891cd9	0.016737388
95	0xbae4c9a7	-0.0017455117
96	0x3d3bc3cb	0.04584102
97	0xbd1bfc85	-0.03808262
98	0x3d6e442e	0.05817049
99	0x3caa5072	0.020790312
100	0xbd0f9c78	-0.03506133
101	0xbd8f410e	-0.0699483
102	0x3c94bfe3	0.018157905
103	0x3d7daa36	0.061929904
104	0xbcfc2e4c	-0.030783795
105	0x3d7a5122	0.06111253
106	0x3b3ff29e	0.0029288898
107	0xbd7187a6	-0.058967255
108	0x3d9c44e0	0.07630324
109	0x3d68cff4	0.056838945
110	0xbc9228c1	-0.017841699
111	0x3d937d4b	0.07201632
112	0xb973afca	-0.00023239772
113	0x3d678c9b	0.056530576
114	0x3d8294d6	0.063760445
115	0xbd141338	-0.03615114
116	0xbcf50ac7	-0.029912366
117	0x3d9f0e26	0.077663705
118	0xbd9e7210	-0.077365994
119	0xbd5c0157	-0.053712215
120	0x3da1cfd1	0.07900966
121	0xbd978115	-0.07397667
122	0x3d8ca04b	0.06866511
123	0xbd547f83	-0.051879417
124	0xbcab1872	-0.02088568
125	0xbd7313c3	-0.059345018
126	0xbd94b437	-0.07260936
127	0xbd0e5870	-0.03475231
128	0xbda800b7	-0.08203261
129	0xbd5caa57	-0.053873386
130	0x3d323ca9	0.04351488
131	0x3d82a48c	0.06379041
132	0x3d62fc1f	0.055416223
133	0xbd4a6ceb	-0.04942028
134	0xbd161982	-0.03664542
135	0x3d355b24	0.04427637
136	0x3d892b6b	0.066977344
137	0xbc98e99c	-0.018666081
138	0x3b19efc4	0.0023488859
139	0x3bfd29c8	0.007725928
140	0x3d2fcd39	0.042920325
141	0x3d2e2d53	0.042523693
142	0x3cc94d53	0.024573004
143	0xbd995ab2	-0.07488002
144	0x3d913cb6	0.07091658
145	0x3d930fa5	0.07180718
146	0xbda151eb	-0.07876953
147	0xbccc0386	-0.024904024
148	0x3d32fa96	0.04369601
149	0xbd183f65	-0.037169833
150	0xbd9648a0	-0.07338071
151	0xbce9c639	-0.028536903
152	0xbd93d467	-0.07218247
153	0xbdac2ba2	-0.0840676
154	0x3dad3610	0.08457577
155	0x3ce2c139	0.027680026
156	0xbd2c8088	-0.042114764
157	0xbda8c8a5	-0.08241395
158	0x3da0092d	0.0781425
159	0x3ca8c3bd	0.020601148
160	0xbcb96425	-0.02263076
161	0x3d8b202f	0.06793248
162	0xbd8536c0	-0.06504583
163	0xbd5ea7ca	-0.054359235
164	0x3d6f10b8	0.058365554
165	0xbd0ec4cb	-0.034855645
166	0x3c4ede8a	0.0126263
167	0x3cd4597c	0.025921576
168	0x3d739ce5	0.0594758
169	0x3d2a6913	0.041604113
170	0x3db0e029	0.08636505
171	0xbd147333	-0.036242675
172	0x3b8faabf	0.004384368
173	0x3d480ce7	0.04884043
174	0x3daa3b0e	0.08312045
175	0xbd003868	-0.031303793
176	0xbcbbcbb4	-0.022924282
177	0x3c99ed5c	0.01878994
178	0xbbc2a943	-0.0059405877
179	0xbd592f7c	-0.0530238
180	0xbd09a770	-0.033606946
181	0xbc4d2a2b	-0.012522261
182	0x3d43c6bf	0.04779696
183	0xbd0bebbe	-0.03416037
184	0xbd00137b	-0.031268578
185	0x3da24e8e	0.07925139
186	0xbd0a71c5	-0.033799905
187	0xbd34192c	-0.04396932
188	0x3c60dc8c	0.0137244575
189	0x3d836d87	0.06417375
190	0x3d0decd0	0.03464967
191	0x3d314c06	0.043285392
192	0x3d425679	0.047445748
193	0x3d9b22fd	0.07575033
194	0x3d665484	0.056232944
195	0x3d23947d	0.03993653
196	0x3d1b18aa	0.03786532
197	0x3c6d09c8	0.014467664
198	0xbcf76c70	-0.030203074
199	0x3c8e2ebe	0.017356273
200	0x3d66eacd	0.056376267
201	0xbb04f167	-0.0020285489
202	0xbcca31ce	-0.024681952
203	0xbdb0e7fc	-0.086379975
204	0x3d9854b9	0.074380346
205	0x3d5b058e	0.053472094
206	0xbd4a3d19	-0.049374674
207	0x3898565a	7.264009e-05
208	0x3d494ba5	0.049144406
209	0xbd4dc62c	-0.05023782
210	0xbd892578	-0.066966
211	0xba4012ca	-0.00073270185
212	0x3c774c82	0.0150939245
213	0xbdb107fa	-0.086440995
214	0xbda181f8	-0.07886118
215	0xbda6cf3a	-0.08144994
216	0xbd9cbc51	-0.07653106
217	0x3dadd657	0.08488148
218	0xbd872e68	-0.06600648
219	0x3d80f207	0.06296163
220	0x3c5a61b8	0.013328962
221	0xbd2c084a	-0.042000093
222	0x3da499a8	0.0803712
223	0xbda18d28	-0.078882515
224	0xbd9c8325	-0.07642201
225	0xbcaa5de2	-0.02079672
226	0x3ca964ac	0.020677887
227	0xbd20a927	-0.039223816
228	0xbd33e31a	-0.043917753
229	0x3d1eee29	0.038801346
230	0x3cad9751	0.021190317
231	0x3d60ed05	0.05491354
232	0xbd79abae	-0.060954742
233	0x3cfa12b5	0.030526498
234	0xbd10901d	-0.035293687
235	0xbd5b092b	-0.05347554
236	0x3d0eeb19	0.034892175
237	0x3d43f8ac	0.047844574
238	0x3d931990	0.0718261
239	0xbd3fabb5	-0.046794612
240	0xbd12e9d7	-0.03586754
241	0xbce6674a	-0.028125424
242	0xbd27a97e	-0.040933125
243	0xbc7867bf	-0.015161454
244	0x3c0d5f45	0.008628671
245	0xbd1a3a64	-0.037653342
246	0x3d062b4b	0.03275613
247	0x3d71db38	0.059046954
248	0x3d48de9e	0.04904043
249	0x3bbba0e1	0.0057259654
250	0x3d3ccdb8	0.046094626
251	0x3d9e9b9d	0.07744525
252	0xbd93a08e	-0.07208358
253	0xbd6bd113	-0.057572436
254	0x3da9bd6f	0.08288085
255	0xbd95be45	-0.07311682

4.bias f4 [64]
0	0x3c84e178	0.016220793
1	0xbc907c3a	-0.01763736
2	0x3c2cb286	0.01054061
3	0x3c93c93d	0.018040294
4	0x3d335803	0.043785106
5	0x3d6a21f3	0.057161283
6	0xbce49d43	-0.02790702
7	0x3d5b5cd4	0.053555325
8	0xbd0bda82	-0.034143932
9	0xbd279770	-0.040915906
10	0xbda7d32d	-0.081945755
11	0xbd1f00c1	-0.03881908
12	0xbd8667ca	-0.06562765
13	0xbda9be94	-0.08288303
14	0xbd2f36ca	-0.04277686
15	0x3ca1875c	0.019717865
16	0xbd7e21ae	-0.06204384
17	0x3c960b69	0.018315988
18	0x3c3d9670	0.011571512
19	0xbd99bdbf	-0.07506894
20	0xbbfa460f	-0.007637746
21	0xbd8bbef8	-0.06823534
22	0x3cfa9c6a	0.030592162
23	0xbd58c703	-0.052924167
24	0xbc0a6546	-0.008446997
25	0xbda2a5a9	-0.079417534
26	0xbd38b9f7	-0.045099225
27	0x3d1a2e42	0.03764177
28	0x3d55649b	0.052097898
29	0x3bd9cf42	0.0066470215
30	0xbcc51269	-0.02405663
31	0x3d03a9b7	0.032144275
32	0xbc113265	-0.008862113
33	0xbd701f30	-0.058623493
34	0x3d1dc3a4	0.038516656
35	0xbd5ef56a	-0.054433264
36	0x3d68a80c	0.056800887
37	0xbbd43101	-0.0064755683
38	0xbb175360	-0.0023090467
39	0xbceb752f	-0.0287424
40	0x3c65c6c1	0.014024437
41	0xbd9fe228	-0.07806808
42	0xbd815d0e	-0.06316577
43	0xbc6e0446	-0.014527386
44	0x3d94b889	0.0726176
45	0x3c6c4bca	0.014422366
46	0x3d9f322d	0.07773242
47	0xbd77e2e1	-0.060519103
48	0x3adb9319	0.0016752213
49	0xbd0b2330	-0.033969104
50	0xbcabff1e	-0.020995673
51	0x3d6b3e54	0.057432488
52	0xbdb3d5a1	-0.08780981
53	0xbd842cc7	-0.06453853
54	0x3d7f2ce9	0.06229869
55	0xbc9821f0	-0.01857087
56	0x3cc2f1c9	0.023796933
57	0x3d12693c	0.03574489
58	0x3da7252a	0.08161385
59	0xbcd4dea4	-0.02598507
60	0xbd618cb7	-0.055065837
61	0xbd808c13	-0.06276717
62	0xbcc267be	-0.023731109
63	0xbd190ffb	-0.037368756

6.weight f4 [32, 64]
0	0xbd8de874	-0.069291025
1	0xbc8e1970	-0.017346114
2	0xbd35ef74	-0.044417813
3	0x3d9e2456	0.07721774
4	0x3d859090	0.06521714
5	0x3c49fcb0	0.012328312
6	0xbcbad2e8	-0.022805646
7	0xbdedcd58	-0.11611432
8	0x3bbfe020	0.005855575
9	0x3c256b10	0.0100963265
10	0xbd9caae0	-0.07649779
11	0xbd8f355e	-0.06992601
12	0xbdccab12	-0.099935666
13	0x3d697004	0.056991592
14	0x3dfc2114	0.12310997
15	0x3dd17fc0	0.102294445
16	0xbda116a8	-0.078656495
17	0x3bc6d8c0	0.006068319
18	0x3cf8e5b8	0.030382976
19	0xbdf43eac	-0.11926016
20	0x3d664f24	0.056227818
21	0x3db8a704	0.09016231
22	0xbc06cdc0	-0.008227766
23	0xbd79d414	-0.06099327
24	0x3cb0f020	0.021598876
25	0x3d170088	0.03686574
26	0x3d2cd898	0.042198747
27	0xbde5d0c4	-0.112214595
28	0x3bcb6340	0.0062069
29	0xbd565958	-0.0523313
30	0xbbbee400	-0.0058255196
31	0x3c8d60f8	0.017258152
32	0xbde35ab8	-0.111012876
33	0xbd56e43c	-0.052463755
34	0x3db86900	0.09004402
35	0xbcc26898	-0.023731515
36	0x3ce18510	0.02752927
37	0xbd22fad0	-0.039789975
38	0xbdc19792	-0.09452738
39	0xbdd3430c	-0.103155226
40	0x3df2b82e	0.11851536
41	0xbdd5b29c	-0.10434458
42	0x3dda7fb2	0.10668887
43	0xbd4194e4	-0.047261134
44	0x3d33a610	0.04385954
45	0x3d3f7b94	0.046748713
46	0xbd89d722	-0.067304865
47	0xbd4cc12c	-0.04998891
48	0xbd98b66e	-0.07456671
49	0xbd72786c	-0.059196874
50	0x3dcaeb20	0.09908128
51	0xbd8e83a0	-0.06958699
52	0x3deb8aa0	0.1150105
53	0x3d4dd2f8	0.050250024
54	0xbc92c008	-0.017913833
55	0x3de28d4e	0.11062108
56	0xbd2a38c4	-0.041558042
57	0xbdb52b2e	-0.088461265
58	0xbbad2c60	-0.005284831
59	0x3dac5fd2	0.08416714
60	0x3c11c970	0.008898124
61	0xbca12610	-0.01967147
62	0x3d7c8abc	0.061655745
63	0xbbb01da0	-0.0053746253
64	0x3da50cec	0.08059105
65	0x3d5359f4	0.051599458
66	0xbbb169e0	-0.0054142326
67	0x3d847860	0.06468272
68	0x3d061ee4	0.032744303
69	0xbca871a8	-0.020562008
70	0xbd14385c	-0.03618656
71	0xbdd9ace8	-0.106286824
72	0xbd8416d2	-0.06449665
73	0xbdc60f2a	-0.09670861
74	0x3acf6c80	0.0015825182
75	0x3dd039e2	0.1016729
76	0x3ddf0874	0.10890284
77	0xbccc8b18	-0.024968669
78	0x3da3f950	0.08006537
79	0xbd80f7c6	-0.06297259
80	0xbdc765fe	-0.0973625
81	0xbdfe4d24	-0.12417057
82	0x3d458c94	0.04822977
83	0x3d4dc110	0.050232947
84	0x3def9c38	0.11699718
85	0xbd3d84c4	-0.046269193
86	0x3d87bb70	0.06627548
87	0xbdfc9f16	-0.12335031
88	0xbdda0d6a	-0.1064709
89	0x3d72dc08	0.05929187
90	0xbdf5d4e2	-0.12003495
91	0x3c7e6b90	0.015528575
92	0x3d357854	0.044304207
93	0xbcc922c0	-0.024552703
94	0x3d93ddfa	0.07220073
95	0x3d18283c	0.037147745
96	0xbd6dcffc	-0.058059677
97	0xbdd8f9c4	-0.10594514
98	0xbdc23d0a	-0.094842985
99	0xbdd069ce	-0.10176431
100	0x3d849a4e	0.06474744
101	0xbcf1b8a8	-0.029506996
102	0x3df93d1e	0.1216986
103	0xbdd39bec	-0.10332474
104	0xbdbf1254	-0.09329668
105	0xbd454d6c	-0.04816954
106	0x3dd057ea	0.10173018
107	0xbc8b0e60	-0.016974628
108	0x3d8633c6	0.06552844
109	0x3cf6e448	0.03013815
110	0x3dcd3208	0.10019308
111	0xbdefd3d0	-0.11710322
112	0x3d8bb146	0.068209216
113	0xbc090ba0	-0.008364588
114	0x3ded72b6	0.11594145
115	0x3dc37d6e	0.09545408
116	0x3db9c2ae	0.09070335
117	0x3cb22230	0.021744817
118	0x3ddccb62	0.1078098
119	0xbdbcbe56	-0.09215991
120	0x3daf54a6	0.08561067
121	0xbb9feae0	-0.004880294
122	0xbce75258	-0.028237507
123	0xbd0b92f4	-0.034075692
124	0xbd019594	-0.03163679
125	0xbd902a6c	-0.07039341
126	0xbd71d8f8	-0.05904481
127	0xbda9b72e	-0.08286892
128	0xbc113730	-0.008863255
129	0xbdd17ff2	-0.10229482
130	0x3da58460	0.08081889
131	0xbdbbc2be	-0.091680035
132	0xbdfe0986	-0.1240416
133	0xbd376274	-0.044771627
134	0xbddabe7e	-0.10680865
135	0x3d3573fc	0.044300064
136	0xbddb92e2	-0.10721375
137	0x3bd17340	0.0063919127
138	0x3d8985ac	0.06714949
139	0xbdf149e0	-0.11781669
140	0xbd8aead2	-0.0678307
141	0x3dbc8cd6	0.0920655
142	0x3db2400e	0.08703624
143	0xbd78b9ec	-0.060724184
144	0xbd9cc246	-0.07654242
145	0xbc9a34c0	-0.018823981
146	0x3d9aab82	0.07552244
147	0x3c8f9aa8	0.0175298
148	0x3cd2d078	0.025734171
149	0x3d999e42	0.075008884
150	0x3db904de	0.090341315
151	0xbdb84bd8	-0.08998841
152	0x3df9fae6	0.12206058
153	0x3dd429be	0.10359524
154	0xbdf9c784	-0.12196258
155	0xbce45910	-0.0278745
156	0xbd9ac2a0	-0.07556653
157	0x3c6042f0	0.013687834
158	0x3d6cfd8c	0.05785899
159	0x3dfdc8fc	0.1239185
160	0xbd010308	-0.03149703
161	0xbd4851c8	-0.048906118
162	0xbb868800	-0.004105568
163	0xbce84128	-0.028351381
164	0x3d0ee7a0	0.034888864
165	0xbdb1e556	-0.086863205
166	0x3dda1094	0.10647693
167	0x3d88ec90	0.06685746
168	0x3c6b9070	0.014377698
169	0x39e99400	0.00044551492
170	0x3d4cc628	0.049993664
171	0xbdeb33b4	-0.11484471
172	0x3d9296b0	0.071576476
173	0x3d824256	0.06360309
174	0x3dfa9a46	0.122364566
175	0x3cfed2c8	0.031106368
176	0xbc987cf0	-0.018614262
177	0xb9860000	-0.00025558472
178	0x3de1cb50	0.11025107
179	0xbd2a7d60	-0.041623473
180	0x3d80eb40	0.062948704
181	0xbdb3d5ba	-0.087809995
182	0xbdc1526e	-0.0943955
183	0xbd6e9060	-0.058243155
184	0x3d4ba664	0.04971923
185	0xbd6a4f38	-0.057204455
186	0xbd0eedb8	-0.034894675
187	0xbd5693b4	-0.052386954
188	0xbd71baf0	-0.059016168
189	0xbd7fb328	-0.062426716
190	0x3de490a4	0.111604005
191	0xbc5a5e40	-0.013328135
192	0xba9a7800	-0.001178503
193	0x3dcb1aa2	0.09917189
194	0x3d9a900e	0.075470075
195	0xbddf4766	-0.1090229
196	0x3d78a794	0.06070669
197	0x3db960c8	0.09051663
198	0x3ca3ad18	0.019979998
199	0x3c50ade0	0.0127367675
200	0xbd184e4c	-0.037184045
201	0x3c5b16d0	0.013372138
202	0xbdb13a40	-0.086536884
203	0x3d289ff4	0.04116817
204	0xbb3c6d00	-0.0028751493
205	0xbd06055c	-0.032719955
206	0x3dce1c8e	0.1006404
207	0x3aace380	0.0013190359
208	0x3d01bfb4	0.031676963
209	0x3d15a61c	0.036535367
210	0xbd914b42	-0.070944324
211	0xbd19d0f8	-0.037552804
212	0xbc9e1880	-0.019298792
213	0x3d12c180	0.035829067
214	0x3ddd3d82	0.10802747
215	0x3df38798	0.11891097
216	0x3d17f56c	0.037099287
217	0x3cfc0eb0	0.030768722
218	0xbdd4dc72	-0.10393609
219	0xbdf2bbb6	-0.11852209
220	0xbdaca2d2	-0.08429493
221	0x3dd145cc	0.10218391
222	0xbd9d5184	-0.076815635
223	0x3d169fac	0.03677337
224	0xbdc51b28	-0.0962432
225	0xbd640a38	-0.055673808
226	0xbb818780	-0.0039529204
227	0x3ab4f980	0.0013807267
228	0x3d0b725c	0.03404461
229	0x3d693ee8	0.056944758
230	0xbccfd428	-0.025369719
231	0x3db3700c	0.087616056
232	0x3c7e8420	0.015534431
233	0x3bd55ec0	0.006511539
234	0x3bfa4fe0	0.0076389164
235	0x3ddb57d4	0.10710111
236	0x3bf5fd60	0.0075070113
237	0xbd4d00a4	-0.05004944
238	0x3c166040	0.009178221
239	0x3daa5328	0.08316642
240	0x3d6814e0	0.056660533
241	0xbddb6af6	-0.107137606
242	0x3dadd660	0.084881544
243	0xbd843a72	-0.0645646
244	0xbcbce648	-0.023059025
245	0xbd1bfe1c	-0.038084134
246	0x3d8866ce	0.066602334
247	0xbddf0a6c	-0.1089066
248	0x3d51bb70	0.051204145
249	0x3d2bfee4	0.04199113
250	0x3d3deb4c	0.046366975
251	0x3c232b40	0.009959042
252	0x3d45b824	0.048271313
253	0xbde89a82	-0.11357595
254	0xbd8c4504	-0.06849101
255	0x3dc204a0	0.094735384

6.bias f4 [32]
0	0x3c2b1200	0.010441303
1	0x3c9f90c8	0.019478217
2	0x3d883f88	0.066527426
3	0xbd15028c	-0.036379382
4	0x3d8b8a04	0.06813434
5	0xbded09b2	-0.11574115
6	0xbd65d578	-0.056111783
7	0xbcf8fb90	-0.030393392
8	0xbd98d04a	-0.07461603
9	0xbde6a580	-0.11262035
10	0xbdbb71ae	-0.09152542
11	0x3df4f12e	0.11960064
12	0xbc1f2380	-0.009713054
13	0xbd748c64	-0.0597042
14	0x3b8d1f00	0.004306674
15	0xbdcee08a	-0.10101421
16	0xbb60d480	-0.0034306347
17	0x3d30a354	0.04312451
18	0xbbfe1fe0	-0.0077552646
19	0xbd26a4a4	-0.040684357
20	0x3da1ab5c	0.07894012
21	0x3de88f94	0.1135551
22	0xbd6defa4	-0.058089867
23	0x3d4f6d6c	0.050641462
24	0x3de8cdae	0.11367355
25	0xbc17a020	-0.009254485
26	0xbd950a64	-0.072773725
27	0xbda928ee	-0.0825976
28	0xbdf6be8c	-0.12048063
29	0xbde61f9a	-0.11236496
30	0x3d96cd44	0.0736337
31	0xbd2b9aa4	-0.041895524

8.weight f4 [12, 32]
0	0xbe23c418	-0.15992773
1	0x3d9e834a	0.07739885
2	0x3d9bb522	0.07602908
3	0x3cf59c77	0.029981835
4	0x3dd91383	0.10599425
5	0x3e2041f0	0.15650153
6	0xbb993681	-0.004675687
7	0x3e28f984	0.16501433
8	0xbbd7708f	-0.0065746973
9	0xbce0a67f	-0.027423142
10	0x3dd905b0	0.10596788
11	0xbe149f33	-0.14513855
12	0x3e3172f1	0.17329003
13	0x3ddf34b9	0.10898728
14	0xbc8f86a3	-0.017520254
15	0xbe2ead0a	-0.17058197
16	0xbdcd5ccb	-0.100274645
17	0x3e30102a	0.17193666
18	0xbc933b66	-0.01797266
19	0xbe1f3c94	-0.15550452
20	0xbcd20dd6	-0.025641363
21	0x3d835f15	0.0641462
22	0xbdfcaa70	-0.12337196
23	0x3a2bcf75	0.0006554046
24	0xbcc85652	-0.024455223
25	0xbe24398c	-0.16037577
26	0x3d1f22f1	0.038851682
27	0xbca37ae9	-0.019956069
28	0x3d5e323b	0.054247122
29	0x3d430dd9	0.047620628
30	0x3d34cc07	0.04413989
31	0xbe14bce5	-0.14525183
32	0xbd47a0a9	-0.0487372
33	0x3ded1f8c	0.11578283
34	0xbe33232f	-0.1749389
35	0x3da45603	0.08024218
36	0xbe110fda	-0.14166203
37	0xbe30168e	-0.17196104
38	0x3da0c137	0.07849353
39	0x3e2bd179	0.16779126
40	0x3e2b54f4	0.16731626
41	0x3ca95a4f	0.020672945
42	0xbdb1284e	-0.08650266
43	0x3dd9218b	0.10602101
44	0x3ddcbcbf	0.10778188
45	0x3e060a3c	0.13089842
46	0x3e22ea38	0.1590966
47	0xbdf3d4c4	-0.11905816
48	0xba9e4319	-0.001207444
49	0xbc655f62	-0.013999792
50	0xbe033601	-0.1281357
51	0x3dbb9c32	0.09160651
52	0xbe33f23e	-0.17572877
53	0xbd481785	-0.048850555
54	0x3ce78b59	0.028264688
55	0xbc9de0a2	-0.019272152
56	0x3dcfb85d	0.101425864
57	0x3dc03083	0.09384253
58	0xbdc6cf80	-0.09707546
59	0x3c807c7c	0.015684359
60	0xbdc61e13	-0.09673705
61	0x3d944f23	0.07241657
62	0x3e30c837	0.17263876
63	0x3da3c1cc	0.07995948
64	0x3da2cdd8	0.07949418
65	0xbcbb929b	-0.022897055
66	0xbd9176a1	-0.07102705
67	0xbd9d7bae	-0.07689606
68	0xbcb91a68	-0.0225956
69	0x3dbb91f7	0.091587
70	0x3dfa42cd	0.122197725
71	0x3d251661	0.040304545
72	0xbe02b0e4	-0.12762791
73	0xbe0ae7ed	-0.13565035
74	0xbd5fe476	-0.054661237
75	0x3d1b280b	0.037879985
76	0x3dbd67ed	0.09248338
77	0x3d8650c7	0.06558376
78	0xbd33308f	-0.04374748
79	0x3deb361c	0.1148493
80	0x3dd87ba0	0.105704546
81	0x3dff923f	0.12479066
82	0x3dc872c3	0.09787514
83	0x3d5276aa	0.051382698
84	0x3e0b0bff	0.13578795
85	0xbe33c260	-0.17554617
86	0x3d05bac0	0.0326488
87	0x3d95d13d	0.073153
88	0xbd8fc9c2	-0.07020904
89	0x3dfd6cfb	0.12374302
90	0xbb1adfd5	-0.002363195
91	0xbcf2411c	-0.029572062
92	0xbd4b1678	-0.049581975
93	0x3e02d287	0.12775622
94	0x3e288ca6	0.16459903
95	0x3cdf9d49	0.02729668
96	0xbc20104f	-0.009769513
97	0xbdecd799	-0.115645595
98	0xbe22fac5	-0.15915973
99	0xbdaed08b	-0.0853587
100	0xbd37f079	-0.044907067
101	0x3d4b5928	0.049645573
102	0xbe0d729d	-0.13813253
103	0x3e0165b7	0.12636457
104	0x3e2783ec	0.16358918
105	0xbca4aa9d	-0.020100886
106	0xbe33dcac	-0.17564648
107	0xbd048f7d	-0.032363404
108	0x3deba48f	0.115059964
109	0x3dedae38	0.11605495
110	0xbc875e98	-0.016524598
111	0x3e09d208	0.13459027
112	0x3d73c03a	0.059509493
113	0x3d5ef460	0.054432273
114	0xbe1346f9	-0.14382543
115	0xbe34b0b3	-0.1764553
116	0xbd581502	-0.05275441
117	0x3c6b5c64	0.014365289
118	0x3dabfb65	0.08397559
119	0x3d45ef89	0.04832414
120	0xbd6a9e77	-0.05728003
121	0xbd2fcfca	-0.042922772
122	0x3dc6275a	0.096754745
123	0x3da07728	0.07835227
124	0x3d1187ee	0.035530023
125	0x3c5077bc	0.012723859
126	0x3dc39287	0.09549432
127	0xbde1fb4f	-0.110342614
128	0x3dc3e2be	0.09564732
129	0xbdb7a694	-0.08967319
130	0x3d4eea68	0.050516516
131	0x3e034bc9	0.12821878
132	0x3a982207	0.0011606821
133	0x3df5a783	0.11994841
134	0xbe31b4f9	-0.17354192
135	0x3d0814f7	0.03322312
136	0xbbd77da4	-0.006576257
137	0xbdd63076	-0.10458462
138	0xbe1ab085	-0.151064
139	0xbdf1b45c	-0.11801979
140	0xbe0739c8	-0.13205636
141	0x3ddec12b	0.108766876
142	0xbd43a0a9	-0.04776064
143	0x3dcc426f	0.09973609
144	0xbb1b03e4	-0.0023653442
145	0xbcd6f865	-0.02624149
146	0xbc609176	-0.013706556
147	0xbd9d7067	-0.07687455
148	0x3d6ddc47	0.0580714
149	0xbde34d54	-0.110987335
150	0xbe2fad06	-0.17155847
151	0x3e0b53eb	0.13606231
152	0x3e06a596	0.13149104
153	0x3e0b40ca	0.13598934
154	0x3d8830d1	0.06649936
155	0x3e11c907	0.14236842
156	0xbc000cad	-0.007815522
157	0xbdb9cec9	-0.09072644
158	0x3b312ec7	0.0027035938
159	0xbe249f2c	-0.16076344
160	0xbcbebeac	-0.023284279
161	0x3dbd5563	0.09244802
162	0xbd8288fb	-0.06373783
163	0x3d76245c	0.06009327
164	0x3da8ad2a	0.082361534
165	0x3d5917ad	0.053001095
166	0xbda9bee5	-0.08288363
167	0xbdbba73b	-0.09162756
168	0xbd1bc538	-0.03802988
169	0x3da0189e	0.07817195
170	0xbe014d79	-0.1262721
171	0x3e2e52d7	0.17023788
172	0x3d9371bf	0.0719943
173	0xbdb3622d	-0.0875896
174	0xbde27f93	-0.11059489
175	0x3e2d76eb	0.16939895
176	0xbdad6a73	-0.08467569
177	0xbe13bcc4	-0.14427477
178	0x3ca317b2	0.01990876
179	0xbd3deef6	-0.04637047
180	0x3db48871	0.08815087
181	0xbd58adcf	-0.05290013
182	0x3e1a0b3f	0.15043353
183	0x3c587346	0.013211077
184	0xbd5bf4ec	-0.053700373
185	0xbe26c857	-0.16287361
186	0x3cfc45eb	0.030795058
187	0xbd1fda64	-0.039026633
188	0x3d4634a8	0.04839006
189	0xbdf0557e	-0.11735056
190	0x3cea1a2c	0.028576933
191	0xbe1fcfaf	-0.15606569
192	0xbd9dba35	-0.07701532
193	0x3db83fa0	0.089965105
194	0x3e0e3ba5	0.1388994
195	0x3d910ce5	0.070825376
196	0x3d90c887	0.070694976
197	0xbdf96e18	-0.12179202
198	0x3d6f79fb	0.05846594
199	0xbcf50114	-0.02990774
200	0xbdf42799	-0.11921615
201	0xbd62a5b1	-0.055333797
202	0xbdd6961c	-0.1047785
203	0x3b05770c	0.0020365147
204	0xbe06ca1a	-0.13163033
205	0xbd4229f6	-0.0474033
206	0xbe28ff4a	-0.16503635
207	0xbcca38ca	-0.024685282
208	0xbd3d5316	-0.046221815
209	0xbd6ce8db	-0.057839256
210	0xbe2a32a7	-0.16620885
211	0xbe22f509	-0.15913786
212	0xbe2be66d	-0.16787119
213	0xbd8c1656	-0.06840198
214	0xbd8e7f8a	-0.0695792
215	0xbe1f2392	-0.15540913
216	0x3db33418	0.087501705
217	0x3d91c40c	0.07117471
218	0xbd25475e	-0.040351264
219	0x3d44c4ac	0.048039123
220	0xbe194117	-0.14966236
221	0x3d570054	0.052490547
222	0x3dfb4a44	0.122700244
223	0x3c117866	0.008878803
224	0x3e201172	0.15631655
225	0x3cb1169b	0.021617224
226	0x3d39f7f9	0.0454025
227	0x3e10980a	0.14120498
228	0x3e32e509	0.17470182
229	0xbdd2cda0	-0.10293126
230	0xbdd63695	-0.104596294
231	0x3d481adc	0.04885374
232	0xbdd2a111	-0.10284627
233	0xbdf7f07a	-0.12106414
234	0x3b99a30c	0.004688626
235	0x3e0d62bf	0.138072
236	0x3d60d7f9	0.054893468
237	0xbe090578	-0.13380992
238	0xbe0cd0b3	-0.13751487
239	0xbd4a6b5f	-0.049418803
240	0x3daf2604	0.08552173
241	0x3ddee3e7	0.10883313
242	0xbd92d25f	-0.07169031
243	0x3df184cf	0.11792909
244	0x3d8e27d0	0.069411874
245	0x3ab3e309	0.0013724278
246	0xbd26bcf7	-0.040707555
247	0xbda72417	-0.081611805
248	0xbc4236cc	-0.011853885
249	0x3e1fb829	0.15597595
250	0x3d1c60e5	0.038178343
251	0xbdf11a74	-0.11772624
252	0x3dbac38e	0.0911933
253	0xbdb8ed16	-0.090295956
254	0x3e33ec06	0.17570505
255	0xbc2245d1	-0.009904341

8.bias f4 [12]
0	0xbd87f725	-0.06638936
1	0xbd171307	-0.03688338
2	0x3a4a50be	0.000771772
3	0xbdd49ef2	-0.10381879
4	0xbe075e18	-0.13219488
5	0xbd5dd107	-0.054154422
6	0xbe0e2507	-0.13881312
7	0x3d7a896f	0.061166223
8	0xbe223716	-0.15841326
9	0x3af3fe47	0.0018615209
10	0x3e13109b	0.14361803
11	0xbe11f64d	-0.14254113
