unitree_2_sa.pt (torch, 85182 bytes, 10 tensors)

0.weight f4 [64, 19]
0.19911368 0.21943939 0.22157265 -0.15020403 0.15617935 -0.18145773 -0.13705005 -0.20532928
-0.006273524 0.19260702 -0.1739716 0.11406728 -0.09849921 0.12252852 -0.21945569 -0.22295143
0.17136481 0.040075105 -0.20731708 -0.19085474 0.16356553 0.17237961 0.20590521 -0.042148393
0.08962531 -0.07936388 0.014861222 -0.12763987 0.01885462 -0.070151165 0.11587206 -0.18569787
0.034625344 -0.0693597 -0.015574224 0.079565965 0.20173807 -0.09860532 0.16842924 0.054221027
0.12547898 -0.1174451 0.1769782 -0.007913832 -0.13485241 0.12923539 0.0059279758 0.10591839
0.13624518 0.10227626 -0.11972424 0.02268505 -0.08391727 0.087033466 0.014178741 -0.19729154
0.20779106 0.055689912 0.14307052 0.03669784 0.045565777 -0.12878548 0.06962908 0.035542395
-0.07195135 0.08348415 -0.058674015 0.1314284 0.16052566 -0.012720739 0.21560971 0.10117676
-0.07780762 -0.14932519 0.18938014 0.12203983 0.12123781 0.12529638 -0.1076612 -0.16257644
-0.2283728 -0.07265415 0.16647704 0.22040293 0.0050839195 0.16690587 -0.17053083 0.14242607
0.025156833 0.20510623 0.2112606 0.043803412 0.1604621 -0.042290304 -0.03375558 0.1816295
-0.13297583 0.12946658 -0.15753861 0.024686411 0.19839825 -0.12451651 0.19344932 0.03517084
-0.13137078 0.003529158 -0.16931738 0.1278703 0.13419779 -0.10614391 -0.1542639 -0.14436238
-0.02083394 -0.08111638 -0.07354929 0.15446688 0.055774365 -0.13731095 0.20976858 -0.09483063
0.0016686405 0.0949366 0.2238915 0.17596355 0.16943252 0.17409983 -0.010474853 -0.13061585
-0.14769596 0.09975079 -0.21090701 0.18047966 0.2026855 0.06884366 -0.16196728 -0.0615633
-0.12424929 0.21639612 -0.048169874 0.0028820108 0.2220923 -0.039691567 -0.11284836 -0.003662181
0.20654494 0.07430668 0.10771352 0.1443789 0.0581818 0.15587723 0.0094149355 -0.1754465
-0.06622808 0.057052307 -0.023313217 -0.035615332 -0.22799528 -0.1098531 0.19123803 0.05338999
-0.14220914 0.19346136 0.19257303 -0.02003777 0.20267397 0.13887739 -0.18192191 0.16768324
-0.17290853 0.08547663 0.20577928 0.0071373805 0.14708611 -0.01120101 -0.22608618 -0.0035582841
-0.085645884 0.2055519 -0.20347203 -0.08071854 -0.038656402 -0.14327106 0.21753956 -0.09950298
0.21731637 0.19085723 0.14326918 0.007268298 -0.025404008 -0.14204383 0.18851112 -0.1740864
0.122276366 -0.011014712 -0.13057779 -0.018239662 0.12366909 -0.06472386 -0.22907187 0.01645769
0.051471792 -0.114105135 -0.011107259 0.060624346 0.034383528 -0.10507548 -0.04718645 -0.22751819
0.030118259 -0.16848724 -0.138108 -0.16789022 -0.15481278 -0.22267626 -0.07095401 -0.036078423
0.17252088 -0.046334133 -0.18704103 0.053141173 0.10777737 -0.025190992 0.18365829 -0.034179755
0.10642786 0.035962656 -0.096070744 0.00961529 -0.11674106 -0.0984336 0.15184374 0.013782817
0.12074381 0.121171 -0.21599568 0.12682138 0.12211075 0.0176197 0.08265473 0.10293653
0.22248875 0.040533 0.2281749 0.017951848 0.0006648417 0.04564129 0.110226266 -0.12449813
-0.21648996 -0.21608873 0.001682178 0.048678994 -0.0069627333 -0.084079586 0.2149757 -0.060563385
00000000: 75e4 4b3e b8b4 603e f1e3 623e 16cf 19be
00000010: 7bed 1f3e 0ed0 39be d956 0cbe d741 52be
00000020: 2292 cdbb c63a 453e 9c25 32be 1b9c e93d
00000030: f4b9 c9bd 3cf0 fa3d feb8 60be 614d 64be
00000040: 427a 2f3e cb25 243d ee4a 54be 6d6f 43be
00000050: b97d 273e 4884 303e d1d8 523e cba3 2cbd
00000060: 798d b73d 8889 a2bd 7c7c 733c 07b4 02be
00000070: 0175 9a3c 6aab 8fbd 554e ed3d 9527 3ebe
00000080: 4ed3 0d3d 750c 8ebd 082b 7fbc 7bf3 a23d
00000090: 6d94 4e3e 96f1 c9bd b778 2c3e de16 5e3d
000000a0: 907d 003e 0e87 f0bd c639 353e 04a9 01bc
000000b0: c016 0abe 4856 043e 773f c23b beeb d83d
000000c0: db83 0b3e 3776 d13d fb31 f5bd ffd5 b93c
000000d0: d1dc abbd 9a3e b23d f34d 683c cb06 4abe
000000e0: 2ec7 543e 1b1b 643d 1481 123e 7950 163d
000000f0: 2ea3 3a3d 57e0 03be b199 8e3d e794 113d
00000100: 3b5b 93bd bdf9 aa3d 2a54 70bd 2b95 063e
00000110: d760 243e a56a 50bc cbc8 5c3e c335 cf3d
00000120: 9a59 9fbd b4e8 18be deec 413e 05f0 f93d
00000130: 874b f83d b24d 003e 7a7d dcbd 707a 26be
00000140: 8fda 69be b3cb 94bd f578 2a3e 4eb1 613e
00000150: 0297 a63b 5fe9 2a3e a29f 2ebe 24d8 113e
00000160: b415 ce3c 5e07 523e b354 583e 356b 333d
00000170: 2d50 243e 9938 2dbd 4b43 0abd 15fd 393e
00000180: d12a 08be e392 043e cd51 21be 283b ca3c
00000190: e928 4b3e 8302 ffbd 9417 463e 4c0f 103d
000001a0: 1086 06be 7249 673b 8961 2dbe 6ff0 023e
000001b0: 256b 093e fa61 d9bd 5bf7 1dbe bbd3 13be
000001c0: f0ab aabc 5820 a6bd 03a1 96bd 912c 1e3e
000001d0: a973 643d 3e9b 0cbe 93cd 563e 9036 c2bd
000001e0: 49b6 da3a 1f6e c23d d043 653e ca2f 343e
000001f0: b87f 2d3e 3a47 323e b89e 2bbc 29c0 05be
00000200: 9c3d 17be 244a cc3d 02f8 57be a9cf 383e
00000210: ca8c 4f3e e8fd 8c3d c0da 25be cd29 7cbd
00000220: 6976 febd f296 5d3e c64d 45bd 1ee0 3c3b
00000230: 2a6c 633e a093 22bd 0a1d e7bd 3401 70bb
00000240: 8480 533e 1a2e 983d e898 dc3d 10d8 133e
00000250: 0a50 6e3d 489e 1f3e 1a41 1a3c 3fa8 33be
00000260: 96a2 87bd aeaf 693d 5cfb bebc 62e1 11bd
00000270: 9877 69be a9fa e0bd e7d3 433e 76af 5a3d
00000280: 469f 11be bc1a 463e dd31 453e 4026 a4bc
00000290: c489 4f3e e035 0e3e bd49 3abe 28b5 2b3e
000002a0: ef0e 31be 5f0e af3d ceb7 523e b0e0 e93b
000002b0: be9d 163e 7184 37bc 2383 67be 1a32 69bb
000002c0: 1c67 afbd 337c 523e f95a 50be c34f a5bd
000002d0: 2d56 1ebd a6b5 12be b1c2 5e3e 38c8 cbbd
000002e0: 2f88 5e3e 1470 433e 28b5 123e e72a ee3b
000002f0: 111c d0bc f073 11be 0f09 413e b543 32be
00000300: 086c fa3d 0d77 34bc 2fb6 05be 586b 95bc
00000310: 3846 fd3d f18d 84bd d191 6abe 47d2 863c
00000320: 16d4 523d f4af e9bd 39fb 35bc 3c51 783d
00000330: bed5 0c3d d031 d7bd 9446 41bd 87fa 68be
00000340: 91ba f63c eb87 2cbe 2f6c 0dbe 6aeb 2bbe
00000350: 3e87 1ebe 3f05 64be 5650 91bd f8c6 13bd
00000360: 50a9 303e dcc8 3dbd af87 3fbe 8faa 593d
00000370: 62ba dc3d 575d cebc eb10 3c3e 1200 0cbd
00000380: daf6 d93d 944d 133d bdc0 c4bd 7389 1d3c
00000390: f015 efbd 8e97 c9bd ed7c 1b3e 53d1 613c
000003a0: 8848 f73d 8028 f83d f92d 5dbe 77dd 013e
000003b0: 3315 fa3d 3057 903c e246 a93d 63d0 d23d
000003c0: 17d4 633e ee05 263d aea6 693e c10f 933c
000003d0: c548 2e3a 5cf2 3a3d 4fbe e13d e0f8 febd
000003e0: 8baf 5dbe 5d46 5dbe 877c dc3a a063 473d
000003f0: a427 e4bb eb31 acbd 9722 5c3e 5011 78bd

0.bias f4 [64]
-0.11792112 0.0006690807 0.10203034 -0.18202096 0.21227299 0.00032232926 -0.07840923 -0.15943651
-0.116909064 0.0928355 0.08024213 0.036455203 -0.06271076 0.020687023 -0.05103799 -0.08772478
-0.21265866 -0.1903991 -0.08603002 -0.21179627 -0.15979835 0.2151352 0.089508995 -0.011766796
0.08529301 -0.22425595 -0.00042658168 0.07126616 0.004921278 0.040090937 0.1325678 -0.050276693
0.22813472 -0.05177454 -0.17143087 -0.1098161 -0.20676047 0.09614188 -0.012047828 -0.10378685
-0.17070794 -0.07714004 -0.1702676 0.11841597 0.03266749 -0.00090250006 0.19783077 0.15415947
0.06329134 0.17122419 -0.1889848 -0.07867886 0.033074792 -0.14608361 0.19109122 0.14652328
-0.053352166 0.1034899 -0.18005647 0.10108843 -0.10062859 -0.040589064 0.1303254 0.1799566
00000000: a180 f1bd 3f65 2f3a 48f5 d03d b463 3abe
00000010: 175e 593e 4dfe a839 0595 a0bd 5343 23be
00000020: 056e efbd 8a20 be3d fc55 a43d 0d52 153d
00000030: 806e 80bd d577 a93c 360d 51bd 0da9 b3bd
00000040: 31c3 59be fbf7 42be 8230 b0bd 1fe1 58be
00000050: 2ea2 23be 674c 5c3e 7e50 b73d 85c9 40bc
00000060: 1aae ae3d 5aa3 65be d3a6 dfb9 fef3 913d
00000070: ac42 a13b 6536 243d dabf 073e efee 4dbd
00000080: 269c 693e 8a11 54bd 938b 2fbe 43e7 e0bd
00000090: 04b9 53be 09e6 c43d 4164 45bc 338e d4bd
000000a0: 10ce 2ebe 99fb 9dbd a15a 2ebe 1284 f23d
000000b0: 59ce 053d c195 6cba 2694 4a3e fbdb 1d3e
000000c0: e49e 813d 6555 2f3e 3b85 41be 6222 a1bd
000000d0: 6f79 073d f196 15be 6bad 433e 330a 163e
000000e0: cd87 5abd 83f2 d33d b960 38be 7307 cf3d
000000f0: 5d16 cebd b840 26bd 0674 053e 8b46 383e

2.weight f4 [128, 64]
0.069206744 0.06548548 0.07282591 0.011817753 -0.0647755 0.10663536 -0.07253949 -0.10616785
0.019581854 -0.10883562 0.017356604 -0.0792702 0.018855795 0.06489812 0.064617395 0.0016109347
-0.022105962 -0.057576537 -0.08274239 -0.10230768 -0.027934358 -0.10328594 0.041541636 -0.095132604
-0.030044407 -0.031173393 -0.032638386 0.01338391 -0.115404025 0.09481931 -0.09946354 0.056703582
-0.07782392 0.002993837 -0.03805864 -0.006641552 0.08012296 -0.05962862 0.06747201 -0.042233437
-0.029858112 -0.054233015 -0.025766551 -0.06779151 -0.063159496 -0.012743011 0.11742328 0.06777379
-0.09549697 0.11292505 -0.123288676 0.09277022 -0.11042172 0.028174564 -0.09248705 0.119229704
-0.022903308 0.030576542 -0.021758258 0.04671009 0.035355553 0.062948555 -0.053021893 -0.08328405
-0.11126435 -0.11676866 0.122404575 -0.05414328 -0.07863274 0.022943571 0.030635789 0.059185147
-0.11633237 -0.096645996 -0.07444669 -0.0023789406 0.11847305 0.09261361 -0.027733415 -0.065845385
0.025541961 -0.021703422 -0.06878862 0.10288322 0.017942622 -0.007815659 -0.04069531 -0.03109534
0.07580952 0.02733612 -0.019453317 -0.014341131 -0.07964745 0.10822828 -0.00078736246 0.023800477
0.041501135 0.032127216 0.08264089 -0.030492902 0.10829 -0.060997784 0.06282854 -0.044057667
-0.052584678 -0.035028785 0.07592857 0.066394135 0.08297849 -0.08815445 -0.10228902 -0.038913205
0.018546283 -0.07449384 0.083837435 -0.09203972 -0.012314424 -0.07507256 0.10222037 0.030885011
0.0393347 0.04928367 0.070718676 -0.07346137 -0.027923271 -0.0660225 0.04733683 -0.09664586
0.033212468 0.05581613 0.07208413 -0.0023204386 -0.06435335 0.059512824 0.09987141 -0.088244766
-0.034888327 0.020611346 0.004934475 -0.040655553 0.04610409 -0.12000759 0.04045914 0.09610799
-0.08359665 -0.05141504 -0.074329436 0.076701656 0.08939707 -0.015476838 0.095044 -0.092034176
0.06320597 -0.07787962 -0.03321019 0.12447901 0.097364515 0.11933741 0.01750733 0.029655531
-0.102815434 -0.013347626 -0.08510293 -0.11391848 0.027305722 0.07128243 0.08783926 -0.095044374
0.10639289 -0.049769938 0.056630984 -0.11032574 0.10356842 -0.05039695 -0.11993708 -0.05436784
0.02212809 -0.07908717 0.079408735 -0.121805966 -0.10986793 0.030155256 -0.11245823 0.056062996
0.12213373 0.10481003 0.002801761 -0.072074234 0.053839207 0.036031485 0.09163995 0.012391433
-0.100416824 0.09195995 0.0711977 0.10127431 -0.07905811 0.03013222 0.023726702 -0.008920044
-0.023430541 -0.06489509 0.09122646 0.0814154 -0.069098264 0.105344296 0.0037880987 -0.12427056
-0.06758915 -0.09558608 -0.08329165 0.1034538 0.11018166 -0.102915615 -0.02373214 -0.054179475
-0.056768328 0.022791862 -0.06325725 -0.031392455 -0.046181142 -0.0036799908 0.11423589 -0.106507406
0.00268884 -0.09134877 0.02352342 0.11983377 -0.04321967 0.090911314 -0.078087404 -0.007947817
0.09124552 -0.01450111 -0.023481414 0.056355372 0.10752584 -0.046765283 0.06402072 0.05497831
0.033892527 -0.0426971 0.084102035 -0.11413436 -0.04186915 0.029418185 -0.059082642 0.012675092
0.044701606 -0.045000106 0.08921872 0.10959053 -0.08109009 -0.043634877 -0.07495433 0.11625916
00000000: 44bc 8d3d 401d 863d c025 953d 409f 413c
00000010: 04a9 84bd a463 da3d 968f 94bd 886e d9bd
00000020: 206a a03c 36e5 debd 702f 8e3c 6a58 a2bd
00000030: 7877 9a3c 4ee9 843d 2056 843d 0026 d33a
00000040: 9017 b5bc 60d5 6bbd d874 a9bd b086 d1bd
00000050: 98d6 e4bc 9487 d3bd 9027 2a3d e2d4 c2bd
00000060: b01f f6bc 585f ffbc d4af 05bd 3048 5b3c
00000070: f258 ecbd a030 c23d 8ab3 cbbd 0442 683d
00000080: 2662 9fbd 4034 443b 60e3 1bbd 60a1 d9bb
00000090: 8217 a43d 243d 74bd c42e 8a3d f8fc 2cbd
000000a0: 0099 f4bc 7023 5ebd 6014 d3bc 46d6 8abd
000000b0: c459 81bd 10c8 50bc 9e7b f03d fccc 8a3d
000000c0: ea93 c3bd 4045 e73d c67e fcbd 50fe bd3d
000000d0: c824 e2bd 58ce e63c da69 bdbd b42e f43d
000000e0: b89f bbbc a87b fa3c 603e b2bc 1453 3f3d
000000f0: fcd0 103d 2ceb 803d 7c2d 59bd d490 aabd
00000100: 90de e3bd 6824 efbd 40af fa3d 58c5 5dbd
00000110: 340a a1bd 28f4 bb3c e8f7 fa3c 206c 723d
00000120: aa3f eebd 56ee c5bd 8277 98bd 00e8 1bbb
00000130: 00a2 f23d 34ac bd3d 3031 e3bc f2d9 86bd
00000140: 603d d13c 60cb b1bc 0ce1 8cbd 70b4 d23d
00000150: 68fc 923c 400d 00bc 20b0 26bd a8bb febc
00000160: 0642 9b3d 00f0 df3c 905c 9fbc 10f7 6abc
00000170: 341e a3bd caa6 dd3d 0067 4eba 38f9 c23c
00000180: 18fd 293d d497 033d a03f a93d 40cc f9bc
00000190: 26c7 dd3d d0d8 79bd 40ac 803d d075 34bd
000001a0: 0863 57bd 587a 0fbd 7080 9b3d a6f9 873d
000001b0: a0f0 a93d 528a b4bd e87c d1bd 7463 1fbd
000001c0: 60ee 973c 3a90 98bd f6b2 ab3d 527f bcbd
000001d0: 70c2 49bc a4bf 99bd ea58 d13d 9002 fd3c
000001e0: 6c1d 213d acdd 493d f4d4 903d ea72 96bd
000001f0: 58bf e4bc ce36 87bd 44e4 413d 44ee c5bd
00000200: cc09 083d 749f 643d d8a0 933d 8012 18bb
00000210: b0cb 83bd b8c3 733d 6289 cc3d acb9 b4bd
00000220: 10e7 0ebd 20d9 a83c 60b1 a13b 7086 26bd
00000230: a4d7 3c3d 8ac6 f5bd 7cb8 253d 44d4 c43d
00000240: b834 abbd 9498 52bd 083a 98bd c215 9d3d
00000250: d015 b73d 9092 7dbc 6ea6 c23d 6a7c bcbd
00000260: 2272 813d 5a7f 9fbd 6807 08bd daee fe3d
00000270: 0c67 c73d 2c67 f43d 886b 8f3c 28f0 f23c
00000280: e690 d2bd 00b0 5abc 724a aebd 184e e9bd
00000290: 40b0 df3c 86fc 913d 12e5 b33d a0a6 c2bd
000002a0: 84e4 d93d 90db 4bbd e4f5 673d 76f2 e1bd
000002b0: ae1b d43d 086d 4ebd 92a1 f5bd d0b0 5ebd
000002c0: f845 b53c 74f8 a1bd 0ca1 a23d 6875 f9bd
000002d0: 7002 e1bd 2808 f73c 8050 e6bd 50a2 653d
000002e0: 4021 fa3d a4a6 d63d c09d 373b a89b 93bd
000002f0: 8086 5c3d c095 133d baad bb3d 7005 4b3c
00000300: 56a7 cdbd 8055 bc3d 1ad0 913d e868 cf3d
00000310: 38e9 a1bd d8d7 f63c 805e c23c 6025 12bc
00000320: 68f1 bfbc b8e7 84bd f0d4 ba3d 1ebd a63d
00000330: 6483 8dbd c0be d73d c041 783b 9081 febd
00000340: 2e6c 8abd a2c2 c3bd d094 aabd 96df d33d
00000350: eca6 e13d 6cc5 d2bd e869 c2bc 4ceb 5dbd
00000360: e885 68bd 00b6 ba3c 048d 81bd 6095 00bd
00000370: 7028 3dbd 002c 71bb 82f4 e93d 8e20 dabd
00000380: 4037 303b 1015 bbbd 30b4 c03c 686b f53d
00000390: 1c07 31bd b62f ba3d 4aec 9fbd 9037 02bc
000003a0: eede ba3d 1096 6dbc 185c c0bc e4d4 663d
000003b0: 8236 dc3d f48c 3fbd 4c1d 833d f030 613d
000003c0: e4d2 0a3d 28e3 2ebd b03d ac3d 46bf e9bd
000003d0: fc7e 2bbd 68fe f03c a400 72bd 30ab 4f3c
000003e0: 0819 373d 0852 38bd 4eb8 b63d 0071 e03d
000003f0: 9012 a6bd 7cba 32bd a881 99bd 4819 ee3d

2.bias f4 [128]
0.09278855 -0.047070757 0.10113779 0.01782088 0.10518503 -0.10459097 0.018091187 -0.10591015
-0.037138507 -0.08637166 -0.020786852 -0.0012991577 0.03229703 0.11648612 0.060942948 -0.04923229
-0.09845564 -0.06308229 -0.11690131 0.08966564 0.06745483 0.025770262 0.11389069 0.116460145
0.03410557 0.09041214 0.11110453 0.014555037 0.09260993 0.10778682 0.117627025 -0.09411506
-0.093223795 -0.0071855783 0.08209664 0.026999623 -0.10367446 0.043477118 0.08074273 0.0983412
0.01857473 0.06985544 0.07857792 0.07223387 0.020498201 0.08892937 0.03297329 0.035685256
-0.10820453 -0.031162888 0.10464482 0.005640194 -0.053475067 0.0415418 -0.037272766 0.024493694
0.036182746 -0.11646658 0.045239985 0.06500408 0.060213506 0.09146042 -0.1112808 0.105624124
-0.018963754 0.11189304 -0.06811845 -0.09253858 -0.024274722 -0.089892596 -0.010680035 0.025850564
-0.009811178 0.10583787 0.031697467 0.059108943 -0.112578824 0.018780977 0.078513324 0.0115134865
-0.041066647 -0.069814816 -0.009871036 -0.022111863 -0.07596426 0.037418738 0.002925843 0.12054345
0.10696684 0.034836292 0.0011663139 -0.031576946 -0.02916205 0.015476212 0.10167256 0.035485804
0.0008055866 -0.06002985 0.074524805 -0.091050684 -0.096206516 -0.10401833 -0.09512666 0.020969883
-0.10088271 -0.08555347 0.040708065 -0.10501714 -0.058798388 0.080486655 0.017302915 -0.02290602
-0.12091258 -0.036766797 -0.039705142 -0.12451522 0.10694437 0.07746276 -0.079744026 0.108709276
0.012748599 0.040013656 0.082750455 0.06478831 -0.0007606596 -0.045464948 0.0845135 -0.037449718
00000000: ec07 be3d 44cd 40bd 5421 cf3d 18fd 913c
00000010: 406b d73d ca33 d6bd f833 943c 6ce7 d8bd
00000020: 8c1e 18bd a0e3 b0bd 3049 aabc 8048 aaba
00000030: e449 043d 4690 ee3d 509f 793d cca7 49bd
00000040: 1ca3 c9bd 4a31 81bd f469 efbd 9ea2 b73d
00000050: c225 8a3d 281c d33c 863f e93d a882 ee3d
00000060: 48b2 0b3d 002a b93d c68a e33d 4078 6e3c
00000070: 46aa bd3d 56bf dc3d 70e6 f03d 66bf c0bd
00000080: 1eec bebd 0075 ebbb 4822 a83d 502e dd3c
00000090: 4653 d4bd 1015 323d 725c a53d 1c67 c93d
000000a0: 082a 983c 5e10 8f3d 76ed a03d 5aef 933d
000000b0: d8eb a73c 9a20 b63d 000f 073d b42a 123d
000000c0: 569a ddbd 5049 ffbc 0650 d63d 60d1 b83b
000000d0: ac08 5bbd bc27 2a3d 54ab 18bd 00a7 c83c
000000e0: 5c34 143d 0886 eebd 904d 393d dc20 853d
000000f0: 70a2 763d 9a4f bb3d 30e7 e3bd 7651 d83d
00000100: e059 9bbc 2e28 e53d b081 8bbd de84 bdbd
00000110: c8db c6bc 9c19 b8bd 50fb 2ebc 90c4 d33c
00000120: 10bf 20bc 86c1 d83d 34d5 013d 381c 723d
00000130: ba8f e6bd 90da 993c 98cb a03d 10a3 3c3c
00000140: 8035 28bd 12fb 8ebd 20ba 21bc f023 b5bc
00000150: 2693 9bbd 6444 193d 80bf 3f3b 7cdf f63d
00000160: 6e11 db3d 80b0 0e3d 00df 983a d456 01bd
00000170: 40e5 eebc f08f 7d3c b439 d03d 9059 113d
00000180: 002e 533a dce1 75bd 76a0 983d c878 babd
00000190: ec07 c5bd 9007 d5bd c4d1 c2bd 08c9 ab3c
000001a0: 989b cebd a836 afbd 80bd 263d 3a13 d7bd
000001b0: 94d6 70bd 30d6 a43d d8be 8d3c 68a5 bbbc
000001c0: 04a1 f7bd c898 16bd dca1 22bd d601 ffbd
000001d0: a605 db3d cca4 9e3d d650 a3bd f8a2 de3d
000001e0: 80df 503c 5ce5 233d 1279 a93d bcaf 843d
000001f0: 0067 47ba 7439 3abd 6a15 ad3d e064 19bd

4.weight f4 [64, 128]
0.04453986 0.0019523895 -0.0137560675 -0.016884776 0.01307097 0.003275042 0.044440184 0.04583219
-0.03932795 -0.08410776 -0.08293027 -0.0726328 -0.020008015 -0.06670255 -0.028359866 0.025748437
0.08821227 -0.035821103 0.014078322 0.028673913 -0.05110515 -0.04416898 -0.048494365 0.036921788
0.02753383 -0.07301962 0.018670674 0.026416633 -0.018737087 -0.08525659 0.06477969 -0.033818755
-0.008961495 -0.042907618 0.082553044 0.013345968 -0.086589254 0.0568043 0.025649866 -0.045048997
-0.06900763 0.042668182 -0.082624376 -0.05802388 0.014606527 0.013818635 0.07777668 0.050071687
-0.009783727 -0.06190574 0.010554076 0.08487141 -0.0065320237 -0.048923112 -0.010859409 -0.025839232
-0.07081252 0.054186843 0.074332416 -0.0078098425 0.050313517 0.03250797 0.00025051032 0.07675563
0.08332557 -0.07926488 -0.018370757 0.04861029 -0.04026575 0.02781142 0.060266327 0.04695907
0.07148628 0.03457812 0.08600944 0.03875391 -0.04733383 0.05102703 -0.06714156 -0.05317532
0.034715272 -0.016899347 0.066719525 -0.018654902 -0.04087884 0.0041376296 -0.0020604013 -0.014284136
0.0022363644 0.04257761 0.07648436 0.07460654 0.016116997 -0.031054124 0.0075411038 -0.056323953
0.018378712 0.03843826 0.03305336 -0.013610471 -0.003763745 0.027608251 -0.02110179 -0.059614155
-0.086286105 -0.058772188 -0.019668838 0.012087158 -0.002425983 -0.049232513 0.008964993 -0.02763752
0.029549155 -0.027952041 -0.06111509 -0.034394093 -0.050318763 -0.075515375 -0.046624634 -0.025386596
-0.0726609 0.06634602 -0.081316724 0.084658206 -0.07885436 0.031507425 0.06053144 0.010616696
-0.04269482 0.0020949722 0.06584559 -0.027227022 0.022992423 -0.013435077 -0.03871445 0.016872963
0.029234793 0.056351285 -0.083736315 0.05126909 0.021942755 0.020255428 0.07995037 -0.06775118
0.049015824 0.049777947 -0.07593984 0.060205538 0.03402457 -0.031070877 -0.08255188 0.07995219
-0.046511535 -0.045526307 0.04563532 0.021094592 -0.029411599 0.040583823 -0.04994513 0.076037236
-0.0060373885 -0.057598334 0.043394364 0.020347308 0.06771575 0.02563014 0.011682158 -0.0020742991
0.069780305 0.07297506 0.07655439 -0.043974515 0.039709873 0.015470938 0.054886997 0.07420879
-0.054532375 0.078709185 -0.03383923 -0.033227332 0.00712975 -0.017756067 0.006524785 0.023993295
0.06370371 -0.017712928 0.07339882 -0.008523599 0.00194965 -0.01441222 0.045897644 0.027683051
0.060514823 -0.009495443 0.08624587 0.018718384 0.046882845 -0.07912858 -0.00053230417 0.010972405
-0.0879708 -0.035236724 -0.04384225 0.07060173 0.0048469612 -0.014964259 -0.05990203 0.02955967
-0.0116361445 -0.017210877 0.07925129 0.014263674 0.03908352 0.010417246 -0.08146645 0.0044874065
0.05414677 -0.079117976 -0.008690312 0.07640604 -0.047640752 -0.048561208 0.063170865 0.0016629355
0.03908825 -0.0371535 -0.066385806 0.065488875 0.03854344 0.012121918 -0.047653135 0.04740256
-0.042327322 0.019311126 -0.06339032 0.03448943 -0.021947192 0.008718424 0.0426243 -0.05341915
-0.07872157 0.008526076 0.05568194 -0.043387197 -0.033437453 0.028719462 -0.020583088 -0.023484876
0.0052759005 0.06493338 -0.017424908 -0.040939044 0.041693263 -0.011506237 -0.028162587 0.028250484
00000000: 6e6f 363d 52e7 ff3a 2161 61bc f151 8abc
00000010: 9f27 563c 16a2 563b e906 363d 89ba 3b3d
00000020: 5816 21bd b040 acbd 58d7 a9bd 81c0 94bd
00000030: d9e7 a3bc 599b 88bd f352 e8bc 63ee d23c
00000040: a2a8 b43d 26b9 12bd c3a8 663c 8ee5 ea3c
00000050: a253 51bd 88ea 34bd 07a2 46bd 4d3b 173d
00000060: a08e e13c 4f8b 95bd 3ef3 983c b267 d83c
00000070: 857e 99bc 029b aebd 37ab 843d 8985 0abd
00000080: 3cd3 12bc e6bf 2fbd 9211 a93d 0ca9 5a3c
00000090: b555 b1bd a0ab 683d ab1f d23c 4c85 38bd
000000a0: df53 8dbd d5c4 2e3d f836 a9bd 73aa 6dbd
000000b0: 3750 6f3c 8e67 623c 6149 9f3d f817 4d3d
000000c0: ed4b 20bc e090 7dbd 01eb 2c3c 10d1 ad3d
000000d0: 960a d6bb 9a63 48bd aaeb 31bc ccac d3bc
000000e0: 2806 91bd 06f3 5d3d 983b 983d b5e9 ffbb
000000f0: 8c15 4e3d 1427 053d ed56 8339 0e32 9d3d
00000100: 99a6 aa3d a055 a2bd 457e 96bc 951b 473d
00000110: b3ed 24bd c6d4 e33c d3d9 763d 2758 403d
00000120: 6667 923d c9a1 0d3d b825 b03d 6cbc 1e3d
00000130: 1ee1 41bd b801 513d 8481 89bd 5dce 59bd
00000140: 9a31 0e3d 8070 8abc 3fa4 883d 2ad2 98bc
00000150: 9270 27bd f494 873b cc07 07bb 0208 6abc
00000160: f88f 123b dc65 2e3d d5a3 9c3d 50cb 983d
00000170: cb07 843c 3865 febc 5d1b f73b f2b3 66bd
00000180: f48e 963c 7071 1d3d f662 073d 74fe 5ebc
00000190: 2aa9 76bb b32a e23c a9dd acbc f92d 74bd
000001a0: c5b6 b0bd 1bbb 70bd 8b20 a1bc 3709 463c
000001b0: 3efd 1ebb 08a8 49bd e8e1 123c 1568 e2bc
000001c0: 1211 f23c aefb e4bc d153 7abd d2e0 0cbd
000001d0: 0c1b 4ebd cea7 9abd 79f9 3ebd 8df7 cfbc
000001e0: 3dcf 94bd 6ce0 873d 6289 a6bd 4861 ad3d
000001f0: 657e a1bd ee0d 013d d1ef 773d a7f1 2d3c
00000200: c3e0 2ebd cd4b 093b 0dda 863d 340b dfbc
00000210: 9b5a bc3c cc1e 5cbc 0b93 1ebd 2b39 8a3c
00000220: ce7d ef3c 9bd0 663d f27d abbd 8aff 513d
00000230: 4bc1 b33c b6ee a53c 05bd a33d 21c1 8abd
00000240: d1c4 483d f6e3 4b3d 5986 9bbd 159a 763d
00000250: 595d 0b3d 5a88 febc f610 a9bd f9bd a33d
00000260: e182 3ebd cb79 3abd 1aec 3a3d 91ce ac3c
00000270: 98f0 f0bc 393b 263d 4493 4cbd 69b9 9b3d
00000280: 49d5 c5bb 3bec 6bbd 4abe 313d 66af a63c
00000290: 8eae 8a3d 4df6 d13c 8666 3f3c f7f0 07bb
000002a0: fae8 8e3d f373 953d 8cc8 9c3d 9f1e 34bd
000002b0: d2a6 223d d179 7d3c 30d1 603d c7fa 973d
000002c0: 575d 5fbd 4832 a13d 019b 0abd 6219 08bd
000002d0: aea0 e93b 2c75 91bc ddcd d53b 968d c43c
000002e0: 1777 823d b41a 91bc 1f52 963d 91a6 0bbc
000002f0: 668b ff3a 3b21 6cbc 2bff 3b3d 91c7 e23c
00000300: 64de 773d c692 1bbc ada1 b03d 4c57 993c
00000310: 3a08 403d 2a0e a2bd 548a 0bba 9ac5 333c
00000320: 092a b4bd 6254 10bd ee93 33bd a497 903d
00000330: 42d3 9e3b a72c 75bc d55b 75bd 1f27 f23c
00000340: 87a5 3ebc d3fd 8cbc 804e a23d 2fb2 693c
00000350: 0b16 203d 19ad 2a3c e2d7 a6bd 180b 933b
00000360: 01c9 5d3d 9b08 a2bd cf61 0ebc c57a 9c3d
00000370: f322 43bd 1ee8 46bd ba5f 813d dbf6 d93a
00000380: 001b 203d 452e 18bd 48f5 87bd 081f 863d
00000390: badf 1d3d 029b 463c ef2f 43bd 3029 423d
000003a0: 6a5f 2dbd 5e32 9e3c c9d2 81bd ca44 0d3d
000003b0: 99ca b3bc b8d7 0e3c d196 2e3d 0ace 5abd
000003c0: c638 a1bd f4b0 0b3c bf12 643d c6b6 31bd
000003d0: b6f5 08bd 1445 eb3c dd9d a8bc 5b63 c0bc
000003e0: 76e1 ac3b cbfb 843d aebe 8ebc b3af 27bd
000003f0: 8ec6 2a3d a884 3cbc 3ab5 e6bc 8f6d e73c

4.bias f4 [64]
-0.05270301 0.019022495 -0.032545447 -0.03930669 0.061655495 -0.055702664 -0.022768559 0.040089216
0.087776564 0.031055093 -0.0838412 -0.0793014 -0.0189631 0.06193536 -0.06352134 0.022277664
-0.06577772 -0.08112767 -0.08469962 0.05501136 0.0499217 0.027007364 0.061057348 -0.05508123
0.06515744 -0.039119333 0.052372653 -0.08747694 0.06271123 0.033499293 -0.020929188 0.050660744
0.026812349 0.08367318 -0.052149117 0.041367818 0.006845955 -0.016146647 0.0132748345 -0.024755763
0.02818227 -0.041176796 -0.015904007 -0.082884334 0.08539721 0.06380763 -0.062425036 0.07864281
0.046869297 0.046535537 -0.040887658 -0.05085666 -0.057101812 -0.022157926 0.048724886 -0.08663015
0.06792067 0.027563175 0.06877493 -0.019896304 -0.0013576659 -0.048964996 -0.056091554 0.06425676
00000000: 1ddf 57bd 10d5 9b3c 604e 05bd 0d00 21bd
00000010: 798a 7c3d 7a28 64bd 2185 babc 9734 243d
00000020: 33c4 b33d 4067 fe3c efb4 abbd c668 a2bd
00000030: 8158 9bbc efaf 7d3d 7a17 82bd a67f b63c
00000040: 78b6 86bd 4426 a6bd ff76 adbd 9853 613d
00000050: b27a 4c3d 8c3e dd3c 4517 7a3d db9c 61bd
00000060: 4471 853d 983b 20bd b584 563d 1c27 b3bd
00000070: bf6e 803d 8e36 093d b073 abbc a481 4f3d
00000080: 92a5 db3c d85c ab3d 509a 55bd 4d71 293d
00000090: 0854 e03b f945 84bc b17e 593c 99cc cabc
000000a0: 81de e63c 00a9 28bd 1f49 82bc 43bf a9bd
000000b0: bce4 ae3d 93ad 823d 65b1 7fbd 7b0f a13d
000000c0: 05fa 3f3d 0c9c 3e3d d179 27bd 134f 50bd
000000d0: 97e3 69bd 8a84 b5bc bf93 473d 266b b1bd
000000e0: fe19 8b3d 2bcc e13c dfd9 8c3d 93fd a2bc
000000f0: b5f3 b1ba 858f 48bd 42c0 65bd 0c99 833d

6.weight f4 [32, 64]
0.056884333 0.106707826 -0.101804644 -0.094486564 -0.035391614 0.10199274 -0.07843363 0.11588228
0.1154886 -0.07464123 -0.023499921 0.07501805 0.029337391 -0.015072346 0.007750675 -0.0839867
0.119204074 0.047541857 0.042102337 -0.05494356 0.10064998 -0.012244269 -0.11380285 0.11987829
-0.07484913 0.118184805 0.038793296 0.117439106 -0.023791507 0.12065476 0.05376324 -0.002873838
-0.0030974299 0.01851286 -0.10795468 0.11443348 0.017543092 0.038326398 0.05465968 -0.056259945
-0.094436035 -0.020023644 -0.0022399426 0.10426037 -0.057403088 0.09024845 -0.05635208 0.08264443
-0.112246454 -0.12017143 0.038132146 0.11642499 0.0001103729 -0.10373016 -0.028338283 -0.10370502
-0.07451689 0.09132697 -0.081705645 -0.06428218 -0.058265984 -0.040444583 -0.034360737 0.010983244
0.03580478 0.0929791 -0.09516238 0.07241565 -0.06998962 -0.022361815 -0.12380944 -0.06305155
-0.11709213 -0.045528322 0.08485465 0.07730183 -0.04431495 -0.027160212 -0.022570565 0.10203509
-0.021280259 -0.07227595 -0.051523715 -0.011304781 -0.086024135 -0.09258479 0.09994204 0.04094456
-0.008594781 0.024268314 0.058632776 -0.05254969 0.050182387 -0.035813272 -0.09486364 0.09369664
-0.010187715 0.038682744 -0.061358213 -0.026672006 -0.10688275 -0.019515797 0.015159145 -0.07943539
0.040113166 -0.02718997 0.011249125 0.015806258 -0.009217426 -0.08878501 0.044236973 -0.051743105
-0.08872984 -0.044972003 -0.004491493 -0.051881373 0.06492317 -0.03792745 -0.11952658 0.021163106
0.10252294 0.052435294 0.114347816 -0.030239701 0.03813699 -0.009090513 0.1200504 -0.10011673
0.09036876 0.12293737 -0.07395598 -0.038777277 -0.102961004 0.029973492 0.029192775 -0.032521024
-0.11850694 -0.11602761 -0.11040941 -0.0271938 -0.10776138 -0.10322969 0.06643751 -0.0024770051
-0.07612334 -0.11013925 0.062665045 -0.11727776 0.0015375614 -0.084648654 0.09312031 -0.054666534
0.046012104 0.048420623 0.02418466 0.07552381 -0.03891392 0.095473364 0.038490593 -0.028932512
-0.05631675 0.06951724 0.01768443 0.055936202 0.029507354 -0.0078828335 0.054780826 0.10966878
-0.0456485 -0.043119162 -0.079204515 0.060005307 -0.06457858 -0.12480642 -0.12356408 -0.050269544
-0.011485785 -0.068921834 -0.018569276 -0.08407001 -0.0060527325 -0.016986012 -0.04153779 0.10615115
0.091446206 -0.018163621 0.0004093051 0.01502879 -0.10053074 0.1205859 0.11376205 -0.027476296
0.07738078 -0.026213557 0.066464484 0.09990668 0.041914597 0.06110975 0.04967858 -0.06837501
-0.034122974 -0.097122505 0.014086083 0.07558021 0.11340839 0.0661857 -0.11435792 -0.05069661
-0.098132804 0.015790686 0.08158095 0.122506976 -0.083392635 0.07725982 0.013858095 -0.04624322
0.029442266 0.04434319 0.11122927 0.08071408 -0.021068677 -0.051441237 -0.072944105 -0.063648805
0.048370272 0.08899897 0.031601384 0.03320676 -0.06751107 -0.06883326 -0.009785116 0.050152764
0.081321925 0.044803306 -0.091993496 -0.076146185 -0.043570474 0.0014272332 0.08152796 0.012068123
0.041335836 0.053553134 -0.1187617 -0.12202999 -0.06678215 0.09016946 0.08445071 -0.057916194
0.080040514 0.008658156 -0.103959635 0.073567435 -0.10156022 0.12261741 -0.07067597 -0.0704093
00000000: 8cff 683d a289 da3d f47e d0bd 2c82 c1bd
00000010: ccf6 10bd 92e1 d03d d0a1 a0bd b053 ed3d
00000020: 4a85 ec3d 80dd 98bd e882 c0bc 10a3 993d
00000030: f854 f03c 00f2 76bc 60f9 fd3b 3801 acbd
00000040: 4421 f43d 40bb 423d 8073 2c3d 800c 61bd
00000050: 9421 ce3d 309c 48bc 7811 e9bd c082 f53d
00000060: 804a 99bd e00a f23d b8e5 1e3d ea83 f03d
00000070: 68e6 c2bc d819 f73d d836 5c3d 0057 3cbb
00000080: 40fe 4abb 48a8 973c 5817 ddbd 1a5c ea3d
00000090: 88b6 8f3c 24fc 1c3d d4e2 5f3d d470 66bd
000000a0: ae67 c1bd a008 a4bc 00cc 12bb 7686 d53d
000000b0: 801f 6bbd 2ed4 b83d 70d1 66bd 7c41 a93d
000000c0: 78e1 e5bd 701c f6bd 7430 1c3d 3a70 ee3d
000000d0: 0078 e738 7a70 d4bd b025 e8bc 4c63 d4bd
000000e0: 509c 98bd a209 bb3d 4a55 a7bd 60a6 83bd
000000f0: 50a8 6ebd 38a9 25bd d8bd 0cbd 10f3 333c
00000100: 08a8 123d d46b be3d 7ee4 c2bd a84e 943d
00000110: b856 8fbd 2030 b7bc ce8f fdbd 2c21 81bd
00000120: 00ce efbd e87b 3abd 46c8 ad3d 6c50 9e3d
00000130: 9883 35bd 187f debc e8e5 b8bc c6f7 d03d
00000140: f053 aebc 6a05 94bd 880a 53bd b037 39bc
00000150: 6c2d b0bd 189d bdbd 6aae cc3d 7cb5 273d
00000160: 20d1 0cbc 58ce c63c ec28 703d 583e 57bd
00000170: 0c8c 4d3d f0b0 12bd de47 c2bd 06e4 bf3d
00000180: 60ea 26bc cc71 1e3d c052 7bbd 407f dabc
00000190: 58e5 dabd 98df 9fbc 105e 783c 06af a2bd
000001a0: b44d 243d 80bd debc 404e 383c 207c 813c
000001b0: b004 17bc ead4 b5bd d431 353d 94f0 53bd
000001c0: feb7 b5bd 9034 38bd 602d 93bb 9081 54bd
000001d0: 70f6 843d d059 1bbd 5aca f4bd 405e ad3c
000001e0: 8cf7 d13d 64c6 563d 302f ea3d 40b9 f7bc
000001f0: 8835 1c3d 60f0 14bc fcdc f53d 000a cdbd
00000200: 4213 b93d 96c6 fb3d 3c76 97bd ecd4 1ebd
00000210: 38dd d2bd f88a f53c b025 ef3c c434 05bd
00000220: c4b3 f2bd e29f edbd 541e e2bd 88c5 debc
00000230: 00b2 dcbd 166a d3bd 6410 883d 4055 22bb
00000240: 8ee6 9bbd b090 e1bd 8856 803d 522f f0bd
00000250: 0088 c93a 465c adbd dcb5 be3d 04ea 5fbd
00000260: 3077 3c3d b454 463d e81e c63c 3aac 9a3d
00000270: 3464 1fbd 8a87 c33d 50a8 1d3d e003 edbc
00000280: 64ac 66bd 0e5f 8e3d f0de 903c 5c1d 653d
00000290: 68b9 f13c 0027 01bc dc61 603d 069a e03d
000002a0: ecf9 3abd b89d 30bd fa35 a2bd 20c8 753d
000002b0: c641 84bd 829a ffbd 2a0f fdbd 70e7 4dbd
000002c0: e02e 3cbc e426 8dbd 981e 98bc e62c acbd
000002d0: 0056 c6bb 4026 8bbc 8823 2abd c665 d93d
000002e0: 2648 bb3d e0cb 94bc 0098 d639 503b 763c
000002f0: 10e3 cdbd bef5 f63d 14fc e83d f815 e1bc
00000300: d079 9e3d d0bd d6bc 881e 883d e09b cc3d
00000310: a4ae 2b3d 384e 7a3d c47b 4b3d 3208 8cbd
00000320: 88c4 0bbd 2ae8 c6bd 50c9 663c ccc9 9a3d
00000330: a842 e83d 5e8c 873d 7c34 eabd 40a7 4fbd
00000340: daf9 c8bd 785b 813c ea13 a73d f0e4 fa3d
00000350: c2c9 aabd 663a 9e3d 100d 633c 8869 3dbd
00000360: e830 f13c 34a1 353d 2ccc e33d 6c4d a53d
00000370: 3898 acbc 0cb4 52bd b863 95bd 4e5a 82bd
00000380: e81f 463d 1845 b63d 7470 013d d003 083d
00000390: 3e43 8abd 74f8 8cbd c051 20bc fc6c 4d3d
000003a0: 1c8c a63d ac83 373d 1667 bcbd 88f2 9bbd
000003b0: f476 32bd 0012 bb3a 22f8 a63d 60b9 453c
000003c0: c44f 293d 885a 5b3d 5639 f3bd dcea f9bd
000003d0: 14c5 88bd c4aa b83d 7ef4 ac3d 8839 6dbd
000003e0: 48ec a33d f0da 0d3c cae8 d4bd 86aa 963d
000003f0: cefe cfbd d61e fb3d 90be 90bd c032 90bd

6.bias f4 [32]
-0.056785136 0.055370346 -0.0683696 0.03217733 -0.091331884 0.11776234 -0.023889303 -0.04950936
-0.078003615 -0.052260667 0.108898655 0.10473217 -0.037910014 -0.025971025 -0.11844894 -0.10734807
0.11328085 -0.095000714 -0.1165819 0.09903282 0.103521824 -0.09949671 0.024531722 -0.0018925369
0.095060915 -0.023726195 -0.00250113 0.03259316 0.010496825 -0.043656647 0.008274913 0.017956391
00000000: 8897 68bd 04cc 623d 5c05 8cbd 60cc 033d
00000010: 360c bbbd 622d f13d 80b3 c3bc 54ca 4abd
00000020: 5cc0 9fbd 480f 56bd 4206 df3d d27d d63d
00000030: 8847 1bbd 30c1 d4bc 5c95 f2bd 4ed9 dbbd
00000040: caff e73d bc8f c2bd 7ec2 eebd b8d1 ca3d
00000050: 4003 d43d eec4 cbbd c0f6 c83c 000f f8ba
00000060: 4caf c23d 705d c2bc 00ea 23bb 6880 053d
00000070: e0fa 2b3c 50d1 32bd 8093 073c 4819 933c

8.weight f4 [12, 32]
-0.14701006 0.004145353 0.08084634 -0.14599544 0.08875994 -0.17302288 -0.020848002 -0.03516436
0.10855165 -0.17672807 0.15829247 0.023052724 -0.004813971 0.047388945 -0.11545663 -0.0797882
-0.043025274 0.1385422 -0.14896643 0.14608422 -0.14999917 0.005832618 0.06659742 -0.15221964
0.06619698 -0.15547001 -0.10817499 -0.00429881 -0.0069801924 -0.09102166 -0.113906726 -0.037728447
-0.16284588 -0.054740895 -0.14007084 0.026477577 -0.011435093 0.05346688 -0.05334533 0.09309478
-0.107589625 0.0011606399 -0.052681748 -0.13347766 0.068920024 0.16480508 -0.057997055 -0.057125207
-0.14664862 -0.12505132 -0.0033501687 0.1535098 0.12836501 0.065735005 0.14005335 -0.07300494
0.12413842 0.08002483 -0.057131927 0.048347093 0.14969353 -0.086431086 0.056655772 -0.0005914678
-0.13941935 0.09580933 -0.08979338 -0.005203956 -0.175244 -0.13938342 0.05760802 -0.14932296
-0.16108856 0.15791035 -0.015594819 -0.009214692 -0.12454994 -0.022111923 0.10279905 -0.07577601
-0.013983692 -0.039506096 -0.07389636 -0.08361102 -0.03024167 0.0030621372 0.15181914 -0.04750818
0.16890153 -0.15996495 -0.06101045 0.14746946 -0.053895704 -0.17404333 0.11140505 0.09837721
-0.06990468 0.025449025 -0.015064906 -0.017308509 0.033516668 0.14054252 0.13537857 -0.12833086
-0.01710652 0.09972507 0.17435497 0.0021032542 -0.12100113 -0.12560318 0.17349486 -0.003422872
0.064107105 0.13547008 0.14886662 0.04773594 0.13477413 0.039133076 -0.044633176 -0.04417504
0.023294521 0.0070382073 0.1583381 0.1657297 -0.055504702 0.007086318 -0.044177905 -0.09278424
0.018562568 0.0967409 -0.07265446 0.033587962 0.15661798 0.15881675 -0.11898133 0.07829392
-0.16502236 0.1138147 0.15562262 0.035296384 -0.054949857 -0.11852632 -0.10557109 -0.017215302
-0.07534419 -0.12158335 0.0071096886 0.065164715 0.06716083 0.021289468 -0.12965547 0.16641504
-0.17465931 -0.16501728 0.01242428 0.1744389 0.14700943 -0.078271985 -0.013788046 0.026160527
0.024789596 0.16330966 0.10025717 -0.09660776 0.028454285 -0.0981799 -0.1089595 -0.10621075
0.14017308 -0.0741201 0.16026162 0.11360674 0.15554689 -0.027912635 0.13754377 0.10319276
-0.06005789 -0.15258883 0.0033408331 0.06867679 -0.13092667 0.09964811 -0.037450742 0.005786973
0.058542855 -0.1544579 0.016514948 -0.061573762 0.08346825 0.13968563 0.01923224 -0.034062177
-0.09580611 -0.020633832 0.027507773 0.10708717 -0.009878105 -0.091840364 -0.14827752 -0.1301048
0.024090823 0.14023386 0.14802593 0.044902682 -0.0650843 -0.018306779 0.0125450725 0.0033936643
-0.091662735 -0.15000944 0.005180248 0.057873353 -0.02804974 0.14577594 0.143001 0.044952184
0.050882373 -0.10662946 0.010233549 -0.13552877 -0.029074771 0.08664186 -0.12030116 -0.14140394
0.02502528 0.097991064 -0.057803474 -0.06661073 0.13498896 0.028321037 -0.15597095 -0.1455945
-0.17180517 -0.0967276 -0.12199694 -0.079019696 -0.16246754 0.072701775 -0.056339692 0.13147323
-0.11121676 0.107890934 0.1546869 0.0002202805 -0.0060273153 0.06614766 0.08155733 0.11624581
-0.056169 -0.027809376 0.1479365 0.036748383 0.12715773 0.07477995 -0.15296365 -0.0030404946
00000000: ce89 16be bed5 873b c492 a53d d47f 15be
00000010: c5c7 b53d e92c 31be 6ec9 aabc 8108 10bd
00000020: 5450 de3d 34f8 34be 6c17 223e 11d9 bc3c
00000030: 84be 9dbb e91a 423d 8774 ecbd ff67 a3bd
00000040: 453b 30bd 02de 0d3e a88a 18be 1a97 153e
00000050: 6299 19be 8c1f bf3b 3a64 883d 77df 1bbe
00000060: 4892 873d 8833 1fbe d98a ddbd 08dd 8cbb
00000070: 19ba e4bb 9069 babd ee47 e9bd 2589 1abd
00000080: 12c1 26be fd37 60bd bb6e 0fbe 81e7 d83c
00000090: 425a 3bbc 1600 5b3d a280 5abd 7aa8 be3d
000000a0: f357 dcbd 9d20 983a d1c8 57bd 5eae 08be
000000b0: f125 8d3d aac2 283e 528e 6dbd 1ffc 69bd
000000c0: 0e2b 16be 740d 00be 818e 5bbb ac31 1d3e
000000d0: 1e72 033e 13a0 863d 256a 0f3e 9d83 95bd
000000e0: 493c fe3d 0fe4 a33d 2b03 6abd 9a07 463d
000000f0: 4349 193e c802 b1bd e20f 683d bb0c 1bba
00000100: f2c3 0ebe af37 c43d 97e5 b7bd f285 aabb
00000110: 2a73 33be 87ba 0ebe 63f6 6b3d 1ee8 18be
00000120: 66f4 24be 40b3 213e 6981 7fbc 38f9 16bc
00000130: 0a14 ffbd 1024 b5bc 4f88 d23d 7430 9bbd
00000140: db1b 65bc 25d1 21bd fa56 97bd 413c abbd
00000150: 61bd f7bc 23ae 483b 7a76 1b3e f097 42bd
00000160: 86f4 2c3e dacd 23be 18e6 79bd 3c02 173e
00000170: bec1 5cbd 6a38 32be 5528 e43d fe79 c93d
00000180: 2f2a 8fbd 797a d03c ccd2 76bc 93ca 8dbc
00000190: c648 093d 61ea 0f3e aea0 0a3e 2a69 03be
000001a0: f922 8cbc a83c cc3d 1c8a 323e c0d6 093b
000001b0: 71cf f7bd 1f9e 00be a3a8 313e 4352 60bb
000001c0: 964a 833d abb8 0a3e 7e70 183e c386 433d
000001d0: 3b02 0a3e 014a 203d 47d1 36bd e3f0 34bd
000001e0: 27d4 be3c c3a0 e63b 6223 223e 0cb5 293e
000001f0: e658 63bd 5834 e83b e4f3 34bd aa05 bebd
00000200: 8710 983c 1820 c63d ddcb 94bd 8893 093d
00000210: 7760 203e dca0 223e 7cac f3bd 9058 a03d
00000220: 9ffb 28be ae17 e93d 895b 1f3e f192 103d
00000230: 1a13 61bd edbd f2bd a835 d8bd 1b07 8dbc
00000240: 0e4e 9abd b100 f9bd 64f8 e83b 1475 853d
00000250: 9e8b 893d 4067 ae3c 67c4 04be b468 2a3e
00000260: e4d9 32be 4afa 28be 358f 4b3c 1ca0 323e
00000270: a489 163e 104d a0bd 42e7 61bc 9a4e d63c
00000280: 8d13 cb3c a63a 273e a253 cd3d 4ada c5bd
00000290: f618 e93c 8b12 c9bd 2926 dfbd 0685 d9bd
000002a0: 8889 0f3e 47cc 97bd 9f1b 243e a7aa e83d
000002b0: af47 1f3e 0aa9 e4bc 46d8 0c3e ba56 d33d
000002c0: 43ff 75bd 3f40 1cbe e1f1 5a3b 6ba6 8c3d
000002d0: a411 06be 4f14 cc3d f365 19bd a6a0 bd3b
000002e0: a2ca 6f3d 362a 1ebe 5b4a 873c c534 7cbd
000002f0: 67f1 aa3d c009 0f3e ee8c 9d3c c884 0bbd
00000300: fe35 c4bd 4808 a9bc fb57 e13c 8550 db3d
00000310: c6d7 21bc cd16 bcbd 10d6 17be 313a 05be
00000320: 1e5a c53c 7799 0f3e 1c94 173e e0eb 373d
00000330: eb4a 85bd 19f8 95bc d989 4d3c 3d68 5e3b
00000340: acb9 bbbd 139c 19be 12bf a93b 9c0c 6d3d
00000350: 91c8 e5bc 4a46 153e db6e 123e c81f 383d
00000360: 096a 503d 8c60 dabd 9eaa 273c 0ec8 0abe
00000370: 372e eebc 4a71 b13d 7460 f6bd 32cc 10be
00000380: d101 cd3c 8aaf c83d 56c3 6cbd 356b 88bd
00000390: 8c3a 0a3e 8501 e83c d9b6 1fbe b916 15be
000003a0: b2ed 2fbe 1f19 c6bd 88d9 f9bd 14d5 a1bd
000003b0: e45d 26be abe4 943d 73c4 66bd eba0 063e
000003c0: 9dc5 e3bd ecf5 dc3d 3e66 1e3e 19fb 6639
000003d0: c980 c5bb 6d78 873d 8807 a73d 4912 ee3d
000003e0: 7711 66bd 7dd0 e3bc aa7c 173e 7985 163d
000003f0: a335 023e 3b26 993d 81a2 1cbe 0943 47bb

8.bias f4 [12]
-0.0070492076 -0.1322582 0.12745732 0.10322425 0.1253489 -0.1564245 0.16805424 -0.011620918
-0.030380016 0.12728557 -0.14335692 -0.032719947
00000000: 0afd e6bb b26e 07be 2c84 023e 3c67 d33d
00000010: 765b 003e be2d 20be 6916 2c3e aa65 3ebc
00000020: 83df f8bc 2657 023e 28cc 12be 5a05 06bd
