unitree_8_ar.pt (torch, 19322 bytes, 5 tensors)

fc1.weight f4 [64, 31]
-0.0077550556 0.12360317 0.16257434 -0.105284676 -0.13631104 0.07792826 0.007049511 0.1543715
0.051038787 -0.08391651 0.036193732 -0.15762897 -0.066254586 0.08976891 -0.08507037 0.11084993
-0.16001698 -0.073727965 0.16238697 -0.096272364 0.07569188 -0.086559564 0.08967282 -0.17233032
-0.16492213 -0.027943045 0.07054397 -0.10421663 -0.13242951 -0.08435303 0.08864344 -0.001798064
-0.022688108 0.001492984 0.10538824 0.16533592 -0.06375738 -0.068036124 -0.09778361 -0.06885874
-0.070870675 -0.0075173974 0.16609505 0.07255832 -0.13707538 0.05592512 0.17606132 0.074162215
-0.06055915 0.12008667 -0.12383608 -0.14107718 0.12704897 -0.08048349 -0.155439 0.032320533
-0.066225365 -0.04226024 0.11377182 -0.05959762 -0.17118202 0.07871974 -0.06944967 0.14447467
-0.14243792 0.047639508 -0.156138 -0.043082792 0.13569921 -0.057748385 0.024249904 0.15942271
0.17418422 -0.031517975 -0.052751403 0.10446998 0.10429623 -0.057627562 0.0822197 0.11901749
-0.039729055 0.12414358 -0.16214505 0.13087872 0.12009284 0.17743686 0.0044319127 0.056748036
-0.11225888 -0.05432607 -0.08063893 0.17092583 -0.095953025 0.016074644 -0.07857717 0.13296768
0.15023105 0.049363043 0.0719632 -0.007862451 -0.020411644 -0.04298769 0.0027179285 0.061920587
-0.09295029 0.020609885 -0.095288716 -0.023922214 -0.042156786 -0.10194629 0.021451514 0.1179495
0.075291865 -0.079885684 0.013083217 0.037694253 -0.10681031 -0.03449694 0.17016894 0.092141226
0.14349835 0.1352736 0.019631762 0.16074659 0.16655037 0.011838318 -0.14260182 0.018826123
-0.13254371 0.15878697 0.13214232 0.052783474 0.07307353 0.13366893 0.060352985 -0.1519899
0.058296904 0.16083251 0.1491292 0.17645817 -0.07765418 -0.13376977 0.014356849 0.0622341
0.1162237 -0.0025774534 0.16180147 -0.13580288 -0.13299488 0.008581398 -0.07038305 0.16015285
-0.10086942 -0.028320834 -0.023469359 0.12035099 0.079420514 -0.05103697 -0.16693383 0.014098037
-0.17714289 -0.123686396 0.05406758 -0.15138921 0.13554782 -0.086903095 0.011419954 0.1311285
-0.0046296613 -0.13511245 -0.15121453 0.11306469 0.008455825 -0.1386409 0.027088333 0.07006497
-0.09540478 -0.077649064 -0.16773047 -0.120995596 0.15280703 0.09618775 -0.13992172 0.006929012
0.047822226 -0.064734735 0.07760539 0.1488766 -0.16179034 0.17383984 -0.062659726 -0.11130234
-0.07451138 -0.06427243 -0.09467937 -0.10581566 0.092397854 0.14413044 0.018349374 -0.06300835
-0.1252453 0.03799608 -0.11771024 -0.080662265 0.0515417 0.05841254 -0.165393 0.1667223
-0.1501945 0.0033250265 0.07847211 0.17882581 0.06686892 0.06251738 -0.012917841 -0.17797306
0.1630177 0.10483918 -0.14906406 -0.107346624 -0.1734969 0.11824452 -0.1490957 -0.13373064
0.083509706 -0.10537303 0.039187454 -0.08195043 -0.037478887 -0.14638214 0.16232026 0.14385587
-0.1705999 0.06302411 0.044741433 -0.069403365 0.043504454 -0.07399192 0.07571813 0.083549015
0.0052875457 -0.14884949 -0.17410924 -0.09547646 -0.14908925 0.018141326 -0.07476764 -0.14384066
0.12162603 0.008408036 -0.11589563 0.14603457 -0.12866718 0.096947804 0.16472451 -0.023281224
00000000: 1f1e febb a923 fd3d e379 263e 7e9f d7bd
00000010: 1f95 0bbe da98 9f3d 96ff e63b 9013 1e3e
00000020: 0c0e 513d 6bdc abbd e13f 143d 7d69 21be
00000030: 7cb0 87bd c3d8 b73d 6039 aebd 4a05 e33d
00000040: 7edb 23be b0fe 96bd c548 263e 722a c5bd
00000050: 5804 9b3d 2446 b1bd 62a6 b73d 5c77 30be
00000060: 59e1 28be d0e8 e4bc 5b79 903d 876f d5bd
00000070: 9a9b 07be 48c1 acbd b18a b53d 04ad ebba
00000080: 69dc b9bc 3bb0 c33a cad5 d73d d24d 293e
00000090: 3b93 82bd 8656 8bbd c642 c8bd d005 8dbd
000000a0: a524 91bd 8054 f6bb d214 2a3e 7599 943d
000000b0: 7d5d 0cbe bd11 653d 6b49 343e 5ce2 973d
000000c0: df0c 78bd 00f0 f53d c59d fdbd 8976 10be
000000d0: 2019 023e 87d4 a4bd 672b 1fbe 8962 043d
000000e0: 2aa1 87bd 1319 2dbd 3301 e93d a21c 74bd
000000f0: 574a 2fbe d137 a13d a13b 8ebd 2bf1 133e
00000100: 3fdb 11be a521 433d a4e2 1fbe 9577 30bd
00000110: bcf4 0a3e 9289 6cbd bca7 c63c b53f 233e
00000120: 595d 323e fe18 01bd db11 58bd 5bf4 d53d
00000130: 4399 d53d e10a 6cbd cd62 a83d 71bf f33d
00000140: efba 22bd fd3e fe3d 5a09 26be 1205 063e
00000150: 3cf3 f53d 02b2 353e 9439 913b a170 683d
00000160: fce7 e5bd 0385 5ebd 0626 a5bd 2e07 2f3e
00000170: 0583 c4bd f9ae 833c 11ed a0bd ae28 083e
00000180: 2bd6 193e e730 4a3d 7161 933d 82d1 00bc
00000190: 5236 a7bc dc13 30bd 461f 323b 71a0 7d3d
000001a0: b95c bebd 10d6 a83c bb26 c3bd 85f8 c3bc
000001b0: 98ac 2cbd 37c9 d0bd 16bb af3c 828f f13d
000001c0: 9f32 9a3d 1b9b a3bd fd5a 563c 4a65 1a3d
000001d0: 5dbf dabd aa4c 0dbd c440 2e3e 8ab4 bc3d
000001e0: 3bf1 123e 2a85 0a3e cad2 a03c c19a 243e
000001f0: 2e8c 2a3e 81f5 413c 3606 12be 3e39 9a3c
00000200: 8ab9 07be 0d99 223e 5150 073e 7c33 583d
00000210: 93a7 953d 82e0 083e b134 773d 3ea3 1bbe
00000220: bcc8 6e3d 47b1 243e 53b5 183e 73b1 343e
00000230: 2809 9fbd f1fa 08be fd38 6b3c 2fe9 7e3d
00000240: b106 ee3d 7eea 28bb 49af 253e e90f 0bbe
00000250: cf2f 08be fe98 0c3c fd24 90bd 1cff 233e
00000260: a094 cebd 1801 e8bc d042 c0bc 947a f63d
00000270: 39a7 a23d 240c 51bd b4f0 2abe 74fb 663c
00000280: f264 35be 4b4f fdbd f775 5d3d c605 1bbe
00000290: 0ccd 0a3e 40fa b1bd c21a 3b3c 8d46 063e
000002a0: 6ab4 97bb eb5a 0abe fbd7 1abe 768e e73d
000002b0: 4d8a 0a3c e1f7 0dbe 5ae8 dd3c 397e 8f3d
000002c0: 9563 c3bd 7906 9fbd 89c1 2bbe 8acc f7bd
000002d0: 7279 1c3e 15fe c43d a447 0fbe c40c e33b
000002e0: 3de1 433d a593 84bd 93ef 9e3d 1c73 183e
000002f0: 5eac 25be 1203 323e be53 80bd 7bf2 e3bd
00000300: 6c99 98bd 44a1 83bd 42e7 c1bd e1b5 d8bd
00000310: 163b bd3d ee96 133e 6d51 963c 860a 81bd
00000320: 4e40 00be c7a1 1b3d 1112 f1bd 4232 a5bd
00000330: 641d 533d fd41 6f3d c85c 29be 40b9 2a3e
00000340: 96cc 19be b0e8 593b fcb5 a03d 1d1e 373e
00000350: 93f2 883d 1d09 803d 5aa5 53bc 923e 36be
00000360: 1dee 263e edb5 d63d 40a4 18be 8cd8 dbbd
00000370: 2ca9 31be 2f2a f23d 8bac 18be aff0 08be
00000380: 2307 ab3d d1cd d7bd 0683 203d a1d5 a7bd
00000390: 7683 19bd 33e5 15be 4837 263e f44e 133e
000003a0: bdb1 2ebe c912 813d cb42 373d 5a23 8ebd
000003b0: ba31 323d 1389 97bd 1b12 9b3d bf1b ab3d
000003c0: 2643 ad3b 006c 18be b149 32be 2a89 c3bd
000003d0: daaa 18be 1e9d 943c c71f 99bd f74a 13be
000003e0: 1117 f93d dcc1 093c b05a edbd 168a 153e
000003f0: 54c1 03be 928c c63d 8bad 283e 44b8 bebc

fc1.bias f4 [64]
-0.027204186 -0.17452341 -0.17285599 -0.15608935 0.062432084 0.010628082 -0.06389756 0.12318723
-0.15939932 0.13092905 0.088895164 -0.027880888 0.09063822 -0.058586095 -0.09883903 0.005623585
-0.16039458 -0.09710329 -0.12533067 0.15221056 -0.047467668 -0.12936492 -0.072261445 -0.04433238
-0.052117135 0.11133559 -0.14102803 0.12510994 -0.074300036 0.16544029 0.056666184 -0.169729
0.08277665 -0.08836407 0.16541152 -0.06402645 -0.110521324 -0.11339594 -0.14155473 -0.050430704
-0.08639123 0.0548065 -0.107852705 0.17563273 -0.15492935 -0.0073912675 -0.018837728 -0.1638819
-0.15515418 0.05204727 -0.034211174 0.16481723 -0.08595996 0.16714604 0.14592876 0.09633839
0.090399645 -0.0024512592 -0.0668404 0.105595745 -0.112840734 -0.1504116 -0.15135211 -0.020796714
00000000: 50db debc 44b6 32be 2901 31be e3d5 1fbe
00000010: c9b8 7f3d 6821 2e3c b9dc 82bd 9649 fc3d
00000020: 9339 23be 4412 063e ab0e b63d 7666 e4bc
00000030: 88a0 b93d f9f7 6fbd 1e6c cabd 0d46 b83b
00000040: 7a3e 24be 17de c6bd af56 00be 16dd 1b3e
00000050: 756d 42bd 3d78 04be cffd 93bd df95 35bd
00000060: c778 55bd ea03 e43d a769 10be d21c 003e
00000070: 9e2a 98bd 2e69 293e cd1a 683d 70cd 2dbe
00000080: ce86 a93d 39f8 b4bd a361 293e 4d20 83bd
00000090: 0159 e2bd 213c e8bd b9f3 10be 6d90 4ebd
000000a0: e3ed b0bd c87c 603d e1e1 dcbd 11d9 333e
000000b0: cda5 1ebe 7232 f2bb 9451 9abc a8d0 27be
000000c0: bde0 1ebe 852f 553d 0421 0cbd d9c5 283e
000000d0: c70b b0bd 5528 2b3e 596e 153e 104d c53d
000000e0: 7323 b93d 4ea5 20bb 9fe3 88bd 9542 d83d
000000f0: 0b19 e7bd 8005 1abe 0cfc 1abe df5d aabc

fc2.weight f4 [32, 64]
-0.097872764 -0.1018001 0.034578025 -0.12481341 -0.12038003 0.0020769835 -0.042000443 -0.008508548
0.058793887 0.04330343 -0.08904563 0.08508417 -0.05175887 -0.09938654 -0.1197191 0.10266386
-0.08127843 0.017903328 0.048392415 0.112071484 -0.093278706 -0.008717135 0.031671107 -0.10002573
-0.039052263 -0.08663596 -0.004409313 -0.038367003 -0.095798716 0.00032812357 -0.09436406 -0.079451874
0.10394029 -0.11515416 0.08437878 -0.071262926 0.0020193309 0.038307697 -0.036837146 0.09827034
0.11915682 -0.011146069 0.06299578 0.0862868 -0.07348648 -0.110856354 0.061332434 0.032833904
-0.07896526 -0.04632996 0.050805956 -0.105128676 0.108236074 0.015059233 -0.03839396 0.12323113
0.07580982 0.015303269 0.08222841 -0.0343605 0.057154372 0.008558184 0.020796508 -0.036571234
0.062670425 0.014076397 0.03240186 -0.09112626 -0.09995429 -0.021618813 -0.006223902 0.06956692
-0.11430065 0.122902974 0.030074641 0.016160741 0.02179204 0.106368005 -0.057290718 0.10165164
0.07529496 0.07429467 -0.011854529 0.07669285 0.09345485 0.121387124 -0.026244476 0.042780414
-0.04496497 0.049580872 -0.07857409 0.096673936 -0.021617249 0.0057985336 0.08261308 0.050287202
-0.06705679 -0.112192646 -0.045106158 0.068194136 -0.104262665 -0.012612775 0.07289839 -0.075951785
-0.0126993805 0.014913812 0.11413486 0.11696549 -0.09437582 0.071349114 0.07960342 0.119306475
0.02069892 -0.11794551 -0.058593348 0.12176469 -0.04564689 0.032170996 0.012122542 0.075694844
0.03720963 -0.11706723 -0.09920265 -0.086312875 -0.0075383037 0.07003893 0.09557359 -0.058250368
-0.028702512 0.018917918 0.09689042 0.06513581 0.074119225 0.068326876 0.06429237 -0.12152876
0.09384018 -0.0018675327 0.049988583 -0.08825889 -0.042538494 0.09625192 -0.08966914 -0.1049615
0.055270836 -0.011518598 0.008336961 0.05959706 -0.054038048 -0.08173947 -0.041424617 -0.068075255
-0.025733411 0.045463905 -0.051584825 0.07838772 0.053647235 0.11537966 -0.08154167 -0.09821653
-0.014291346 0.12449078 0.000591889 -0.017711565 0.038543507 -0.040235966 0.073036745 0.12440534
0.03553161 -0.11399965 -0.009239137 0.026885405 0.11113092 0.0037222952 0.12162985 0.01790531
-0.04421164 0.033790454 -0.09748143 -0.05642414 -0.07032329 0.049871728 -0.027271241 0.0444455
-0.0321092 -0.074596375 -0.012077481 -0.071673244 0.04082924 0.06678608 0.004378423 0.0118062645
-0.06400566 0.09694177 0.0685399 0.02845268 -0.04729812 0.053810403 0.0038384348 -0.06725985
0.12476879 0.03444013 -0.0786825 -0.014600977 -0.08023092 -0.04137732 -0.04261154 0.09150761
0.002237469 -0.12477714 -0.112823576 0.06431028 0.06294334 -0.0417473 -0.022872731 -0.077538416
0.07352637 -0.0866026 -0.053527966 0.027883112 0.030628324 -0.06779276 -0.011806861 0.110836
-0.029393151 -0.043153018 0.06697811 0.050823763 0.00097320974 0.01273188 0.07490733 0.04838848
-0.11386503 0.05419168 0.051070496 0.08143796 -0.03778714 -0.0021130294 0.04053551 0.0022240132
0.084377706 -0.03374812 -0.07766424 -0.04574594 0.11076766 -0.0043192357 0.09713864 -0.0485377
0.08487637 0.09864205 0.050415426 -0.11902715 -0.0658163 -0.0636653 0.06401828 -0.068560526
00000000: 8471 c8bd 927c d0bd b0a1 0d3d 2c9e ffbd
00000010: ce89 f6bd 001e 083b a808 2cbd 7067 0bbc
00000020: dcd1 703d f05e 313d 8e5d b6bd 9c40 ae3d
00000030: 1c01 54bd 2c8b cbbd 4a2f f5bd 6e41 d23d
00000040: 4e75 a6bd 00aa 923c 2037 463d bc85 e53d
00000050: e808 bfbd 50d2 0ebc 90b9 013d 4ada ccbd
00000060: 44f5 1fbd 326e b1bd 007c 90bb b826 1dbd
00000070: 1e32 c4bd 0008 ac39 f241 c1bd aab7 a2bd
00000080: a6de d43d f2d5 ebbd c8ce ac3d 4cf2 91bd
00000090: c056 043b 88e8 1c3d 8ce2 16bd f641 c93d
000000a0: 7e08 f43d 009e 36bc ee03 813d 22b7 b03d
000000b0: 1480 96bd a808 e3bd b837 7b3d d87c 063d
000000c0: 8ab8 a1bd 7cc4 3dbd e819 503d b44d d7bd
000000d0: e0aa dd3d 00bb 763c fc42 1dbd 9a60 fc3d
000000e0: 2e42 9b3d 90ba 7a3c 5e67 a83d 98bd 0cbd
000000f0: b41a 6a3d a037 0c3c 705d aa3c b8cb 15bd
00000100: 5a59 803d b0a0 663c d0b7 043d 68a0 babd
00000110: d6b4 ccbd f019 b1bc e0f1 cbbb 1a79 8e3d
00000120: 7616 eabd 8eb4 fb3d 185f f63c 8863 843c
00000130: 3885 b23c 78d7 d93d aca9 6abd bc2e d03d
00000140: 3e34 9a3d ce27 983d 8039 42bc 2411 9d3d
00000150: 4265 bf3d d099 f83d a8fe d6bc 843a 2f3d
00000160: 302d 38bd 5015 4b3d 74eb a0bd fcfc c53d
00000170: a816 b1bc a001 be3b 0c31 a93d f4f9 4d3d
00000180: 1255 89bd 42c5 e5bd 3cc1 38bd 5ea9 8b3d
00000190: aa87 d5bd d0a5 4ebc c04b 953d 9c8c 9bbd
000001a0: 1011 50bc 1059 743c 8abf e93d 9a8b ef3d
000001b0: 1c48 c1bd 7c1f 923d 1e07 a33d f456 f43d
000001c0: c890 a93c 6a8d f1bd 94ff 6fbd c45f f93d
000001d0: 3cf8 3abd bcc5 033d a09d 463c e605 9b3d
000001e0: 2069 183d f2c0 efbd c22a cbbd cec4 b0bd
000001f0: e003 f7bb 9270 8f3d 16bc c33d f097 6ebd
00000200: 8821 ebbc c0f9 9a3c 7c6e c63d ec65 853d
00000210: d2cb 973d f6ee 8b3d b8ab 833d 12e4 f8bd
00000220: 482f c03d 00c8 f4ba d4c0 4c3d 14c1 b4bd
00000230: d83c 2ebd ba1f c53d 74a4 b7bd 0ef6 d6bd
00000240: ac63 623d 80b8 3cbc c097 083c 0c1c 743d
00000250: 0057 5dbd 0667 a7bd dcac 29bd 0a6b 8bbd
00000260: e0ce d2bc 5c38 3a3d 9c4a 53bd be89 a03d
00000270: 34bd 5b3d 2c4c ec3d 52ff a6bd c025 c9bd
00000280: 4026 6abc 06f5 fe3d 0029 1b3a d817 91bc
00000290: ccdf 1d3d 78ce 24bd 4a94 953d 3ac8 fe3d
000002a0: 9889 113d a678 e9bd c05f 17bc c83e dc3c
000002b0: 9c98 e33d c0f1 733b 1219 f93d 28ae 923c
000002c0: 4417 35bd dc67 0a3d 58a4 c7bd 001d 67bd
000002d0: a805 90bd 4c46 4c3d f067 dfbc 7c0c 363d
000002e0: f084 03bd fcc5 98bd a0e0 45bc 6cc9 92bd
000002f0: 903c 273d 24c7 883d e078 8f3b 106f 413c
00000300: 6615 83bd 6889 c63d a65e 8c3d 9815 e93c
00000310: acbb 41bd 4c68 5c3d 408e 7b3b 88bf 89bd
00000320: c886 ff3d 1811 0d3d 4a24 a1bd f038 6fbc
00000330: 1c50 a4bd 447b 29bd 7089 2ebd 5868 bb3d
00000340: 80a2 123b 288b ffbd 0c10 e7bd 1cb5 833d
00000350: 70e8 803d 38ff 2abd 985f bbbc 76cc 9ebd
00000360: fe94 963d b45c b1bd 2440 5bbd 206b e43c
00000370: 40e8 fa3c eed6 8abd 9071 41bc fcfd e23d
00000380: e8c9 f0bc 38c1 30bd d22b 893d 942c 503d
00000390: 001f 7f3a 6099 503c 0469 993d 0033 463d
000003a0: 1232 e9bd 18f8 5d3d 4c2f 513d f2c8 a63d
000003b0: b0c6 1abd c07a 0abb 9008 263d c0c0 113b
000003c0: 38ce ac3d 783b 0abd 6e0e 9fbd 1860 3bbd
000003d0: 28da e23d 6088 8dbb a0f0 c63d 78cf 46bd
000003e0: aad3 ad3d d804 ca3d 6880 4e3d 82c4 f3bd
000003f0: b2ca 86bd f462 82bd 041c 833d 7669 8cbd

fc2.bias f4 [32]
-0.06723823 0.0048666745 0.03235224 -0.11150539 -0.025857374 0.017033592 0.0126871765 -0.04494588
0.11138281 -0.11429612 -0.004917845 0.03662038 -0.061459437 0.035477087 0.11845796 -0.12489429
-0.038753897 -0.06338306 -0.036677122 0.02732481 -0.09305094 0.011575758 0.035649076 -0.08418958
0.09252979 0.09003264 0.008384079 0.065623075 -0.04686068 0.08438204 0.09734878 -0.09359953
00000000: 32b4 89bd a078 9f3b c883 043d f05c e4bd
00000010: d8d2 d3bc 088a 8b3c e0dd 4f3c 2c19 38bd
00000020: ac1c e43d 1614 eabd e025 a1bb 40ff 153d
00000030: e4bc 7bbd 6c50 113d 169a f23d 94c8 ffbd
00000040: 68bc 1ebd face 81bd c03a 16bd 48d8 df3c
00000050: 7e91 bebd 40a8 3d3c c404 123d 966b acbd
00000060: 4280 bd3d 0863 b83d 605d 093c 6465 863d
00000070: fcf0 3fbd 7ed0 ac3d cc5e c73d 1cb1 bfbd

fc3.weight f4 [1, 32]
0.024434129 0.08619039 -0.103210546 0.10583445 -0.01931118 -0.023192398 0.0026819515 0.04013613
0.1282057 0.05129362 0.17356504 0.055240083 -0.072228104 0.077372864 0.13973516 0.12917079
0.06873434 0.13039851 -0.041747484 0.074370265 -0.06621537 0.14915146 -0.12955816 0.11201817
-0.0033227731 -0.06786878 0.15623346 -0.12963629 0.020995915 -0.012571836 0.12944637 -0.105046995
00000000: 152a c83c 9684 b03d 0d60 d3bd bbbf d83d
00000010: 7b32 9ebc fcfd bdbc aec3 2f3b c865 243d
00000020: 5b48 033e 4219 523d 09bb 313e 6d43 623d
00000030: 54ec 93bd aa75 9e3d bc16 0f3e 5945 043e
00000040: 97c4 8c3d 3087 053e 69ff 2abd 704f 983d
00000050: ed9b 87bd 29bb 183e e5aa 04be c869 e53d
00000060: e2c2 59bb c9fe 8abd aafb 1f3e 60bf 04be
00000070: a0ff ab3c 1afa 4dbc 978d 043e e122 d7bd
