unitree_5_ar.pt (torch, 19322 bytes, 5 tensors)

fc1.weight f4 [64, 31]
00000000: c02e fdbc 4456 db3d 0fdd 7dbd fb5b 323b
00000010: c8f2 003d 4e56 093e 9c07 a0bd 31f3 183d
00000020: 4294 c83c fd25 833d 0dec 41bd 8732 273e
00000030: 0f9a d53d e40d d13d ea82 98bd efc6 29be
00000040: c5fc 25be bb14 0cbe d5f1 2f3e 8400 12bd
00000050: 35f3 84bc 7cef 4ebd 1b63 4f3d fdee 403d
00000060: 6a52 f2bc fd37 d6bd 9fb6 2f3d ea93 02be
00000070: f203 033e 5ff7 1dbd ca92 f1bd 8317 103e
00000080: ca8b eebd 73fc 1fbe 0c5c 083e 0c5e 0e3e
00000090: f1e0 9bbd 0f0d 93bd e575 163e 2c95 fdbd
000000a0: 88c6 213e 289e 033e b776 0dbc e550 d33d
000000b0: 70fb 6cbd f9ba 143e b4f6 23be 6821 f03d
000000c0: 8d39 f93b be97 64bd d5ab d83d 0318 e73c
000000d0: 0c8a bdbd 6a5f 0c3e a39d 0b3e d6e1 f8bd
000000e0: 0946 17be f147 a93d 13b3 34bd 7079 ecbd
000000f0: d526 1dbe 296e d83d 2190 ef3d 2895 83bb
00000100: b481 113e 2093 46bb 617d eabd 28e7 f8bc
00000110: c52a 173d 9d08 263e 0a61 0ebe 832c d53d
00000120: 54db 35be 7184 983c c09a 893c 9caa 98bc
00000130: 7086 9c3d 3ffc 033e cdb9 24be 011f 0fbe
00000140: a003 09be 7a0b 413b e1e0 b03c 5a14 f2bd
00000150: 7925 7cbd 7537 38bd fb02 f6bd b04d 253e
00000160: 0852 bbbc ffca 4d3c 3201 063d f38c 8abd
00000170: cbdf 1fbe 4205 613d 945d 65bd 5088 513d
00000180: 4cf5 c0bd cbd7 06be e169 f03d 5d5c ee3b
00000190: 9564 3cbd 3117 203d f473 243d fbf9 21be
000001a0: 059b 033e ca98 fe3d d036 e73c 1261 b8bd
000001b0: 4892 cabd 08b8 eabb 9fb4 323e aaa2 5dbd
000001c0: adc0 ca3c 7dba 8ebd 851a d3bb 9d06 deb9
000001d0: a434 a3bc c6ad 73bd f902 943d 13dd ea3c
000001e0: 5944 a6bd 4c5d aa3d 6890 5cbd aa2c 34bd
000001f0: 4071 bbbd 5dd2 2dbe ef41 4dbd 6bca 5cbd
00000200: 681c 36be 49a3 cebc e533 aebd 42a5 89bd
00000210: 5338 5f3d 4b94 5dbd 971a cf3b 279e f0ba
00000220: af6d ee3d 8f3b 7b3d fad7 0dbe b9d0 24be
00000230: f7bd 2c3e d22d 9b3b 3608 31be 87de 2dbd
00000240: a7fc c5bd 3004 c2bc 58c7 ecbd 3cf0 253e
00000250: 802f 1a3b e182 263e 579c 28be 843c be3d
00000260: 0e65 bc3d 6d3c e0bd 9fb2 0abe b043 113e
00000270: a8e5 2cbe a3f4 433d 7589 123e d717 133e
00000280: 424a 3ebd 667a 3b3c c030 b43b c5e0 2fbe
00000290: 14d9 fc3d 65b3 7abd 3f8c edbc 89fb 243e
000002a0: 355c f73c 5d98 303c c059 31bd f61d 873c
000002b0: 5f17 1f3e 45a5 0cbe 46e1 29be a3dd 1dbe
000002c0: 37cf ad3d 52e2 963d 2b63 5c3d a740 863d
000002d0: e4e7 5bbd 6318 173e 6478 f43d 745f 203e
000002e0: 8fd6 06be 5c49 10bc 1a95 1ebe 21dc 6ebd
000002f0: 078a 973b 819b 09be ec51 b2bd fc83 e23d
00000300: 1ccc a23d 41c9 08be d09c b63d 9860 033e
00000310: 2bf0 d5bc 13c6 d3bd a9d2 0fbe 7345 333e
00000320: 7d41 22be 7789 c93c 6a12 033e 1572 923d
00000330: d470 973d f09e 0b3e 2f0e 363d 256b 703d
00000340: 659a 77bc 8ff2 0f3e be05 093e b14f 673c
00000350: 87cb 16be dca9 09bd a326 343e d3e7 f43d
00000360: 63da 743d bb9b 073c e1f2 08be eae0 bcbd
00000370: 358a 493d ef23 ce3d f4b3 0ebe 7af8 2cbe
00000380: 20b3 0d3e dc48 98bd aa1a aabd dbe7 15be
00000390: 2ac0 0d3e ab07 b73d eea9 c93c ecdd b2bc
000003a0: 3c17 f23d df45 f83c faec 793d 26d4 2fbe
000003b0: 3347 86bd fa2a 4a3c 9c1a 2abe 1b75 12be
000003c0: bdcf 573d cd33 303e 3ce7 333e cb68 293e
000003d0: 5358 1c3b bfc2 fdbc 42c3 dcbd 532c 183e
000003e0: 3529 e43d bae9 303e 1614 98bd 4a91 283e
000003f0: 0fca 733c ca67 0abe 2baf 373e 72fe c53d
-0.030906081 0.10709813 -0.061978396 0.002721547 0.031481534 0.13411829 -0.078139514 0.0373413
0.024484757 0.0640373 -0.047344256 0.16327868 0.10429775 0.102077276 -0.07446845 -0.16579793
-0.16209705 -0.13679783 0.17182095 -0.035645023 -0.016229251 -0.05052136 0.050631624 0.047102917
-0.029580314 -0.10459898 0.04289877 -0.12751737 0.12794474 -0.03856599 -0.11795576 0.14071469
-0.116477564 -0.15623645 0.13316363 0.13903064 -0.076112635 -0.07180225 0.1469341 -0.12381968
0.1579839 0.128533 -0.008634261 0.10318164 -0.057856977 0.1452445 -0.16012079 0.11725122
0.0076057375 -0.055808775 0.10579649 0.028209692 -0.09254846 0.13708273 0.13634352 -0.1215245
-0.1477281 0.08265675 -0.04411609 -0.115466 -0.15346844 0.105678864 0.11697412 -0.0040155835
0.14209634 -0.0030300096 -0.114496954 -0.030383661 0.036906023 0.16214223 -0.13904205 0.104088806
-0.17759448 0.01861784 0.016797423 -0.01863604 0.076428294 0.12889193 -0.16086502 -0.13976671
-0.13380289 0.0029456303 0.021591606 -0.11820288 -0.061559174 -0.044974763 -0.12012287 0.16142917
-0.022866264 0.012560605 0.032715984 -0.06765165 -0.15612714 0.054936655 -0.055997446 0.05115539
-0.09421787 -0.13168256 0.11738945 0.007274194 -0.04599436 0.039084617 0.040149644 -0.15818016
0.12852104 0.12431486 0.028224379 -0.0900289 -0.09891182 -0.0071630515 0.17451714 -0.054110207
0.024750078 -0.069691636 -0.0064423704 -0.00042348067 -0.019922562 -0.059491895 0.072271295 0.02866987
-0.08118505 0.08318576 -0.053848654 -0.043987907 -0.0915246 -0.16974778 -0.050111707 -0.05390398
-0.17784274 -0.025224345 -0.08505992 -0.067209736 0.054497074 -0.0540965 0.0063203084 -0.001835768
0.11642014 0.061336096 -0.1385192 -0.16095246 0.16869341 0.004735687 -0.17288288 -0.042448547
-0.0966733 -0.023683637 -0.11561459 0.16204923 0.0023526847 0.16260864 -0.16465889 0.09288886
0.09198962 -0.10949025 -0.13544701 0.14185977 -0.16884482 0.047840726 0.14310248 0.14364563
-0.046457537 0.011442756 0.0054989755 -0.17175587 0.12346092 -0.06120624 -0.028997539 0.16111578
0.030195335 0.010778514 -0.043298483 0.016493779 0.15536259 -0.1373492 -0.16589841 -0.15416579
0.08486789 0.07367386 0.05380551 0.065553 -0.053687945 0.14755397 0.11937025 0.15661412
-0.13167785 -0.008806553 -0.15486565 -0.0583154 0.0046246084 -0.13438226 -0.087070316 0.1106033
0.07949087 -0.13358022 0.08916628 0.12829816 -0.026115498 -0.10340514 -0.14045204 0.17506962
-0.15845294 0.024601681 0.12799993 0.07150666 0.07394567 0.13634849 0.04444712 0.05869593
-0.015112494 0.14057373 0.13381097 0.014118121 -0.14726077 -0.033609256 0.17592864 0.119582795
0.059778582 0.008276875 -0.13373901 -0.092225865 0.04920407 0.100654475 -0.13935834 -0.16891661
0.13837862 -0.07435772 -0.08305867 -0.14639227 0.13842836 0.089370094 0.024617162 -0.021834336
0.11820838 0.030306755 0.061017014 -0.17170772 -0.06556549 0.012339348 -0.16611713 -0.14302485
0.05268835 0.1720726 0.17568678 0.16543882 0.0023856356 -0.030976651 -0.1077943 0.14860658
0.11140672 0.1727666 -0.07425706 0.16461673 0.0148797175 -0.13516155 0.17937915 0.09667672

fc1.bias f4 [64]
00000000: babf 9b3d dfff 57bd 9208 1f3c b291 753d
00000010: 96ec 403d 2310 963a b995 b43d e9c5 35be
00000020: a3ae 233b 9f5e 0ebe 44fe 503c ced0 34be
00000030: 7487 fd3d bc49 09be d9ca afbd a583 c1bd
00000040: 8126 20bb bad1 053e 7876 9b3c e179 1f3e
00000050: 8498 cf3d b3af 8e3d fc93 d53c 20ab 16be
00000060: 05a8 7b3d e772 003d 6d48 373d 8b12 e0bd
00000070: 2ab3 063e d6df f73d 41b9 a73d f630 08be
00000080: a049 8dbd 8c7d f53d 57fa 25be 2d59 c7bd
00000090: 137b 97bc 2e3d a73d 692b 6cbd 21e1 b13b
000000a0: 8e72 80bd 6aed 253e bfd0 72bd 962a e2bd
000000b0: 0dbf 713d 8ff0 b93d e1a8 91bd 3e52 c6bc
000000c0: 0374 14be 9afe 79bd 11a7 03be 44e6 073e
000000d0: d0fc ad3d 12a9 31be 199c 1b3d 2f1e 423c
000000e0: 9255 cbbb 316f a33c d203 65bd 6b9a 45bd
000000f0: a52c 15bd 37d4 f73d f6e0 dabd cf43 f63d
0.07604928 -0.052734252 0.009706633 0.0599534 0.047100626 0.0011448901 0.0881762 -0.17751278
0.0024975918 -0.13903283 0.012755934 -0.17657778 0.12379351 -0.13407034 -0.08583612 -0.09448937
-0.0024437013 0.13068286 0.018977389 0.15573837 0.10136512 0.06967106 0.026071541 -0.14713717
0.061439533 0.03135958 0.044746805 -0.10941037 0.13154283 0.1210324 0.08189631 -0.13299927
-0.068988085 0.11986837 -0.16208778 -0.09733806 -0.018491304 0.08165966 -0.057658587 0.005428449
-0.062718496 0.16203848 -0.059281107 -0.11043279 0.05902009 0.09079086 -0.07112289 -0.024209138
-0.1449738 -0.061033823 -0.128567 0.13271433 0.08495486 -0.17349651 0.037990663 0.011848017
-0.006205269 0.019950481 -0.055911846 -0.048242968 -0.03641953 0.12101024 -0.10687439 0.12024652

fc2.weight f4 [32, 64]
00000000: f896 9dbc 5053 1d3c 78c4 e23d 6280 b8bd
00000010: 5881 3a3d d0cd 463c e8fe 7a3d f465 8dbd
00000020: 4801 8cbc e0c4 12bc 0a78 ac3d 9ed2 fcbd
00000030: 40ef 543b 50ea 32bc d882 c9bc 10f5 1bbd
00000040: 70f2 693d a456 583d d88f 96bc d4a5 40bd
00000050: 4884 35bd 385c 0a3d 0029 b43a f42c c83d
00000060: 8ed0 d6bd 34a4 6ebd d0ea d8bd e22e a2bd
00000070: 8cde b03d 18d1 4ebd 1cc0 ef3d 78c2 1bbd
00000080: c4d3 14bd 2261 d4bd 808a 8d3d ec93 c2bd
00000090: 44ec 8b3d 1cdf c53d 70e5 833d 5e12 9fbd
000000a0: 36ac a93d c032 823d 60ae b0bb d608 c2bd
000000b0: 80cd f13b 4adc b1bd e061 793d 7c51 663d
000000c0: caac e83d 90b9 763d 00b8 593b cc3a a2bd
000000d0: e079 dbbc 0084 e33a 0ad0 ebbd 9ae1 f7bd
000000e0: 40e7 d93b e6b3 90bd 6e7d afbd 8cfe 89bd
000000f0: e4ba 3abd 6063 e63b 0067 1aba 0077 553c
00000100: 70aa 673d 8026 5fbb 78e1 723d 6c57 fb3d
00000110: 66d5 b3bd 18c6 3dbd a8e0 f5bc 18fe 66bd
00000120: b420 103d ce5f acbd ace8 c8bd 50f7 d5bc
00000130: 166a b7bd 4cd1 65bd 4ab0 a03d a654 a43d
00000140: 3667 81bd 7862 ecbc 1035 bc3c c612 e13d
00000150: d002 f3bc 8c52 243d 203e 283d e0d7 2fbd
00000160: a096 c0bd f0f4 17bd b0c6 97bc c021 133b
00000170: be7a d6bd b8c6 92bd 3eb3 ab3d 0259 a2bd
00000180: e8aa 583d c0a6 1bbc 6c23 67bd e8f0 a63d
00000190: d231 f93d 26b7 eb3d 3c75 37bd 000d c0bd
000001a0: a457 3cbd 584f c8bd 6814 1c3d 6841 a7bd
000001b0: fe3b cabd 584f dc3d d634 c83d 501d 2f3c
000001c0: 1803 afbd 4851 043d 708a d1bd 0017 18bd
000001d0: 80e3 bdbc 7c00 8d3d f05c 35bd c0ba a53d
000001e0: 30e0 debd 522d c1bd 80be 993a bede fd3d
000001f0: 0291 b93d a884 bf3d b25c b03d 40af a5bb
00000200: a8a9 a9bc 9846 593d f860 813d 40e3 b63c
00000210: 8c97 a6bd 1afe fdbd 0043 94bb 9684 d0bd
00000220: b4a1 18bd fe4b adbd 3405 633d f054 14bd
00000230: 7417 ccbd 0008 c439 f8e4 a43c e2f3 cb3d
00000240: e825 da3c 3669 d53d 0044 433c 46c4 d93d
00000250: 3a76 d33d b8cc 493d d2b6 8f3d dea5 c2bd
00000260: e050 e1bd ea52 a5bd c893 603d 546b 243d
00000270: 5aca d6bd 7479 663d e06c d63d ca1a bebd
00000280: e0a3 7b3c 18e4 533d f0bf 393d d8db 39bd
00000290: 70be b03c 7c7c debd 8e83 c0bd b471 8a3d
000002a0: e22b cf3d 782b 4cbd 40d6 d7bd 3ee7 a7bd
000002b0: fc2e b3bd f0eb efbc 9e37 ccbd 50ef 57bd
000002c0: 283d fe3d 2e3e a73d e2e7 e5bd 783c 23bd
000002d0: fe4f e83d 883b 56bd a666 ddbd d0a8 2a3c
000002e0: 308e f0bc 7621 b4bd c0d3 6d3d c4cb c43d
000002f0: 2ec0 af3d 60d6 ad3d 308c afbc 7c14 65bd
00000300: b091 a73c ce6a d23d 42b8 f8bd 90ba 6a3d
00000310: ecc7 61bd 28b6 57bd 5e46 f8bd 6a00 d63d
00000320: 5636 bdbd d08a 853c f60d f0bd 4a74 843d
00000330: 20d8 97bb 0457 23bd 0085 85bb 709c e03d
00000340: 8e68 f6bd c4b4 f13d 0075 d2bd d69e 863d
00000350: e027 8e3c ecb6 e9bd 148f 0b3d 1675 9f3d
00000360: a89d fb3c 6a67 ff3d 50ba 37bc 262e ad3d
00000370: a689 cd3d 4284 d6bd daa1 aebd 7227 8ebd
00000380: cc1d b4bd 6e57 c43d f478 f93d 009b 58bb
00000390: caaf 98bd 2014 553d a055 393d 50e9 c33c
000003a0: 289a 9c3c 203b 663c 807b 6bbd a053 513c
000003b0: a27e a13d 3623 cebd c0f1 b93c 5af2 853d
000003c0: 368a dabd 44f8 69bd 6808 dcbd ec4c 4abd
000003d0: f02e 333c 8abc ed3d 38e2 debd 6028 5d3c
000003e0: c0a1 eabd 489c 89bc 280f 3abd 0c8e 71bd
000003f0: 78c2 f9bc 10f9 d9bd 94f3 9bbd c276 fe3d
-0.019237027 0.009602383 0.1107263 -0.09008862 0.045533508 0.01213403 0.061278254 -0.06904212
-0.017090455 -0.0089580715 0.08421333 -0.123448595 0.0032491237 -0.010920122 -0.024598524 -0.038075507
0.057115972 0.052817002 -0.018379137 -0.047033146 -0.044315606 0.033779353 0.0013745129 0.09774199
-0.104889974 -0.058262065 -0.10591662 -0.079190984 0.086361974 -0.050492376 0.11706564 -0.038027257
-0.036334768 -0.10370089 0.069111824 -0.0950087 0.068321735 0.09661695 0.06440246 -0.07767175
0.082848 0.06357336 -0.005391881 -0.094743416 0.007379234 -0.08684595 0.060884356 0.056230053
0.11361082 0.06023556 0.0033221245 -0.07921371 -0.026791513 0.0017358065 -0.1151429 -0.12103577
0.0066498816 -0.07065563 -0.08568846 -0.06738004 -0.04558839 0.0070308894 -0.0005889982 0.01302886
0.056559026 -0.0034050047 0.059297055 0.12272534 -0.08780937 -0.046331495 -0.030014351 -0.056394666
0.035187438 -0.08416711 -0.09810004 -0.026118904 -0.08955781 -0.056107804 0.078461245 0.08023958
-0.06318514 -0.028855547 0.02297452 0.10989909 -0.029664427 0.040117785 0.041074872 -0.042930484
-0.094037294 -0.037098825 -0.018527359 0.0022450536 -0.1047263 -0.07166809 0.08383797 -0.07927133
0.052897364 -0.0095002055 -0.056430265 0.08151418 0.121677056 0.11509542 -0.044789538 -0.093774796
-0.045982018 -0.097807586 0.0381054 -0.08166772 -0.09874724 0.10757321 0.09775703 0.010688141
-0.08545512 0.03230408 -0.10231483 -0.03713131 -0.02317977 0.06884858 -0.044278085 0.0809226
-0.10882604 -0.09432472 0.0011729747 0.12396 0.09060861 0.09351474 0.0861143 -0.005056292
-0.020710781 0.05304584 0.063173234 0.022325158 -0.08134374 -0.12401982 -0.0045245886 -0.10181539
-0.037263587 -0.0846176 0.055424884 -0.036213815 -0.09965411 0.00037389994 0.020128712 0.09958626
0.026629403 0.10420458 0.011918068 0.10633139 0.10325284 0.0492675 0.07017292 -0.09504293
-0.11001754 -0.08072455 0.054828435 0.04014142 -0.10487814 0.05626817 0.10469985 -0.09282453
0.015358895 0.0517312 0.04534906 -0.045375675 0.021575183 -0.10863587 -0.09400092 0.067599684
0.10115792 -0.049846143 -0.10538912 -0.08198403 -0.08749196 -0.029287308 -0.09971546 -0.05271846
0.124140084 0.08166157 -0.11225869 -0.03985259 0.11343382 -0.052302867 -0.10810594 0.010416225
-0.029364675 -0.08795445 0.05806327 0.09609178 0.08581577 0.084881544 -0.021429151 -0.05592774
0.020455211 0.102742776 -0.121445194 0.057306826 -0.0551223 -0.052663952 -0.121227965 0.10449298
-0.092388794 0.016301543 -0.11721413 0.06467493 -0.0046339184 -0.039877906 -0.0040746927 0.10967338
-0.12031661 0.118020564 -0.10276222 0.06573264 0.017352998 -0.11411843 0.034071997 0.07786004
0.030714825 0.124708965 -0.011213854 0.08456068 0.1003602 -0.10474445 -0.085269645 -0.06941117
-0.08794746 0.095869884 0.12181273 -0.0033051372 -0.07455404 0.052021146 0.045247674 0.023914963
0.019116476 0.014052182 -0.057490826 0.012776285 0.078854814 -0.1006531 0.022698283 0.065403655
-0.10670893 -0.05712153 -0.10743791 -0.049389765 0.010936484 0.116082266 -0.108829916 0.013498396
-0.114566326 -0.016798154 -0.04542461 -0.058973357 -0.030488238 -0.10643208 -0.07614818 0.12424995

fc2.bias f4 [32]
00000000: eecc 81bd b64b a8bd 1cba 3fbd e85d c43d
00000010: 40a1 ccbc c8f0 adbc 0ccb f03d a801 d7bc
00000020: 10df d3bc f000 f83d a0a8 94bd 0040 5739
00000030: 3414 59bd 6cff edbd 60d3 b63b 6ab1 a2bd
00000040: 0cea 3bbd b4e1 af3d bc3e b63d 44a8 fc3d
00000050: 5c8b 3ebd a033 6dbc 9089 0f3c 7cdd b33d
00000060: 9c82 af3d 1839 d5bd d6ff ca3d e0af 293c
00000070: 2ab2 aa3d ecd5 773d e2d8 a93d e235 c13d
-0.06337915 -0.08217566 -0.046808347 0.09588224 -0.024979234 -0.021232978 0.11757478 -0.026245907
-0.0258632 0.12109554 -0.07258725 0.0002052784 -0.052997783 -0.116209835 0.005579397 -0.07943995
-0.0458775 0.08587971 0.088986844 0.123367816 -0.046519622 -0.01447764 0.008760825 0.08782479
0.08569834 -0.104112804 0.09912078 0.010356873 0.08334763 0.060506746 0.0829332 0.094341055

fc3.weight f4 [1, 32]
00000000: dc4e 8cbc 3539 6c3d 7df0 cf3d 30bc 9a3d
00000010: 753d 6bbd 356c 94bb 90b9 1d3b c92c 083e
00000020: 799c 303d efcc e2bd ec80 a93d 66e6 9b3d
00000030: fd03 373d f049 f23d e747 c43d aadc c5bc
00000040: cb77 f33d 904d df3c f579 17bd de32 5f3d
00000050: 2aa0 883d 311a 98bd 463f f2bd b36d 323e
00000060: 234b 153e 665c 313e 2991 cb3d 8094 40bd
00000070: 62ef 0d3e c0e1 e4bd 2ebb 273e b697 823d
-0.017127447 0.057671744 0.101532914 0.07555425 -0.057431657 -0.004529501 0.0024066903 0.13298334
0.043117974 -0.11074244 0.08276543 0.076123044 0.044681538 0.11830509 0.09584027 -0.024153072
0.11888083 0.027258664 -0.03698154 0.05449187 0.06671174 -0.074268706 -0.11828475 0.1742466
0.14579444 0.17320403 0.099397965 -0.04701662 0.13860849 -0.11175871 0.16379997 0.06376593
