unitree_8_sa.pt (torch, 85182 bytes, 10 tensors)

0.weight f4 [64, 19]
000000 02 71 28 be 43 5a 25 3e 76 e2 a1 3c 28 5f 17 3e
       -0.16449359 0.16147713 0.019761305 0.14782393
000010 f9 0d 0c be 90 e8 50 be 74 86 1c 3e ac 42 f1 3d
       -0.13677205 -0.20401216 0.15285665 0.11780295
000020 21 6e 11 bd 51 1e 42 3d a9 c7 b7 3c a7 ed e6 3d
       -0.035505418 0.047392193 0.022434073 0.11275797
000030 04 bf 23 be 45 98 41 be 7b 25 21 3d 0a 17 56 3e
       -0.15990835 -0.18905742 0.039342385 0.20907226
000040 41 e5 55 be 03 b1 38 3e 78 9f 08 3e 46 c7 42 3e
       -0.20888235 0.18036275 0.13342083 0.1902133
000050 11 30 83 bd ca aa ac 3c 49 80 65 be e6 0d 69 3e
       -0.06405652 0.021077532 -0.22412218 0.22759208
000060 13 e2 47 3e 75 b7 3a bc 94 50 74 bd 80 a2 2f bc
       0.19519834 -0.011396279 -0.059647158 -0.010719895
000070 38 64 ab bd 09 1a cd 3d 58 f4 57 be 1a 2c ce 3d
       -0.083687246 0.100147314 -0.21089303 0.100670055
000080 e7 5c 55 bd c9 d2 60 be 22 02 44 be d7 03 2f 3e
       -0.05209055 -0.21955408 -0.19141439 0.17091309
000090 f1 d8 6f 3c 8e 72 1b 3e 0d b3 59 3e fe 27 c5 3d
       0.014639125 0.15180418 0.21259709 0.096267685
0000a0 f8 77 dd ba 44 62 c0 bd 14 bd f3 bd f1 fd 66 3e
       -0.0016896715 -0.09393743 -0.11901298 0.22557808
0000b0 7a cb 49 3e 4a d4 02 3e 85 b0 32 bd 1d 2a 08 3c
       0.19706526 0.12776294 -0.043625373 0.008310822
0000c0 ea fb 2f bd e7 df 65 3e 33 45 4c be b0 37 4c 3e
       -0.042964853 0.22448693 -0.19948272 0.19943118
0000d0 80 a7 b8 bd 7b c6 4e be da 23 68 bd a0 7c a8 bd
       -0.09016323 -0.20192902 -0.056674816 -0.08226895
0000e0 45 68 9c bd 27 6e 2b be db 4c ec 3c 33 aa c2 3d
       -0.07637075 -0.16741239 0.028845241 0.09505119
0000f0 70 8e 54 be fc e2 68 3e d3 dc 16 3e bd cf b0 3d
       -0.2075746 0.22742838 0.14732675 0.08633373
000100 4b 62 55 3c e6 20 82 3d 09 a3 33 3e 15 44 88 bd
       0.013023923 0.06353931 0.17542662 -0.066536106
000110 56 bc c6 3d 26 ee d9 bd ac 52 b7 bd f8 9c a9 3d
       0.09703891 -0.10641126 -0.08951315 0.082818925
000120 e9 a1 4f be a8 d1 b5 bd f8 51 39 bd 37 57 1e 3e
       -0.20276608 -0.088778794 -0.045244187 0.15462957
000130 6c 93 12 3e 6e 73 c2 bd ac 58 c5 bd e7 60 c0 3d
       0.1431405 -0.09494673 -0.096360534 0.09393483
000140 0f bc 2d be cd 64 3b be 59 1f 84 3d 49 59 5b bc
       -0.1696627 -0.18300171 0.064512916 -0.013387986
000150 30 27 09 3e 47 ea 08 be 73 92 cc bd da 2e 3a 3e
       0.13393855 -0.1337062 -0.099888705 0.18181935
000160 1b 01 28 be ab 40 26 be cb 68 3b 3b fd c3 39 3d
       -0.16406672 -0.16235606 0.0028596397 0.045352925
000170 ab 9e f0 bd f9 5c 3b 3e 71 47 65 3c 24 26 6c 3c
       -0.117490135 0.18297185 0.013994084 0.01441339
000180 fa e1 ea bd f2 e8 69 bd 13 d1 ea bd eb 0c 29 be
       -0.11468883 -0.05710692 -0.11465659 -0.16508834
000190 2f ab 07 3e be 0c 5f be 11 90 cd bd 53 cb fe 3d
       0.13248895 -0.21782205 -0.10037244 0.12441125
0001a0 ec 88 d7 3d 6b 02 45 3e f9 2f 4e be 61 c0 8e bc
       0.10524163 0.19239204 -0.20135488 -0.017425718
0001b0 54 92 84 3d bc df 90 bd 33 7d cf 3c 31 bf 4b be
       0.064732224 -0.07073924 0.025328254 -0.19897152
0001c0 2a 72 1f 3d 55 74 07 3d 93 34 14 3e f8 92 45 3e
       0.038927235 0.033069927 0.1447318 0.19294345
0001d0 d8 54 89 bd 72 5b cd bd 1a 59 c3 bd 7f 30 40 3d
       -0.06705636 -0.100272074 -0.09538479 0.04692125
0001e0 df 95 33 be 57 bf 14 3e e9 6b a0 bd 7e 9f 53 3d
       -0.1753764 0.14526115 -0.07833082 0.051665775
0001f0 c5 81 bc bc 26 4b 0c 3e 58 a6 fe 3d df 3f 17 3b
       -0.023011098 0.13700542 0.12434071 0.0023078842
000200 31 10 18 be b6 1b 92 3c 15 79 a5 3d 0b d6 3f 3e
       -0.14849927 0.01783548 0.08079735 0.18733995
000210 fd 8a d2 3c 07 87 1a be 9f a5 36 3e c4 2f fe 3c
       0.02570104 -0.15090571 0.17836617 0.031028636
000220 de 58 8e bd 36 3b 5b 3e 10 43 b3 bc 5e b5 27 3e
       -0.06950544 0.21409306 -0.021882564 0.1637778
000230 71 ab 07 be 36 46 a3 3d a0 17 92 3d d2 7b a8 3c
       -0.13248993 0.07972376 0.07133412 0.020566855
000240 f6 b3 dc 3d a5 dd 00 be cf d3 50 be ac a0 94 bd
       0.10776512 -0.1258455 -0.20393299 -0.07257208
000250 58 ff 40 bd 86 26 69 3e d3 c8 1f bd 06 f2 54 be
       -0.047118515 0.22768602 -0.03900988 -0.2079545
000260 bc 2d a7 3b 65 df 39 3e 27 e2 68 bc 3d 0c 47 be
       0.0051018875 0.18151625 -0.014214075 -0.19438262
000270 e7 32 1f bd c0 2a a9 3d c0 10 68 3d d7 cf d5 bb
       -0.038866904 0.08260107 0.0566566 -0.0065250206
000280 98 f8 82 3c b5 53 b5 bd 0a 34 65 3e e1 32 3f 3c
       0.01598768 -0.088538565 0.22383133 0.011669845
000290 7c ed 38 3e 4b f8 bd 3c c7 ca 1a bd ac 7f 00 3e
       0.18059343 0.023189684 -0.03779104 0.12548703
0002a0 77 75 57 be 96 8b 62 be 41 37 5b 3e 79 93 08 bd
       -0.21040903 -0.2212356 0.21407796 -0.033343766
0002b0 56 22 10 3e 2a fb 8d 3d 70 08 4a 3e 92 df 85 bd
       0.14075598 0.06932671 0.19729781 -0.06536783
0002c0 9a bc 13 be 36 33 f6 bd 4b c5 8f 3d c9 d2 3c 3e
       -0.14427415 -0.120214865 0.070200525 0.18439783
0002d0 ce 7e e3 3d 69 54 3d 3e 78 f7 eb bd 01 0c 85 bd
       0.111081704 0.18489231 -0.1152181 -0.0649643
0002e0 15 57 2e 3e 07 c8 2a 3e 09 91 42 be 15 1b b6 3d
       0.17025407 0.16677867 -0.19000639 0.08891884
0002f0 77 bb 60 be 03 f2 84 bd dd 3c b6 3d 73 b8 2a 3e
       -0.21946512 -0.064914726 0.088983275 0.16671924
000300 83 a4 3b be 2a 7e 1f be a4 e5 4c 3d aa 3c 66 be
       -0.18324475 -0.15575472 0.05002369 -0.22484079
000310 f7 a0 eb bb 3d 69 75 bd 9b 0b fb 3d f6 a2 86 3d
       -0.0071908194 -0.059914816 0.12258073 0.06574051
000320 91 33 18 be c7 e3 05 be 04 98 b5 bd ec c1 64 3d
       -0.14863421 -0.13075171 -0.08866885 0.055849
000330 7d a3 0b 3e 84 40 be 3d 3f 97 43 bc a1 c2 1f 3e
       0.13636585 0.09289649 -0.011937915 0.15601589
000340 78 42 4c bd d6 3a 2c be c5 ef 8b 3d 24 80 5f 3d
       -0.049868077 -0.16819319 0.06832842 0.054565564
000350 a4 49 33 be 56 23 fc bd 83 71 5a be 15 e3 d4 3d
       -0.1750856 -0.12311427 -0.21332364 0.10394875
000360 87 f8 15 3e 40 78 e2 3d e6 f3 3e 3e e4 9c ef bc
       0.14645587 0.11058092 0.18647727 -0.029249616
000370 b1 53 c8 3d dc 4a 10 3d e3 c0 53 3e 4f 2c 45 3d
       0.09781588 0.03522764 0.20679049 0.04813796
000380 59 74 c1 bd d8 16 1b 3e 7d 88 3d be 99 81 50 be
       -0.0944602 0.15145433 -0.18509097 -0.20361938
000390 84 51 5b 3d ff f2 fe 3d 20 1b 43 be 49 b3 c9 bc
       0.053544536 0.124486916 -0.19053316 -0.024621623
0003a0 82 f9 04 3d 84 1c 04 be 11 af 81 3d 95 3c 4e 3e
       0.03246451 -0.12901503 0.063322194 0.20140298
0003b0 cd 2e 01 3e 89 bf c3 3d b8 b2 ea 3c 6b b0 24 be
       0.1261551 0.09558017 0.028649673 -0.16082923
0003c0 d9 d5 43 be 4b 44 36 bc 8f 82 35 be a1 d7 97 bc
       -0.19124545 -0.011124681 -0.17725585 -0.018535437
0003d0 b7 00 3e 3e b6 5c 23 be c7 4e da 3d bc 5a ff 3d
       0.1855496 -0.15953335 0.10659557 0.12468478
0003e0 2e 9f 78 3d eb 54 be bc ac 77 d8 bd 7f 80 2f be
       0.06069868 -0.023233851 -0.105697006 -0.17138861
0003f0 da bb 7e bd c5 94 27 bd e8 ec 48 3e 75 9b da bd
       -0.062190868 -0.040913362 0.19621623 -0.10674182

0.bias f4 [64]
000000 2f ab b8 bd 90 5e f0 3d 61 f6 16 3e 7f b3 3e bd
       -0.09017026 0.11736786 0.14742424 -0.0465579
000010 16 45 60 3e ca 1b ea 3d 88 b4 2f 3e 6a 1c ce bc
       0.21901354 0.114310816 0.17158711 -0.025160033
000020 2b c9 52 3e d9 1b 62 be 2c 98 f4 3d bf f7 3c 3c
       0.20584552 -0.22080936 0.11943087 0.011533677
000030 da 16 4b 3d 4a 98 66 3e e0 c4 30 3e 0b f5 65 be
       0.04958234 0.22519031 0.17262602 -0.22456758
000040 c5 d2 cf bc 79 ca 4a 3e 06 d6 49 be b5 7d 50 3e
       -0.025369057 0.198038 -0.1971055 0.20360453
000050 8e 2d ec 3d 6a 92 04 be dd 99 61 be ab 8a 14 be
       0.11532126 -0.12946478 -0.2203135 -0.14506023
000060 1b a7 69 3d 39 a4 2b be 7e 30 db 3d 82 ae 44 be
       0.05704413 -0.16761865 0.107026085 -0.19207194
000070 48 67 08 3d 6a 68 57 3e b7 c3 a5 3c 0e 58 87 bd
       0.03330162 0.21035925 0.020234926 -0.06608592
000080 1c c0 9e bd 44 bf e7 bd b2 e5 1d be 6a a6 2f 3e
       -0.07751486 -0.11315778 -0.15419653 0.17153326
000090 fe 26 d3 3c 3a e5 23 be c7 64 e5 3d 11 aa 37 bc
       0.025775429 -0.16005412 0.112008624 -0.011209981
0000a0 8e 63 4b be 31 d8 45 be 5f dc d5 bd cc a2 3d be
       -0.19862196 -0.19320752 -0.10442423 -0.18519133
0000b0 db fb 5b 3e 83 ab b8 3d 1b 0d dc bd 1c 47 5f 3e
       0.21482794 0.09017088 -0.10744687 0.2180447
0000c0 01 78 d5 3d 20 65 0f bd 45 e8 8c 3d 87 f4 14 be
       0.104232796 -0.03500855 0.068802394 -0.14546405
0000d0 f6 37 5b 3d b8 cf 4b 3e 5f 56 4e bd 70 af 51 be
       0.053520165 0.19903457 -0.05037534 -0.2047708
0000e0 cf af 7b bd 6b 88 27 be 1a 50 13 3e 00 b4 11 be
       -0.06144696 -0.16360633 0.14386025 -0.14228821
0000f0 e9 b4 8a bc a6 45 be bd bd e2 54 3e e1 35 91 3d
       -0.016931968 -0.09290628 0.20789619 0.07090355

2.weight f4 [128, 64]
000000 80 01 50 bb 38 83 a0 3c a6 0d fe 3d 56 25 fe 3d
       -0.0031739175 0.01959382 0.12404947 0.12409465
000010 00 f3 b1 3c d6 79 ad bd 82 e7 b5 3d 9c 47 04 bd
       0.021722317 -0.08470504 0.08882047 -0.032294855
000020 e8 9f 90 bd d0 eb eb bc 2e a5 83 3d 5a e4 a7 3d
       -0.0706175 -0.028798968 0.0642799 0.081978515
000030 48 c9 e2 3d 40 9d 85 3b a4 7a d4 bd e0 dc 39 3d
       0.110735476 0.0040775836 -0.10374954 0.04537666
000040 60 c3 a7 bd 60 17 1d 3d 4e 1a d8 bd a0 a6 d4 3b
       -0.08191562 0.03835237 -0.10551892 0.00648959
000050 c8 da d3 3d 54 8f 42 bd 00 db 9f bc ee 7e 89 bd
       0.103444636 -0.04749997 -0.019513607 -0.06713663
000060 e8 36 e6 bd a8 4f d7 bc a0 53 f2 bd b8 cf ff bd
       -0.11240941 -0.0262831 -0.118323565 -0.12490791
000070 7c e3 0b bd 4a 4b c0 bd 80 57 e0 bc 80 c6 d7 ba
       -0.034152493 -0.0938936 -0.027385473 -0.0016462356
000080 50 d0 8f 3d a0 36 ed bd 00 3c 91 bb 08 e0 f0 3c
       0.07022154 -0.115826845 -0.0044322014 0.029403701
000090 5c 6a 87 3d c4 13 f2 3d 4c 1a 48 bd 52 a3 ee bd
       0.06612083 0.11820176 -0.048853204 -0.11652245
0000a0 30 c9 7a 3d e0 5a c9 3d 70 91 e2 3d 88 e3 be bd
       0.061227024 0.09831786 0.11062896 -0.09320742
0000b0 b4 12 36 bd 70 86 47 bc 74 c5 97 3d 20 cd d0 bd
       -0.04445143 -0.0121780485 0.07410708 -0.101953745
0000c0 84 46 c0 bd 94 d7 f3 bd 3e 16 e2 3d 32 50 b9 bd
       -0.0938845 -0.11906353 0.110393986 -0.09048499
0000d0 f8 90 cf 3d 54 46 ec 3d 04 1a b2 3d ce 7e ba 3d
       0.101350725 0.115368515 0.08696368 0.09106217
0000e0 c8 df ad 3d a8 e4 a9 bd 98 7c a7 bd 0e 4d a6 bd
       0.084899485 -0.08295566 -0.08178061 -0.08120166
0000f0 f0 d4 40 bc 70 b9 09 bc 94 9b 4a bd 80 60 b5 3a
       -0.011769518 -0.008406028 -0.049464777 0.0013837963
000100 4a 4c c8 bd 14 e3 f6 3d a8 a0 3d bd d8 99 b9 3d
       -0.09780176 0.120550305 -0.046295792 0.090625465
000110 fc f6 40 bd 9c 74 5b 3d f4 49 ac bd c6 3f 96 3d
       -0.047110543 0.053578004 -0.08412543 0.073363826
000120 f0 fa 22 bd 80 eb fa 3a e0 ab 67 3d 9c 4c b4 bd
       -0.039790094 0.0019143671 0.056560397 -0.088036746
000130 42 b9 eb 3d 72 f4 ab 3d 98 53 b2 bd 08 6c 3c 3d
       0.115099445 0.083962336 -0.087073505 0.046001464
000140 16 2c f0 bd 70 b2 b9 bc ce 11 86 3d 88 80 2a 3d
       -0.11727159 -0.022668093 0.06546365 0.041626483
000150 02 92 f7 3d 38 5b d8 bd 70 e3 1a 3d 20 41 3c 3c
       0.12088396 -0.105642736 0.037814558 0.011490136
000160 a4 31 ce bd 40 8d 82 3b 10 67 07 3c 9a 25 f8 bd
       -0.10068062 0.0039841235 0.008264318 -0.12116547
000170 1c 89 c9 3d b0 99 de bc 70 52 82 3d 30 79 ec 3c
       0.09840605 -0.027172893 0.0636338 0.02886638
000180 00 26 34 3b bc 4b 7d 3d 14 bc 21 bd a8 94 4f bd
       0.002748847 0.061839804 -0.039486006 -0.05067888
000190 00 d3 c5 3b 3c 91 07 bd 80 4f f0 3a 7e af ca bd
       0.006037116 -0.03309749 0.001833424 -0.09896754
0001a0 8e 15 af bd e4 4a 3f 3d 54 2b e6 3d f2 35 f9 3d
       -0.08549033 0.04670228 0.11238733 0.121684924
0001b0 c0 21 0c 3c a4 ad a4 bd 00 68 01 ba 2a 3b b2 3d
       0.0085529685 -0.08040932 -0.00049364567 0.08702691
0001c0 86 f5 99 bd e4 ed 21 bd c6 9c e3 bd 94 cd bc 3d
       -0.07517533 -0.03953351 -0.111138865 0.092188984
0001d0 68 81 88 bd a8 6f f9 bd bc fc 7f bd 30 14 fc bc
       -0.06665307 -0.121795 -0.062496886 -0.030771345
0001e0 f8 d3 cf 3c 48 1d ee 3c b8 f4 b7 bd 14 13 c3 bd
       0.02536963 0.029066697 -0.08982223 -0.09525123
0001f0 a8 a8 13 bd 08 34 a1 3d f8 2a a8 3c 8c 0e 63 3d
       -0.036049515 0.07871252 0.020528302 0.055433795
000200 d0 4f 07 bd a8 21 b2 bd 64 65 94 bd 00 24 9f bc
       -0.0330351 -0.08697826 -0.07245901 -0.019426346
000210 d8 db d3 3d 10 b2 bd 3c 4a 4f f6 3d 42 98 ec bd
       0.10344666 0.023156196 0.12026842 -0.115524784
000220 ca 0c dd 3d 98 5a 22 bd 5a c9 f4 bd 74 e8 71 bd
       0.10793455 -0.03963718 -0.11952467 -0.059059575
000230 9c 6b 7d bd 70 58 8e bd a8 df 3c 3d cc 8c 1f 3d
       -0.061870202 -0.06950462 0.046111733 0.038952634
000240 ca 9c bf 3d a6 2e 88 bd 7c 65 28 bd dc 74 af bd
       0.09356077 -0.066495225 -0.041112408 -0.08567211
000250 bc 79 ff bd a4 a3 25 bd 92 2c 9d 3d 70 12 1d bc
       -0.12474391 -0.040439263 0.07674517 -0.009586915
000260 20 6b e3 bc c0 e0 75 bc 40 b0 eb bd 14 e7 da bd
       -0.027761042 -0.015007198 -0.115082264 -0.10688606
000270 18 15 21 3d 64 66 97 bd 16 41 85 bd ac a8 c0 3d
       0.039326757 -0.07392576 -0.06506555 0.094071716
000280 d0 6c 49 3d b4 18 16 bd 54 c5 ad bd c0 1f ee bc
       0.049176037 -0.036644652 -0.08484903 -0.029067874
000290 b8 a6 02 bd b4 e9 1a bd 18 e5 93 3d e8 94 92 3d
       -0.031897277 -0.037820533 0.072214305 0.07157308
0002a0 dc 66 2d bd 76 20 f9 3d 82 ef 8d 3d 62 8f a3 3d
       -0.042334422 0.121643946 0.06930448 0.079863325
0002b0 94 68 38 3d e0 f2 8d 3b 90 32 76 3d 90 8a ca 3d
       0.04502161 0.0043319315 0.060106814 0.0988971
0002c0 84 18 c1 bd 5c 90 c9 bd 30 69 47 bc 0e 79 e0 bd
       -0.09428504 -0.098419875 -0.012171075 -0.10960589
0002d0 80 88 9d 3d de 81 98 3d 80 23 55 3b c0 ef fa bc
       0.07692051 0.07446645 0.003252238 -0.0306319
0002e0 0c 8e ec bd d0 dd 6f bd 80 62 50 3b 0c 25 09 bd
       -0.11550531 -0.058561146 0.0031796992 -0.033482596
0002f0 a6 c9 e5 3d 00 da 4c 3c b8 6d 85 bc e6 59 d8 3d
       0.11220102 0.012503147 -0.01628767 0.10564022
000300 f0 c1 aa bd 94 99 dd 3d 20 6d 45 3d 66 6c 86 3d
       -0.08337772 0.10820308 0.048199773 0.06563644
000310 40 ab a2 3c c2 36 c9 3d 8c 49 8b bd da 31 ba 3d
       0.019857049 0.09824897 -0.06801137 0.0909154
000320 04 16 3c bd cc 17 6f 3d 1c db 31 bd 80 b7 3e 3b
       -0.045919433 0.058372304 -0.04342185 0.0029101074
000330 7a e9 83 bd 60 65 56 bd aa 5f 8b bd 7a ba 9c 3d
       -0.064410165 -0.052342772 -0.06805356 0.07652755
000340 92 3b 91 bd ec ad f8 3d 46 a0 a2 3d 82 cd 94 bd
       -0.0709144 0.12142548 0.07940726 -0.0726576
000350 78 27 ca bc a0 a1 d7 bd 3c 30 fe 3d ba 83 c9 3d
       -0.024677023 -0.105288744 0.12411544 0.09839578
000360 48 2e ea 3c 52 2c dc 3d 2c bf 8b bd 64 fe 4a 3d
       0.028586522 0.10750641 -0.068235725 0.049559012
000370 40 6c f1 bc 00 6a 20 3d 20 40 70 bd b8 07 b1 bc
       -0.029470563 0.03916359 -0.058654904 -0.021610126
000380 ba c3 92 3d 4a 7b f4 3d 70 0c e5 bc 98 60 8e bd
       0.07166238 0.11937578 -0.027960032 -0.069520175
000390 78 0a ec bd 72 3d ec 3d 60 4b a5 3c 98 75 03 bd
       -0.11525434 0.11535157 0.020177543 -0.032094568
0003a0 fc da d1 3d e8 b2 ec bd f0 1a c6 3c d4 e9 66 3d
       0.10246846 -0.11557561 0.024182767 0.05637534
0003b0 92 5d d0 bd 40 cf b8 bc 00 d1 ba bc f8 26 55 bd
       -0.10174097 -0.022559762 -0.022804737 -0.052039117
0003c0 84 9e c5 3d 00 29 0f 3b 8e 6c cb bd d0 b6 e3 3c
       0.09649375 0.0021844506 -0.099328145 0.027797133
0003d0 58 e9 a2 bd ae 6b c6 3d e8 9c cb bc da d2 ad bd
       -0.07954663 0.09688507 -0.024855092 -0.08487482
0003e0 b0 a6 4e 3c fe a6 8a bd 90 77 f5 bc 00 72 ea bd
       0.012612984 -0.067701325 -0.029964238 -0.11447525
0003f0 84 b6 6f bd 00 fc d4 ba 28 18 f2 bd f4 d0 4e bd
       -0.05852367 -0.0016249418 -0.11821014 -0.050492242

2.bias f4 [128]
000000 80 99 43 bd 58 fd ec bc 5c e9 70 3d a4 41 86 3d
       -0.04775381 -0.028929397 0.0588163 0.06555489
000010 68 44 a1 3c e4 34 88 bd c0 f9 dc 3c c4 55 c2 3d
       0.019685939 -0.06650713 0.026974559 0.09489015
000020 34 81 5e 3d 50 f1 1a 3c 1c 2a 61 3d 7c fd 6c 3d
       0.054322436 0.009456947 0.0549718 0.05785893
000030 e4 d3 00 3d e6 41 9d 3d ee 3d be bd b4 8c 66 bd
       0.031452075 0.07678585 -0.09289156 -0.05628653
000040 f8 c6 ea bd 3c 4b 0f 3d a0 f5 c9 bb cc 94 2b bd
       -0.114637315 0.03498386 -0.006163314 -0.04188995
000050 00 d6 df 3d aa 01 c3 3d 08 b0 3d bd 58 76 d3 bd
       0.10929489 0.09521802 -0.046310455 -0.10325307
000060 f0 33 2e 3c 20 52 da bc 16 a0 b7 3d f6 78 ad 3d
       0.0106325 -0.026650488 0.08966081 0.08470337
000070 5e b5 e3 3d f0 8e 20 3d c0 af 2e 3d a0 52 db bb
       0.111185774 0.039198816 0.042648077 -0.0066931993
000080 60 e7 ac 3d 14 50 88 bd 60 76 b6 3b 18 ee c5 3c
       0.08442569 -0.06655899 0.0055683106 0.024161384
000090 4e 40 8a bd c8 08 ce 3d 30 e9 25 bd 62 32 ee 3d
       -0.067505464 0.10060269 -0.040505588 0.116307035
0000a0 f2 e0 98 bd 98 d6 f1 bc 00 02 fe bd 2c e4 f1 3d
       -0.0746478 -0.029521272 -0.12402725 0.118110985
0000b0 80 0d 4c bc 14 e7 4b bd 0a a9 cb 3d 00 51 07 3b
       -0.0124543905 -0.04978092 0.09944351 0.0020647645
0000c0 ec d7 a2 3d c0 98 49 3d b0 36 93 3c 62 8d b8 bd
       0.0795134 0.04921794 0.017970413 -0.09011342
0000d0 b0 cb 63 bc 46 04 ce bd 68 01 7f 3d 10 a1 95 bd
       -0.013903543 -0.10059409 0.0622572 -0.07306111
0000e0 e0 a9 0d 3d 54 74 39 3d d0 c2 fd 3c 8c ce a5 bd
       0.034585834 0.045276955 0.030976683 -0.08096036
0000f0 3c f6 90 bd 80 4f 32 bb 12 8b b2 3d e8 34 7c 3d
       -0.070782155 -0.002720803 0.08717932 0.061573893
000100 60 6b 96 3b 9c 5f 7b bd d0 b7 ae bd 00 49 a9 ba
       0.004590437 -0.061370477 -0.08531153 -0.0012915432
000110 0a 81 e2 bd 20 97 e6 bc a0 e8 15 3c 44 2e 96 bd
       -0.110597685 -0.028148234 0.0091497 -0.07333043
000120 2c 5f b6 3d 78 eb 67 3d b8 8c e3 3c ba ab f6 3d
       0.08904871 0.056621045 0.02777706 0.12044473
000130 c8 98 c0 3c ac af 83 bd 64 a4 05 bd f0 c1 9b 3c
       0.023510352 -0.06429991 -0.03262748 0.019013375
000140 e0 c7 cf bb 40 98 87 bb 00 a9 62 bd 90 a0 36 3c
       -0.0063409656 -0.0041380227 -0.055336952 0.0111466795
000150 50 3b 8a 3c 20 90 44 bd 32 de d3 bd 48 dc 51 bd
       0.016873986 -0.04798901 -0.10345115 -0.051235467
000160 68 50 08 3d 22 d6 8f 3d 1c 12 99 bd 58 b3 87 3c
       0.033279806 0.070232645 -0.07474157 0.01656501
000170 58 f6 11 bd b0 ff 0f 3c 38 3c 79 3d f0 75 d8 3c
       -0.035635322 0.008788988 0.060848445 0.026423424
000180 60 7e 6e bc 06 23 e0 bd 32 e2 89 bd b0 fd 44 bc
       -0.014556497 -0.1094418 -0.067325965 -0.012023374
000190 64 b2 78 bd ec 5a 24 3d 88 57 5e bd 9e fb b0 bd
       -0.060717 0.040125772 -0.054282695 -0.08641742
0001a0 74 b7 bc 3d fa 01 ee bd da 06 ef bd 18 0e 23 bd
       0.092146784 -0.11621471 -0.11671229 -0.039808363
0001b0 a0 3b 7d 3d 30 16 46 bd 14 d2 cb 3d 48 ad ca bd
       0.06182444 -0.048361003 0.099521786 -0.09896332
0001c0 e4 ac 8b bd 8e b3 8d 3d 58 f6 df 3c e8 42 cc bc
       -0.06820086 0.06919013 0.027339146 -0.024934247
0001d0 d0 d0 c7 bc c4 1d 2a 3d 98 b7 c6 3c 30 7c f8 3c
       -0.024391562 0.041532293 0.024257466 0.030332655
0001e0 e4 56 52 3d 38 f6 c9 3d 10 fd 2f 3c 06 ab c9 3d
       0.051352397 0.098614156 0.010741487 0.09847073
0001f0 90 59 1b 3d b4 be 4c 3d 92 ed e7 3d 64 79 d9 3d
       0.03792721 0.049986556 0.1132461 0.106188565

4.weight f4 [64, 128]
000000 d6 19 a1 bd 6d 28 89 3c 3c 2b 65 ba f6 bf 1f 3d
       -0.07866256 0.01674291 -0.0008742099 0.039001428
000010 42 6e a5 bd 86 b5 a2 3d cc 92 da bc 77 b6 9e bc
       -0.08077671 0.07944779 -0.026681326 -0.019374115
000020 69 10 19 bc 0f 72 d8 3c 9e 9d 4c bd 8f 3c 0d 3d
       -0.009342291 0.026421575 -0.049955003 0.03448158
000030 54 88 92 3d df bc 8e bc ac 5f 50 3d d6 77 1f 3c
       0.07154909 -0.017424045 0.05087249 0.009733161
000040 56 7f 19 3c c5 7c b0 3d ee 2b 8b 3c b8 50 2d 3d
       0.009368738 0.08617548 0.01698872 0.042313308
000050 3f 8b 67 bd c2 70 83 3c 3f da 58 3b 61 ca 65 bc
       -0.05652928 0.016044978 0.003308907 -0.014025302
000060 72 96 87 3d 33 4e 9b bd c4 bc 28 bd 19 f1 f5 bc
       0.06620492 -0.07583275 -0.041195646 -0.03002219
000070 5c c3 07 3b a6 63 a5 bd ff 6b 96 3c 13 63 30 3d
       0.0020715808 -0.08075647 0.018362043 0.043063235
000080 2a be 2d bc be a6 d7 3c a6 02 2b 3d 51 b1 48 bb
       -0.010604421 0.026324626 0.041750573 -0.0030623267
000090 16 0f 9e bd cb 92 52 bd 06 13 db bb bb 51 7e bd
       -0.07717721 -0.051409524 -0.0066856174 -0.062089663
0000a0 f7 0a 34 bd 6f 60 4c 3d a7 ac ab 3d 61 1d 54 bb
       -0.04395577 0.049896654 0.0838254 -0.0032366144
0000b0 71 93 5d 3c af 20 e3 3b 6f 62 d4 bc a6 50 47 3c
       0.013523922 0.0069313864 -0.025925843 0.012165224
0000c0 e9 6c 2e 3b 0d cc 4d 3b 03 d1 7d 3c 87 83 0e bc
       0.0026615208 0.0031402141 0.015491727 -0.008698351
0000d0 3e 5f c1 bc 20 62 88 3c 46 48 93 3d 9e 5f 9b 3d
       -0.023604985 0.016648352 0.071915194 0.07586597
0000e0 5c 38 61 3d b9 f2 94 3d c6 25 61 3c 2b 0a 96 3d
       0.05498539 0.07272858 0.013741916 0.07326158
0000f0 55 e4 78 3b 72 a1 9c bd 2c 4d 89 bd 73 ee 93 3d
       0.0037977893 -0.07647981 -0.067041725 0.07223215
000100 55 72 99 3d 82 f1 9a ba b9 39 c5 3b b3 cf 59 bc
       0.0749251 -0.0011821243 0.006018844 -0.013294148
000110 d6 e2 2f 3d 46 f5 a9 bc a2 a8 0d bc b3 a8 26 bd
       0.042940937 -0.020746838 -0.008646162 -0.040688228
000120 f9 dc 8f 3d d0 39 a8 bd 93 b3 c3 bc cc 38 af bd
       0.07024569 -0.08214152 -0.023889339 -0.08555755
000130 21 db c7 bc d9 63 a6 3c 46 a5 8a bd 89 4d 90 bd
       -0.024396481 0.020311283 -0.06769805 -0.07046039
000140 45 29 2e 3d 64 16 36 bd 0e 20 58 bd 92 f8 78 3c
       0.042519826 -0.044454947 -0.052764945 0.0151959825
000150 b9 26 c8 3b bd 88 54 3d 8e 7a 9d bd 3b e6 8f 3b
       0.0061081317 0.051888216 -0.07689391 0.0043914593
000160 65 42 9d 3d 80 39 b2 bd d4 22 19 3d 35 85 a7 3d
       0.076786794 -0.087023735 0.03738673 0.08179704
000170 18 1a 79 3d e6 98 dd 3c 87 6e 9a 3d 51 b1 8f bd
       0.0608159 0.027050447 0.07540613 -0.07016242
000180 18 f9 8c 3c 8d db 8e bd 67 a7 e4 3c c1 ac b5 bc
       0.01720862 -0.0697547 0.027911855 -0.022177102
000190 25 46 59 bd 42 0a 5a bd d9 d8 8d 3d 33 04 df bc
       -0.05304541 -0.05323244 0.06926126 -0.027223682
0001a0 4b 5a 23 b9 cf 5a e1 3b d6 14 87 3c 92 31 a3 bc
       -0.00015578528 0.0068772803 0.016489428 -0.019921098
0001b0 65 49 4e 3d e5 6c b5 3c 96 7b 5b 3d f8 46 3f 3c
       0.050362963 0.022146652 0.053584658 0.011674635
0001c0 c8 05 81 3d 4d 73 81 3d 80 b4 09 bc f0 09 10 bd
       0.06299931 0.0632082 -0.008404851 -0.035165727
0001d0 e0 c1 60 3d d3 ce 34 bd 33 21 68 3d f9 da 80 bb
       0.054872394 -0.044142555 0.056672286 -0.0039323536
0001e0 53 fd a8 3b 02 6d ad bd 63 7e 4e 3d 80 92 1c bd
       0.0051571517 -0.08468057 0.0504135 -0.03822565
0001f0 c4 9b 99 3d 93 44 94 3d f1 52 8e bd 83 52 52 bc
       0.07500413 0.07239642 -0.069494136 -0.012837055
000200 6d 20 af 3c ab d5 8b bd 85 41 54 3d cb 45 72 3c
       0.021377767 -0.06827863 0.051820297 0.014787148
000210 e1 65 b2 bd 92 4d 6e 3d 70 66 6a 3d fa ac e7 3c
       -0.08710838 0.058179446 0.0572266 0.028280724
000220 2f c2 f1 bc cf 1b 37 3d b0 7c 7e bd a9 0a 57 bd
       -0.02951154 0.044704255 -0.06213063 -0.0525004
000230 9f 42 6a 3d 9e 81 38 bd 25 bd 98 bd cc 7b 35 bd
       0.05719244 -0.045045488 -0.074579515 -0.044307515
000240 67 ca 9e 3d 2d 2b 2d 3d 8d 2e d8 bc 9f a1 8c 3d
       0.07753449 0.042277504 -0.026389385 0.06866764
000250 9a 0c 8f bd e9 02 5e bd b4 e6 03 bd 0e 8c 45 bc
       -0.069848254 -0.054201994 -0.032202438 -0.012057317
000260 ac e5 9d 3d 45 f1 c3 3b e5 7a 97 bd 33 16 9d 3c
       0.07709822 0.0059796893 -0.07396487 0.019175624
000270 a8 de a9 bd 7f b3 a2 bd 23 1e 9c 3c 3e 98 23 bd
       -0.082944214 -0.079443924 0.019057339 -0.03994011
000280 2f 92 33 3d 10 e0 db 3c a3 67 b5 bc 8a 8d 92 3d
       0.043840583 0.02684024 -0.022144144 0.07155903
000290 d0 58 19 3d e1 cc 29 3d 99 50 4c 3c 16 b6 12 3d
       0.037438214 0.041455153 0.012470388 0.035818182
0002a0 8a ce 98 3d 8d 16 96 3d 8d 0d 9d 3d ef 1a 33 3d
       0.07461269 0.0732852 0.076686 0.043726858
0002b0 1f 0c bf bc 98 19 12 bd a0 07 92 3d ae 83 08 bd
       -0.02332121 -0.03566894 0.071303606 -0.033328705
0002c0 76 d2 c4 bc bb 56 c2 3c 57 c9 9b bd 7e 6a b4 bd
       -0.024026137 0.023722997 -0.07606762 -0.08809374
0002d0 0b 2b aa bd c2 89 da bb 25 b6 f0 3c df 89 01 bd
       -0.08308991 -0.006669254 0.029383728 -0.031625625
0002e0 55 a2 81 3d 27 f9 4f bd 61 47 30 bd a2 f8 91 bd
       0.063297905 -0.05077472 -0.043036822 -0.07127501
0002f0 a0 6c 68 bd 0f f8 a8 3d 45 46 0b 3b 05 d3 9d bb
       -0.056744218 0.082504384 0.00212516 -0.0048164153
000300 f9 6f 84 3d 97 1e 83 3d df a8 5e bd 59 36 4c 3d
       0.064666696 0.06402319 -0.054360267 0.049856517
000310 16 c9 9b bb 62 9f 3e 3c e0 9c 44 bd ec d0 62 bd
       -0.004754196 0.0116346795 -0.04800117 -0.055375025
000320 5e 20 29 bc 62 0b c1 bc 0d 88 ae bd a7 82 96 3d
       -0.010322658 -0.023564998 -0.085220434 0.07349139
000330 c6 d4 72 3d 23 4d 57 bd be e7 b7 3c f5 de 9b 3d
       0.059284948 -0.052563798 0.02244937 0.07610885
000340 1b f4 f0 3a 85 da 02 bd 15 7d 84 ba 26 e5 24 3d
       0.0018383296 -0.031946678 -0.0010108078 0.040257595
000350 68 2e 28 bc 0f bb 75 bd a3 88 6c bd 06 6f 55 3d
       -0.01026497 -0.059992846 -0.057747494 0.052107833
000360 5d dc 11 bd 04 1c 25 37 35 5a 77 bc df bb 4e bd
       -0.035610545 9.841289e-06 -0.015097191 -0.050472137
000370 67 2f 58 bd 21 ae c5 bc 69 2b bf bc 46 9e 84 3d
       -0.05277958 -0.024130883 -0.02333613 0.06475501
000380 e0 7a 84 3b a6 d8 96 bc a8 f5 8a 3d cf 67 96 3d
       0.004042968 -0.018413853 0.067851365 0.07344019
000390 44 81 42 bd bb 1b 8a bd 22 17 05 3d b7 cb 2c 3c
       -0.04748656 -0.067435704 0.032492764 0.010546616
0003a0 7c bf 39 3d 31 97 08 3d 8b 1c a6 bd 62 a3 88 bd
       0.04534863 0.033347312 -0.08110913 -0.06671788
0003b0 f6 4d 97 bd f7 3f a1 bd 63 aa 03 3d 69 e6 8a bc
       -0.07387917 -0.078735285 0.032144915 -0.016955571
0003c0 f1 47 8d 3d 4d 66 ae 3c 50 3c 20 bd 5a 5f 9e 3d
       0.06898487 0.021289015 -0.03912002 0.077330306
0003d0 b3 92 51 bd c4 d7 1a 3d d7 b4 83 3c c7 fc 7b 3d
       -0.051165294 0.037803426 0.016077442 0.061520364
0003e0 c5 88 22 bd b0 b6 59 bb 76 65 5a 3d bf 49 c4 3b
       -0.039681215 -0.0033220463 0.053319417 0.0059902365
0003f0 81 5e 0c bd f1 0d 7f 3d 9d 24 68 bd b1 b5 95 bd
       -0.034269813 0.062269155 -0.056675542 -0.073100455

4.bias f4 [64]
000000 16 50 fb bc 00 25 4a 3d df 16 17 bc d4 ac 7f 3d
       -0.030677836 0.049351692 -0.0092217615 0.06242068
000010 39 be 8d bd 72 0a b2 bd c7 27 13 3d 76 9a 85 bd
       -0.06921048 -0.086933985 0.035926607 -0.06523602
000020 f9 e4 58 bd f2 44 a7 bd 46 ba 34 bd 67 46 4e 3d
       -0.05295274 -0.08167447 -0.044122957 0.05036011
000030 ed 12 65 3d 8b ac 16 bc de e6 83 bd 8c 89 8c 3d
       0.055926252 -0.009196411 -0.06440519 0.068621725
000040 94 d2 67 3d 43 26 94 bd b8 e8 a1 bc 00 49 bf 3c
       0.056597307 -0.0723386 -0.01976429 0.023350239
000050 fe 15 49 3c 74 36 75 bd 42 65 9a bc 56 5c a1 bd
       0.01227331 -0.059866384 -0.018847112 -0.0787894
000060 2a 16 67 bd 72 86 a7 bc 44 c7 6d bd 14 8c 9f 3d
       -0.05641762 -0.02044985 -0.058051363 0.0779039
000070 06 13 ad 3d 6a e2 94 bd 4c 5a 2d bd 19 c8 89 bd
       0.08450894 -0.072697476 -0.042322442 -0.06727619
000080 d3 ce a2 3d eb ed 5b 3c 0c 7c 45 bd c8 91 79 3d
       0.07949605 0.013423423 -0.048214003 0.060930043
000090 d3 3b 68 3d 29 44 a6 bc 0c 61 77 bd 4a 91 67 bd
       0.056697678 -0.020296173 -0.060395285 -0.056535043
0000a0 58 48 0b 3d 2b d1 ac bd 35 6a 94 bd 09 4e b3 bc
       0.03400454 -0.08438333 -0.0724682 -0.021887796
0000b0 59 66 90 3c 4f 67 c9 bb 23 d4 a0 3d 0e ee 50 3d
       0.017626928 -0.0061463485 0.07852962 0.051008277
0000c0 52 0b 38 3d 75 44 91 bd b4 80 61 bd e4 b4 17 3d
       0.04493267 -0.07093135 -0.05505438 0.037037745
0000d0 4c 0e 93 bc 35 a3 46 bd 78 a8 97 bc 95 3c 80 bd
       -0.017951153 -0.04849549 -0.01851295 -0.06261555
0000e0 0c 84 34 3d 30 84 9e 3d 67 ba 92 3d f6 8c 45 3d
       0.044071242 0.077400565 0.0716446 0.048230134
0000f0 b9 cc 5e 3d 5f d0 ad 3b 62 f3 e2 3c 56 f1 52 bd
       0.054394457 0.005304381 0.027703945 -0.051499687

6.weight f4 [32, 64]
000000 1e 1d e2 bd bc 9c d0 3d 00 87 0f 3d 50 2c dc 3d
       -0.1104071 0.10186145 0.035040855 0.107506394
000010 1a ae c7 3d a0 ef d6 3d c4 0e f5 3d c0 5e bc bb
       0.09750004 0.104949236 0.11965707 -0.0057486
000020 24 a5 c1 bd 00 ca 93 bc ae ed c5 bd fe 64 ba 3d
       -0.09455326 -0.018040657 -0.096644744 0.09101294
000030 dc 5a 4a 3d 36 97 ea bd 86 74 bd 3d 30 1f c9 3c
       0.049403057 -0.114546224 0.09250741 0.024551004
000040 48 fb c6 3c f2 d2 8b bd 7c 66 11 3d cc 3b 2a 3d
       0.024289742 -0.06827344 0.035498127 0.041560933
000050 44 95 c4 3d fa b6 b9 bd 6a 5d f1 bd b0 e9 d2 3c
       0.09598783 -0.09068103 -0.117853954 0.025746197
000060 a0 38 27 3d 2e ef 83 3d 98 7c a3 3c 92 f8 bd 3d
       0.040825486 0.06442104 0.019956872 0.09275927
000070 30 d6 e8 bd 6c 9e 14 3d 3c 46 1e 3d 7c ca ed bd
       -0.11368978 0.036283895 0.0386412 -0.116108865
000080 58 a9 fd 3c 6c ff 3d bd c8 d8 3e 3d 98 c4 0b bd
       0.030964538 -0.046386167 0.046593457 -0.034123033
000090 00 a4 35 3b 38 1f b1 3c 68 c4 12 bd 9e 95 cb bd
       0.002771616 0.021621332 -0.03583184 -0.099406466
0000a0 22 9b d9 bd f0 af 3e bd 40 38 6d 3d a0 48 9e 3c
       -0.10625292 -0.046554506 0.057914972 0.01932174
0000b0 70 92 56 bc ec bb dd bd ae f2 c3 3d 42 b5 bf bd
       -0.013096437 -0.10826859 0.09567772 -0.09360744
0000c0 ea 55 ca bd 20 64 11 bd 00 c0 4f bd fa 88 be bd
       -0.09879668 -0.035495877 -0.050720215 -0.0930347
0000d0 00 28 96 39 ea 7f ff bd 1c d6 d2 3d 9e d9 c4 3d
       0.00028640032 -0.124755695 0.10294744 0.0961182
0000e0 90 fe 14 3c c0 98 30 3b 06 db 92 3d d6 11 d2 bd
       0.009093896 0.0026946515 0.07170682 -0.10257308
0000f0 74 e9 2f bd be 1a c3 3d 0e e5 f2 bd 66 61 f2 bd
       -0.042947248 0.09526585 -0.11860095 -0.118349835
000100 08 64 10 bd 60 6d 06 bc e6 ee ba bd 3c f8 12 3d
       -0.035251647 -0.008204788 -0.091275975 0.035881266
000110 14 98 40 3d de 2c 95 3d ce 9c a5 bd 80 5b c9 3a
       0.047020033 0.07283948 -0.08086549 0.0015362352
000120 a8 c4 f2 3d fc bf a2 bd d8 a4 11 3d ba 2a a6 bd
       0.118539155 -0.07946774 0.035557598 -0.08113618
000130 26 01 94 3d 42 a8 f2 3d 8c c8 0c bd f8 16 82 bd
       0.072267815 0.11848499 -0.034370944 -0.06352037
000140 ce 4e ce 3d d4 a4 62 3d c4 48 5e bd 74 25 6a bd
       0.100736246 0.055332974 -0.054268613 -0.057164624
000150 9c 28 08 3d 68 ae 9b bc a8 a2 09 bd 80 e5 96 3c
       0.033241853 -0.019004062 -0.033602387 0.018419981
000160 72 db fa 3d e8 da dd bd 0e cd 89 3d d8 81 f2 3c
       0.12248887 -0.10832769 0.06728564 0.02960293
000170 3a c4 c0 3d e4 06 42 3d 00 19 50 3d bc 26 79 3d
       0.09412427 0.047369853 0.05080509 0.060827956
000180 4c aa 7c bd e2 b9 a9 bd 4c 37 9d 3d d0 62 4b 3c
       -0.061685845 -0.082874075 0.07676563 0.012413695
000190 7a b7 9d bd f8 ec df 3c e8 37 7e 3d c6 bd a2 bd
       -0.07701011 0.027334675 0.062065035 -0.07946353
0001a0 ec 2a 21 3d 00 c3 07 bd 28 ea ae bd f0 02 76 bd
       0.039347574 -0.03314495 -0.085407555 -0.060061395
0001b0 0a c3 f8 bd e0 4e f5 bb ac e6 19 bd 80 32 b1 bb
       -0.12146576 -0.0074862093 -0.0375735 -0.0054076314
0001c0 70 66 40 3d 36 9a f3 bd 38 57 85 bd 48 85 40 3d
       0.046972692 -0.11894648 -0.06510776 0.047002107
0001d0 92 b1 94 3d 42 c0 96 3d ee 34 fb 3d ba a0 9a bd
       0.07260431 0.07360889 0.12265955 -0.075501874
0001e0 f0 71 1a bd 88 df f8 bc 90 52 e1 3c d8 35 2c 3d
       -0.037706316 -0.030380026 0.02750519 0.042043537
0001f0 f8 34 7e 3d 28 ca 42 bd 80 d5 0a 3b b4 cc 04 bd
       0.062062234 -0.047556072 0.0021184385 -0.032421783
000200 c8 76 12 3d c8 9f c9 bc 00 80 2b b7 5e 37 8e bd
       0.03575781 -0.024612322 -1.0222197e-05 -0.06944154
000210 fa f6 88 3d 90 63 f0 3c f6 06 b5 bd 20 a6 92 3d
       0.06687732 0.02934435 -0.08839218 0.07160592
000220 c2 3d c4 bd 84 2a 80 3d 98 83 4b 3d 4e ce d9 bd
       -0.09582092 0.06258109 0.049686044 -0.106350526
000230 28 b8 4e bd 78 9e 18 bd e0 9a f0 3c da 99 eb 3d
       -0.050468594 -0.037260503 0.029370725 0.11503954
000240 40 e0 e1 bb a4 7a 7c 3d 88 56 ec 3d 38 17 13 bd
       -0.0068931878 0.061640397 0.11539942 -0.035910815
000250 28 8e 9c bd 00 95 df bd 34 bd d3 3d 32 9b ac bd
       -0.07644302 -0.10917091 0.10338822 -0.08428039
000260 20 86 2e bc da 6f e5 3d a6 e8 94 3d ac 38 b0 bd
       -0.010652095 0.112029746 0.07270937 -0.08604559
000270 60 4d 22 3d 70 c4 61 bd 38 aa 5d 3d a4 f1 09 3d
       0.03962457 -0.055118978 0.05411741 0.033677712
000280 f4 ed b4 3d 50 0a c4 3d 4a 16 a0 bd 10 ea 7e bd
       0.088344485 0.095722795 -0.07816751 -0.06223494
000290 10 dc 46 3c 48 6a c6 3d a4 8e 59 bd 80 53 9a ba
       0.012137428 0.0968824 -0.05311455 -0.0011774153
0002a0 b0 bc fa 3d 4a ee a3 bd 48 60 e6 3c d0 eb 09 3c
       0.122430205 -0.080044344 0.028122082 0.0084180385
0002b0 a0 c3 20 3c fe f7 bf 3d 6c e1 ec 3d 76 51 e4 bd
       0.009812266 0.09373473 0.11566433 -0.1114835
0002c0 60 49 fc 3d 26 f7 9a 3d 98 9b 53 bd 50 3a bb 3c
       0.12318683 0.07566671 -0.051662058 0.022854954
0002d0 30 2b 7d 3c 18 4b 6b 3d c6 d6 9f bd f0 e5 c4 bc
       0.015452191 0.05744466 -0.07804637 -0.024035424
0002e0 c0 5e 2a bc b2 01 ef bd a0 08 ea 3b 6c a5 63 3d
       -0.010398567 -0.11670245 0.0071421415 0.05557768
0002f0 70 75 92 3d fe fb 90 bd 20 59 6e 3c c4 63 3f 3d
       0.07151306 -0.07079314 0.014547616 0.046726003
000300 c0 38 46 3c 40 00 16 3d 16 53 fe 3d 60 d3 42 bc
       0.012098491 0.036621332 0.12418191 -0.011891216
000310 dc a4 41 3d 5a 99 bc 3d 60 cb c4 bb 68 7e 63 bd
       0.047276363 0.09208937 -0.0060056895 -0.055540472
000320 e0 53 56 3c 70 f8 7f 3d cc be 32 3d 30 75 af bd
       0.013081521 0.062492788 0.04363899 -0.085672736
000330 b6 42 ec bd 20 61 e7 3d 2c 62 90 bd 68 de b0 3d
       -0.115361616 0.11297822 -0.07049975 0.086361706
000340 22 a1 fb 3d d0 94 2f bd 14 ad 18 bd 2c d3 6a bd
       0.12286593 -0.042866528 -0.037274435 -0.057330295
000350 10 cf 00 3c 50 9b 9f 3c 46 12 c6 bd 30 39 32 bc
       0.007861868 0.019483238 -0.09671454 -0.010877892
000360 c0 b8 55 3d 70 8c 12 3c f6 ce b2 bd d8 3c b4 bd
       0.052178144 0.008944616 -0.08730881 -0.088006675
000370 b8 37 de 3c d0 a8 2c 3d 7a ac db bd 58 91 2d 3d
       0.027126178 0.04215318 -0.10726257 0.04237494
000380 7c fc 3f bd d0 13 46 bd e8 ed c6 bd b0 76 6a 3d
       -0.046871647 -0.04835874 -0.09713346 0.057242095
000390 5c 7f 69 bd 38 01 4e bd 7c 18 cf bd 28 86 29 3d
       -0.057006225 -0.05029413 -0.10112092 0.041387707
0003a0 78 78 fe 3d 7c 66 31 bd f0 e7 13 bc 28 49 90 3c
       0.12425321 -0.043310627 -0.009027466 0.017613009
0003b0 ae 33 b1 3d 26 27 d2 3d 6c 7d 28 bd 14 07 e9 3d
       0.08652435 0.10261373 -0.041135237 0.11378303
0003c0 38 6f 7e 3d 6c c5 cb 3d e8 5a 42 bd 88 7d c2 bc
       0.062117785 0.099497646 -0.047449976 -0.023741499
0003d0 84 76 a8 3d 90 61 cf 3d bc c8 79 3d 80 dc e0 3c
       0.0822573 0.101260304 0.06098245 0.027448893
0003e0 84 4c b7 bd 20 77 e8 3d d4 80 f2 3d 12 db 83 bd
       -0.08950141 0.11350846 0.11840978 -0.06438269
0003f0 a8 bf 80 bd 44 53 87 bd 94 27 65 bd 48 6f 80 3c
       -0.062865555 -0.066076785 -0.055945948 0.015678063

6.bias f4 [32]
000000 28 c6 aa bc 78 f8 b4 3c 9c 77 bf bd 50 bf 85 3d
       -0.020846441 0.022091135 -0.093489856 0.065306306
000010 62 db b0 3d 00 8c 71 3a d0 56 c7 bc 70 db 1d bc
       0.08635594 0.0009214282 -0.024333388 -0.0096348375
000020 20 ed ec 3d 7e a8 a1 3d f6 ea ec bd 4e 68 f5 bd
       0.115686655 0.078934655 -0.11568253 -0.11982785
000030 ec fe b5 bd f2 cb fa bd ca a0 e9 3d ba 23 c0 bd
       -0.08886513 -0.12245931 0.11407621 -0.09381814
000040 88 0a 8c bc 72 c4 9c bd 28 18 d5 bd 98 25 51 bd
       -0.017094865 -0.076546565 -0.10404998 -0.051061243
000050 b2 75 d2 3d ec 84 63 bd 20 06 fe 3c 04 4a 24 3d
       0.10276355 -0.055546686 0.03100878 0.04010965
000060 c8 97 d1 bc f6 a0 f7 3d 36 7c 82 bd 50 99 07 bd
       -0.02558507 0.12091248 -0.063713476 -0.033105195
000070 36 18 ec 3d 70 d4 51 3c da bd af bd 4e 74 e3 bd
       0.11528055 0.012806997 -0.08581133 -0.11106168

8.weight f4 [12, 32]
000000 38 05 ed 3d 97 ad 5c 3b ee fb 82 3c 57 50 3e 3d
       0.11573261 0.0033672804 0.01598927 0.046463337
000010 24 62 30 be a7 cb b4 3d 68 05 4b 3c e0 3a 55 bd
       -0.17224938 0.08827906 0.012391426 -0.0520581
000020 8d 4a 25 be 1c ae fb 3d 33 f1 61 bd da 62 25 be
       -0.1614172 0.12289068 -0.055161666 -0.1615099
000030 9e 2e 2e 3d 36 54 46 bc 9c ec 25 bb 0c 72 fc bd
       0.042524926 -0.012105038 -0.0025318032 -0.1232644
000040 1b a9 01 be 77 47 d6 bd b3 53 79 3b 5d 97 20 3c
       -0.12662165 -0.104628496 0.0038044273 0.009801713
000050 ac ba e2 bd c4 a5 08 3e cb 49 23 3e d7 61 2e bd
       -0.11070761 0.13344485 0.15946119 -0.042573776
000060 01 95 06 bd 24 b6 e2 3d 97 30 06 3e a8 82 e6 bd
       -0.032856945 0.11069897 0.13104473 -0.112553895
000070 fd 48 b9 3d 5b e6 e0 3c a8 fe d7 3d d4 ae ec bc
       0.090471245 0.027453592 0.10546619 -0.028891958
000080 5d 40 25 3e 00 60 b7 3d 62 3c 02 be 6b 49 33 bc
       0.16137834 0.089538574 -0.12718347 -0.010942797
000090 e7 3d 20 be d6 41 00 be 3f 00 0a be 96 9a ef bd
       -0.15648614 -0.12525114 -0.13476656 -0.11699407
0000a0 ce 1d 4b ba e9 d0 0a 3e 31 36 19 3e bd 98 7c 3c
       -0.00077482767 0.13556255 0.14962079 0.015417275
0000b0 15 1f 65 bd 9f 7f 50 3d 1d 81 f6 3d 6c bc d0 bd
       -0.055937845 0.05090296 0.12036345 -0.101921886
0000c0 cb b1 df bc ef cb b1 3b 8b c0 11 3e c4 0d b1 3c
       -0.027306458 0.005425922 0.14233606 0.02161301
0000d0 be ac 7b bd 79 55 4a 3d e5 a0 bc 3c 42 aa 2f 3e
       -0.061444037 0.04939792 0.02302594 0.17154792
0000e0 4c 34 6d 3d e6 98 3c bb 02 8d d3 3d 8b 79 1a 3d
       0.057911202 -0.0028777658 0.103296295 0.03771357
0000f0 7e 66 23 bc fb 93 14 3b 96 fe 0d 3e 41 99 1a 3e
       -0.0099731665 0.002267121 0.13866648 0.15097524
000100 78 9c 5f 3d db 0e 92 3d c1 86 27 be dc 87 02 3e
       0.05459258 0.0713174 -0.16359998 0.12747139
000110 3e 22 88 3d a9 6c d1 3b f4 82 01 3e 39 1c 9b 3d
       0.06647156 0.006391127 0.12647611 0.075737424
000120 7c 22 c5 3d 62 86 1e be 0d 6e 30 3e 5f 18 04 3e
       0.09625718 -0.1548095 0.17229481 0.12899922
000130 79 97 f0 3d 25 b7 ef 3c 34 58 d6 bd 94 41 6d bd
       0.11747641 0.029262135 -0.10466042 -0.05792387
000140 20 39 ac bd f8 9e 06 3a 7a 42 16 bd df 38 a5 bc
       -0.08409333 0.00051353825 -0.03668449 -0.02016872
000150 a7 39 41 bb 67 b0 13 3d 39 1a 7e bd 85 af c5 3d
       -0.0029483826 0.036056902 -0.062036727 0.09652618
000160 72 ec be 3d e6 fe bc bb 5c 02 ba 3d 4c 18 15 bd
       0.09322442 -0.005767691 0.09082481 -0.036400124
000170 5c b0 93 bd 21 be 23 be 14 4e 9a 3d 36 d3 8e bd
       -0.07211372 -0.15990497 0.075344235 -0.06973879
000180 df 71 99 bd 67 a3 4f bd e1 f8 57 bd 4e 85 f5 b9
       -0.07492422 -0.050692942 -0.052727584 -0.0004682936
000190 fe 30 eb 3d 41 7e f6 3c 25 72 2d 3e 6c 60 a2 bd
       0.11483954 0.0300895 0.16938074 -0.07928547
0001a0 55 32 36 bd a0 53 21 3e 02 07 bf 3d fb 5e bc bd
       -0.044481594 0.15754557 0.093275085 -0.091978036
0001b0 88 fd 82 bd 19 c5 5c 3c 30 6c b1 3d 51 88 24 bc
       -0.063960135 0.013474726 0.08663213 -0.010042266
0001c0 3c fe d7 3d 0a 5b ec 3d 1c f4 f1 bd 34 29 fa 3d
       0.10546538 0.11540802 -0.11814138 0.1221489
0001d0 60 4b 1c be 12 cd f4 3d db d5 23 be e5 d7 11 3e
       -0.15263128 0.119531766 -0.15999548 0.14242513
0001e0 84 32 74 bc 22 8c 5c bd c7 92 d3 bd 1f bf de bc
       -0.014904622 -0.05384458 -0.1033073 -0.027190743
0001f0 de d9 cc 3c e6 95 08 3e b1 c4 11 3e 07 a5 a3 3d
       0.02500623 0.13338432 0.14235188 0.07990461
000200 3b f9 94 bd f5 af 20 3e 64 75 1c 3e f5 d4 12 be
       -0.072740994 0.15692122 0.15279156 -0.14339049
000210 87 4a e4 bd 9e ee 29 3e 81 6c c0 bc 7c cd 45 bd
       -0.111470275 0.16594931 -0.023489239 -0.04829167
000220 e3 e0 b8 bd 29 0e 75 bc 64 61 fb 3c ba 16 26 3d
       -0.09027269 -0.014956989 0.030686088 0.040549017
000230 03 b4 48 bd 59 42 50 bc 98 2e fe bd 86 5b 4f 3d
       -0.048999798 -0.012711131 -0.12411231 0.050624393
000240 fa 25 2a be e5 c6 2d 3d 05 0f 88 bc 1a fd 22 3e
       -0.1661605 0.04242601 -0.016608724 0.15916863
000250 9d eb 1d 3d 4c e4 df 3d 8b ab 9f bc ed d2 c0 3d
       0.038554776 0.10932216 -0.019490978 0.09415231
000260 e5 c4 ea 3b ac 2c dc 3d 1d 3b 52 bd 5d 0a 5b bc
       0.007164585 0.10750708 -0.051325906 -0.01336917
000270 f0 87 ba 3d fc a1 2e bd 3f 43 1d 3e 0c 37 9f bc
       0.09107959 -0.04263495 0.15357684 -0.019435428
000280 eb c4 f4 3d 70 a0 c1 3d ea aa 10 3e 29 57 af 3d
       0.119516216 0.09454429 0.14127699 0.08561546
000290 6a 6f 67 bd 0c fb 1a be 32 ae 8a 3d 0d 80 1d 3e
       -0.056502737 -0.1513483 0.06771506 0.15380879
0002a0 61 8d 93 3c db 3a a0 bd e0 50 2f be 0e e8 61 bd
       0.01801175 -0.07823726 -0.17120695 -0.055152945
0002b0 8c 62 23 be f5 7a b1 3d 10 a2 95 3d f8 bf 15 be
       -0.15955561 0.0866603 0.073063016 -0.14624012
0002c0 e3 4f 20 be 74 df 12 3d 4b b8 c5 bd 0a a6 bb bd
       -0.15655474 0.035857633 -0.09654292 -0.09162529
0002d0 6e 57 da bd 14 bc 05 3e 4c 6b 43 3d f3 d5 ed bd
       -0.10661207 0.13060027 0.04770975 -0.11613073
0002e0 e7 fe 2b be e0 d8 bf 3d 52 1a 56 3d c6 4d 88 3b
       -0.16796456 0.093675375 0.052271195 0.004159662
0002f0 42 b8 23 3e 06 a1 ac bc 65 52 c7 3d 5d 9d 05 bd
       0.15988258 -0.021072876 0.097325124 -0.032620776
000300 6d 66 cd bd 87 68 fd 3d 66 18 1c 3e 5d 91 05 3e
       -0.10029302 0.12373453 0.15243682 0.13043733
000310 7c 3a 32 be cb 1e 54 bc 33 39 54 bd 9b 31 2b 3e
       -0.17405123 -0.012946795 -0.051812362 0.16718142
000320 18 ed 3f 3d 9d cc 64 bd 0d c8 9d bd 82 b4 2e be
       0.04685697 -0.055859197 -0.07704172 -0.17061046
000330 d4 2c 22 be 85 3e d1 bc 59 e7 d4 bc 45 fd 23 be
       -0.15837413 -0.025542507 -0.025989221 -0.16014583
000340 9b 0f b4 3d d7 48 1d 3e b0 98 2d 3e e7 4d 0e 3e
       0.08792039 0.15359817 0.16952777 0.13896905
000350 2a eb 73 bd 64 63 8b bc f7 bd 0f be f8 d1 67 3d
       -0.05955044 -0.017015167 -0.1403731 0.056596726
000360 90 b3 95 bd 39 f9 5d bc f1 32 af bd f4 48 33 bd
       -0.073096395 -0.013548189 -0.08554638 -0.043770745
000370 7a 27 50 bd cc eb b3 3d 44 90 90 bd d1 c1 9f bb
       -0.050818898 0.08785209 -0.070587665 -0.0048753996
000380 70 fd cf bd 46 0b 5e bd d0 36 82 bd 84 7e 6e bd
       -0.10155761 -0.05420997 -0.06358111 -0.058226123
000390 45 e8 12 3d d3 f1 cd bd 1a a6 94 bc e8 b1 17 3d
       0.03586604 -0.1005589 -0.01814561 0.0370349
0003a0 ec ae ce 3d 76 ad 0d be f6 d5 8c b9 bf 4a fa 3d
       0.100919574 -0.13835701 -0.00026862294 0.12221288
0003b0 5d 63 ae bb 86 64 1d 3e 8d 52 af 3d 8a 95 2f be
       -0.0053219036 0.15370378 0.08560667 -0.17146888
0003c0 01 de b6 bb 02 0f 30 be 9a 21 1f be 51 81 a1 bd
       -0.005580664 -0.17193225 -0.15540162 -0.07885993
0003d0 15 d4 f7 bd 93 8d f0 bc 26 22 a7 3d d8 f4 2f 3e
       -0.12100998 -0.029364383 0.0816081 0.17183244
0003e0 18 d3 e7 bd e0 5d 12 3d 03 f4 99 ba 81 59 87 bd
       -0.1131956 0.035734057 -0.0011745695 -0.066088684
0003f0 4e 8c 11 bd a6 d6 ad bb 64 f3 bb 3c 34 0f 13 3d
       -0.035534196 -0.005305129 0.022943206 0.03590317

8.bias f4 [12]
000000 7d 1e e4 bd fc 31 5f 3d d5 71 af bc 9f 34 cd 3d
       -0.11138628 0.05449103 -0.021416584 0.10019802
000010 0e 9d 8d bd 17 fd 84 3d e2 9d a4 3c f7 8e 90 bd
       -0.069147214 0.064935856 0.020094816 -0.070585184
000020 24 11 a1 bd f4 b5 21 3e a7 fc b4 3d 6b 61 d6 bd
       -0.078645974 0.15792066 0.08837252 -0.104678
