unitree_0_ar.pt (torch, 19322 bytes, 5 tensors)

fc1.weight f4 [64, 31]
0	0x3c62502e	0.013813062
1	0xbe37bdd9	-0.17943515
2	0xbdd94e8e	-0.10610686
3	0x3e379e74	0.17931539
4	0x3d69a542	0.057042368
5	0xbd11c778	-0.03559062
6	0xbdcb08e9	-0.09913809
7	0xbd0b5827	-0.034019616
8	0x3e07508e	0.13214323
9	0xbcece1ef	-0.028916327
10	0xbd28438c	-0.041080043
11	0xbd0ef8d2	-0.034905262
12	0xbd803c1d	-0.06261466
13	0xbdbc1f92	-0.09185709
14	0x3ddaaf61	0.10677982
15	0xbe141319	-0.1446041
16	0x3e102365	0.14076002
17	0xbe26b1a9	-0.1627871
18	0xbd942ffc	-0.07235715
19	0x3e367bfb	0.17820732
20	0x3e2e8215	0.1704181
21	0xbd9fd30e	-0.07803927
22	0xbd3c130b	-0.0459166
23	0xbd757b67	-0.05993214
24	0xbd5c0b3a	-0.053721644
25	0xbe1f3f9d	-0.1555161
26	0x3c08ae2b	0.008342306
27	0x3e2cafac	0.16863889
28	0x3e1fcfa7	0.15606557
29	0x3e2cafda	0.16863957
30	0xbc9606e3	-0.01831383
31	0x3dd4ebcf	0.103965394
32	0x3da1a6a8	0.07893115
33	0xbe1b7fc5	-0.15185459
34	0xbd0669e8	-0.032815844
35	0x3de69b05	0.112600364
36	0xbdd8fe65	-0.10595397
37	0xbde943d3	-0.113898896
38	0xbe05c03a	-0.1306161
39	0x3dd9fa8a	0.1064349
40	0xbe09dc70	-0.13462996
41	0x3e0a12a8	0.1348368
42	0x3b464641	0.0030254277
43	0xbd189a32	-0.037256427
44	0x3e280cf7	0.16411196
45	0x3e2cf3b9	0.16889848
46	0x3da64a94	0.081196934
47	0xbdf237b9	-0.118270345
48	0x3e243152	0.16034439
49	0x3e0a19e5	0.1348644
50	0xbe0fa17c	-0.14026445
51	0xbcffa7dc	-0.031207971
52	0x3d977654	0.07395616
53	0x3e03a31a	0.12855187
54	0xbde597ed	-0.11210618
55	0xbe0b8b4c	-0.13627356
56	0xbd94fd7a	-0.07274909
57	0xbd863052	-0.06552185
58	0xbd7962a3	-0.060885083
59	0xbda248da	-0.079240516
60	0xbe326e63	-0.17424922
61	0x3d1427f9	0.036170933
62	0xbd3cdfa2	-0.04611171
63	0x3dd91887	0.10600381
64	0x3d830d8d	0.06399069
65	0x3dc6d28d	0.09708128
66	0xbb918a67	-0.0044415477
67	0xbdf528b2	-0.11970653
68	0xbd479a8a	-0.048731364
69	0x3c234912	0.009966152
70	0x3dee67bc	0.116408795
71	0xbca59b79	-0.020215737
72	0xbddeb1fb	-0.10873791
73	0xbdd050ec	-0.101716846
74	0xbd5b8a34	-0.053598598
75	0x3dc52ff8	0.0962829
76	0xbe091e61	-0.13390495
77	0x3dcec27b	0.10095688
78	0x3d257394	0.040393427
79	0xbdaae50c	-0.083444685
80	0x3e29b222	0.16571859
81	0xbe194243	-0.14966683
82	0x3e05b08b	0.13055627
83	0xbde2e386	-0.11078553
84	0xbd323e47	-0.043516424
85	0x3de55a21	0.11198831
86	0xbdecda78	-0.11565107
87	0x3e2bf921	0.16794254
88	0xbe0fdba1	-0.14048626
89	0x3de50c31	0.11183966
90	0x3ca5b65e	0.020228561
91	0x3c0264a2	0.007958563
92	0xbe171737	-0.1475495
93	0x3de3db05	0.11125759
94	0x3b72cff6	0.0037050224
95	0x3daba060	0.083801985
96	0x3d4a6ecc	0.04942207
97	0x3e2ca97f	0.16861533
98	0x3e2e27ca	0.17007366
99	0xbdd80e1b	-0.105495654
100	0x3e2dab81	0.16959955
101	0x3e104fff	0.14093016
102	0x3e1bb32f	0.15205072
103	0x3e333ed6	0.17504439
104	0xbdfd0c55	-0.12355868
105	0xbdaee6b1	-0.08540095
106	0xbe21bec3	-0.15795426
107	0xbe03dafa	-0.12876502
108	0xbe13dbfe	-0.14439389
109	0x3e362f64	0.17791516
110	0x3dd8b9b8	0.10582298
111	0x3d600899	0.0546957
112	0xbdf254a3	-0.118325494
113	0xbd6e8ca2	-0.058239587
114	0x39955781	0.0002848469
115	0x3e12b627	0.14327298
116	0xbda61d9f	-0.081111185
117	0xbe13bb21	-0.14426853
118	0x3b13e4cc	0.0022566793
119	0x3dcb4bd3	0.09926572
120	0x3df700e9	0.120607205
121	0xbdb32e0a	-0.08749016
122	0xbe0612ba	-0.13093081
123	0xbcbe3a68	-0.02322121
124	0x3d59ad49	0.053143773
125	0x3dfc9103	0.12332346
126	0x3e1b2bfd	0.15153499
127	0x3dde9103	0.108675025
128	0xbd1827fe	-0.037147515
129	0xbdcb317e	-0.09921549
130	0x3e07259c	0.1319794
131	0x3e144188	0.14478123
132	0xbd9cbe88	-0.076535285
133	0x3e110a35	0.1416405
134	0x3cc09815	0.023510018
135	0xbd9db815	-0.077011265
136	0x3e003b80	0.12522697
137	0x3d95f45e	0.07322
138	0xbdd7adf3	-0.10531225
139	0x3d1c6228	0.038179547
140	0xbdbd6cb4	-0.09249249
141	0xbd2f4a12	-0.04279525
142	0x3b4b502e	0.0031023133
143	0xbcaa0456	-0.02075402
144	0x3ddc9575	0.10770694
145	0x3c810c1b	0.015752843
146	0xbe35392b	-0.17697589
147	0xbe181340	-0.14851093
148	0x3dbd19df	0.0923345
149	0x3e0b0bca	0.13578716
150	0x3dc890bf	0.09793233
151	0x3ac37552	0.0014912284
152	0xbe317a5e	-0.17331836
153	0xbdc1c012	-0.09460463
154	0xbd878dbb	-0.0661883
155	0x3d4147ea	0.047187723
156	0xbd2cbed3	-0.04217417
157	0xbda38cb9	-0.07985825
158	0x3db1dff9	0.086852975
159	0xbe1baf6b	-0.15203635
160	0xbd284dac	-0.0410897
161	0xbe0ca23d	-0.13733764
162	0x3d8ad86e	0.06779562
163	0xbe29fa5a	-0.16599408
164	0x3dd678a5	0.1047223
165	0x3cbf5178	0.023354277
166	0xbe0cc347	-0.13746367
167	0x3cb85130	0.02249965
168	0x3d54ac79	0.051922295
169	0x3e0b7996	0.136206
170	0xb9d5703f	-0.00040710156
171	0xbe299319	-0.1656002
172	0x3cd56b2c	0.02605208
173	0xbdc9ded5	-0.09856955
174	0x3d4f9958	0.05068335
175	0x3d97b855	0.074082054
176	0xbd9e0e3c	-0.07717559
177	0x3dc827c4	0.0977321
178	0x3d03d54c	0.032185838
179	0x3e33069c	0.1748299
180	0x3d66e2bd	0.05636858
181	0xbbbf20cc	-0.005832767
182	0x3e0a877a	0.13528243
183	0xbc2c15f3	-0.01050328
184	0xbdf8fc32	-0.121574774
185	0xbe36673b	-0.17812817
186	0x3e115da3	0.14195876
187	0xbe2ccd81	-0.16875269
188	0xbe2ed0c1	-0.17071821
189	0xbe2018a5	-0.15634401
190	0xbd938edb	-0.07204982
191	0xbe15bd16	-0.14622912
192	0x3e233386	0.15937623
193	0x3a3729eb	0.0006987142
194	0x3d964e6b	0.07339176
195	0xbc8bf55f	-0.017084775
196	0xbdebdbdc	-0.11516544
197	0x3ab1cf2b	0.0013565769
198	0xbddbf32c	-0.10739741
199	0xbdf3d5ab	-0.11905988
200	0xbe282b97	-0.16422878
201	0xbd1cc68e	-0.038275294
202	0x3dd5f02e	0.10446201
203	0x3db54b5e	0.08852266
204	0x3d409c03	0.047023784
205	0xbdcba26b	-0.09943088
206	0x3dcdc423	0.10047176
207	0xbae2aae2	-0.0017293359
208	0x3d0b60d7	0.0340279
209	0x3e2db8de	0.16965052
210	0xbddac2cf	-0.10681688
211	0x3dc04c7d	0.09389589
212	0x3d057c61	0.03258932
213	0x3d44d6df	0.04805648
214	0x3df09527	0.117471986
215	0x3d4c1d9b	0.04983292
216	0x3e276fc7	0.16351233
217	0x3e205840	0.15658665
218	0x3cf2516d	0.029579842
219	0xbdef6044	-0.11688283
220	0x3d7aea67	0.0612587
221	0xbe1045b7	-0.14089094
222	0x3d9a172c	0.07523951
223	0x3e373284	0.17890364
224	0xbc934943	-0.01797927
225	0x3d8ab42c	0.06772646
226	0x3dd5c176	0.1043729
227	0x3d59e7ed	0.053199697
228	0x3cd3a868	0.025837138
229	0x3cc3401d	0.023834283
230	0xbd89f87f	-0.0673685
231	0x3e2a4766	0.16628799
232	0xbdf0a8dd	-0.11750958
233	0xbe09c69c	-0.1345467
234	0x3c2441ea	0.010025481
235	0xbd827cc8	-0.063714564
236	0xbe2779f0	-0.16355109
237	0x39b4b494	0.00034466817
238	0x3d7169c2	0.05893875
239	0xbdab9ceb	-0.08379539
240	0xbdf3fc76	-0.119133875
241	0x3e2bcc85	0.16777237
242	0x3e2f21ce	0.17102739
243	0xbd8c2c66	-0.06844406
244	0xbd0520bc	-0.03250192
245	0x3dc5c1d2	0.09656109
246	0x3e12d805	0.14340217
247	0xbe18b3c3	-0.14912324
248	0x3d8b23b8	0.06793922
249	0xbe1e66d8	-0.1546892
250	0x3cdfc590	0.027315885
251	0xbd09333b	-0.033496123
252	0xbe165ca1	-0.14683773
253	0x3d75f378	0.060046643
254	0xbdbdbbbe	-0.092643246
255	0xbd322cdb	-0.04349981

fc1.bias f4 [64]
0	0x3dc533c6	0.096290156
1	0x3dd925b7	0.10602897
2	0xbd03e6c9	-0.032202516
3	0xbc4634d5	-0.012097557
4	0x3d6537e8	0.05596152
5	0x3de4334c	0.111425966
6	0xbe1e9f08	-0.15490353
7	0xbdab5e5c	-0.08367607
8	0xbdafa8c8	-0.08577114
9	0xbdb66e9c	-0.08907816
10	0x3e0f0abd	0.1396894
11	0xbd8ea401	-0.06964875
12	0xbdd958a8	-0.10612613
13	0x3dcba4e6	0.09943561
14	0xbddac1cf	-0.10681497
15	0x3dfa1abe	0.12212132
16	0x3e191a44	0.14951426
17	0xbe1a64f1	-0.15077569
18	0x3d1261dc	0.035737857
19	0x3e16563f	0.14681338
20	0xbdac6b57	-0.08418911
21	0x3e109271	0.14118363
22	0xbd055442	-0.032551058
23	0x3e160305	0.1464959
24	0xbdee11e5	-0.11624507
25	0xbe01e784	-0.12685972
26	0xbdef3329	-0.1167968
27	0x3e2447db	0.16043036
28	0xbd44792a	-0.047967114
29	0xbe1ac1bf	-0.15112971
30	0x3e299f03	0.16564564
31	0xbdc4afa1	-0.09603811
32	0xbd8f1d4b	-0.06988009
33	0x3e1154ab	0.14192455
34	0x3e0b141a	0.13581887
35	0xbddf05ef	-0.108898036
36	0xbd584eb8	-0.052809447
37	0xbe36c66c	-0.1784913
38	0x3d965a2e	0.07341419
39	0x3dca1b31	0.098684676
40	0xbde386a7	-0.11109667
41	0xbe0bdacf	-0.13657688
42	0xbe060555	-0.13087972
43	0xbd254a90	-0.04035431
44	0x3d96ab20	0.07356858
45	0x3d94da38	0.072681844
46	0x3d1a3196	0.037644945
47	0xbe089803	-0.13339238
48	0x3e1d2aba	0.1534833
49	0xbdf72c8e	-0.12069045
50	0x3d0c4feb	0.034255903
51	0x3d5bd4e6	0.053669833
52	0xbd850a68	-0.064961255
53	0x3d93958c	0.07206258
54	0x3e047d3c	0.12938398
55	0x3e35c681	0.17751504
56	0x3da55c9a	0.08074303
57	0x3df29ea8	0.118466675
58	0xbe341a2a	-0.17588106
59	0x3cea60ed	0.028610671
60	0x3d3c4a62	0.045969374
61	0xbdbdb216	-0.09262483
62	0x3d186a5b	0.037210803
63	0x3d99af99	0.07504196

fc2.weight f4 [32, 64]
0	0xbc4ce480	-0.0125056505
1	0x37e82000	2.7671456e-05
2	0x3d99da6c	0.07512364
3	0x3de3c8b8	0.111222684
4	0x3cb22af0	0.02174899
5	0x3da3769e	0.07981609
6	0x3ddb0e38	0.106960714
7	0xbdd854c4	-0.10563043
8	0xbd565250	-0.052324593
9	0xbdc2f936	-0.095201895
10	0x3d929848	0.071579516
11	0xbdf7c7c4	-0.12098649
12	0x3ca03d90	0.019560605
13	0xbd2f7ce8	-0.04284373
14	0x3d48de34	0.049040034
15	0xbcca2be0	-0.024679124
16	0xbbf556a0	-0.007487133
17	0xbdc0200c	-0.093811125
18	0xbcf46760	-0.02983445
19	0xbdf245f2	-0.11829747
20	0x3d77eb90	0.060527384
21	0xbcd8c4b8	-0.02646099
22	0xbd78eb50	-0.060771286
23	0x3df1252e	0.117746696
24	0x3d87e506	0.0663548
25	0xbdd877a0	-0.10569692
26	0xbc6c08c0	-0.014406383
27	0xbd3a6638	-0.04550764
28	0xbc9132e8	-0.01772447
29	0x3dc4668c	0.09589872
30	0xbde6c626	-0.112682626
31	0x3d5d3380	0.054004192
32	0xbdfd4e90	-0.123685
33	0x3ddff0fe	0.109346375
34	0x3bcf92a0	0.0063346177
35	0xbd91a124	-0.07110813
36	0x3d9d29b6	0.07673971
37	0xbdd07ff4	-0.10180655
38	0x3d31e1b8	0.043428153
39	0x3da7edda	0.081996635
40	0xbc818de8	-0.015814736
41	0x3db44078	0.08801359
42	0x3d6a6884	0.05722858
43	0xbd8881b0	-0.06665361
44	0xbd7eff20	-0.062255025
45	0xbd094c34	-0.03351994
46	0x3c8ecdc8	0.017432109
47	0x3d1a0354	0.03760083
48	0xbc101f80	-0.008796573
49	0xbd315620	-0.043295026
50	0xbd9be9fc	-0.07612988
51	0xbcdb4c18	-0.026769683
52	0xbc640120	-0.013916284
53	0x3c951c38	0.018201932
54	0xbd231c04	-0.03982164
55	0x3d55fad4	0.05224116
56	0x3d963cc2	0.073358074
57	0x3d4d3554	0.050099686
58	0xbcd33a68	-0.025784686
59	0xbbce82c0	-0.0063022077
60	0x3d7c1474	0.061542943
61	0x3c77bb20	0.015120298
62	0xbd29260c	-0.04129605
63	0x3da1086c	0.078629345
64	0x3da01d14	0.07818046
65	0x3d366100	0.0445261
66	0x3d9b0a7c	0.07570359
67	0x3daaeebe	0.08346318
68	0xbddfb4b8	-0.10923141
69	0xbdfdd1b6	-0.12393515
70	0xbc3c1f60	-0.01148209
71	0xbd666c40	-0.05625558
72	0xbd949ec2	-0.07256843
73	0x3ded2a6e	0.115803584
74	0x3de324fc	0.110910386
75	0x3c787cf0	0.015166506
76	0xbd9de4a4	-0.07709625
77	0x3dd6494e	0.104632005
78	0x3da1cc6a	0.07900317
79	0x3da89b12	0.08232702
80	0x3b9c3be0	0.00476788
81	0xbda72a3a	-0.08162351
82	0x3d0522cc	0.032503888
83	0xbd6f95d8	-0.05849251
84	0xbcb7e048	-0.022445813
85	0xbc7e0a90	-0.015505448
86	0x3d162990	0.03666073
87	0x3dcb4db6	0.099269316
88	0xbba68760	-0.005082056
89	0x3d9d4abe	0.076802716
90	0x3d84671e	0.064649805
91	0x3df54776	0.11976521
92	0xbc1abf30	-0.009444997
93	0xbdd4ae36	-0.103847906
94	0x3c5905e0	0.01324603
95	0xbda16306	-0.07880215
96	0xbd3019b4	-0.042993262
97	0xbd47937c	-0.048724636
98	0xbd9e5aac	-0.07732138
99	0x3b251240	0.002518788
100	0x3c3899b0	0.011267111
101	0xbde8afda	-0.11361666
102	0xbd386254	-0.045015648
103	0xbcfaf0f0	-0.030632466
104	0x3ddc7312	0.107641354
105	0x3d72f9cc	0.059320256
106	0x3ddd030e	0.10791598
107	0x3ddbd554	0.107340485
108	0xbb304440	-0.002689615
109	0xbde58060	-0.11206126
110	0x3bb39ea0	0.005481556
111	0xbc7aee40	-0.015315592
112	0xbd86beaa	-0.06579335
113	0xbdf07626	-0.11741285
114	0xbdd28b00	-0.102804184
115	0xbdc392c2	-0.09549476
116	0x3df3a7ea	0.118972614
117	0xbd99ecbe	-0.07515858
118	0xbd8d54b6	-0.06900923
119	0x3dfe7826	0.1242526
120	0xbd29be9c	-0.041441545
121	0x3dc20a5c	0.09474632
122	0xbde7707c	-0.113007516
123	0x3de2950e	0.11063586
124	0x3cb824d8	0.022478506
125	0x3da0e1d0	0.0785557
126	0x3d125bf0	0.03573221
127	0xbd6acf10	-0.057326376
128	0xbdabdc2a	-0.08391602
129	0x3dce6a5e	0.10078882
130	0xbdfba00c	-0.12286386
131	0xbdd950da	-0.10611124
132	0x3dfa8468	0.12232286
133	0x3db41e46	0.08794837
134	0xbc8f12d0	-0.017465025
135	0xbd91a574	-0.07111636
136	0x3d534c8c	0.051586673
137	0x3cf512f0	0.029916257
138	0x3deafe48	0.114742815
139	0x3d709ef0	0.058745325
140	0x3de502ac	0.1118215
141	0x3d794aec	0.060862467
142	0xbc968298	-0.018372819
143	0x3d1e81b0	0.0386979
144	0x3da1aa58	0.078938186
145	0xbdd0e110	-0.10199177
146	0xbdc3bff4	-0.095580965
147	0xbb0ab240	-0.0021163374
148	0x3d3b2100	0.045685768
149	0x3dfe52b4	0.12418118
150	0x3dd8f51a	0.105936244
151	0x3da49832	0.080368415
152	0xbde901be	-0.113772854
153	0xbdfcca82	-0.12343313
154	0xbc677950	-0.014128044
155	0x3de0145c	0.10941383
156	0x3dd8f2de	0.10593198
157	0x3de0a8a0	0.10969663
158	0xbdad5a44	-0.084644824
159	0xbcc07958	-0.023495361
160	0xbdf25bec	-0.11833939
161	0xbda78fc2	-0.081817165
162	0x3deb3426	0.11484556
163	0x3de5edc6	0.11226992
164	0x3d681154	0.05665715
165	0xbd9c57c0	-0.076339245
166	0x3d92c690	0.07166779
167	0xbcb6a138	-0.022293672
168	0xbd82c3d8	-0.063850105
169	0x3ab4bc80	0.0013789088
170	0xbdf97a6c	-0.12181553
171	0x3cd1fe80	0.02563405
172	0xbdcf000e	-0.10107432
173	0xbdd97d96	-0.10619657
174	0xbdf44436	-0.11927073
175	0xbdf8582e	-0.12126194
176	0x3d8d9a18	0.06914157
177	0x3ddc4d64	0.107569486
178	0xbd1855f8	-0.03719136
179	0x3de91b4e	0.11382161
180	0x3d27bc84	0.040951267
181	0xbd274de8	-0.04084578
182	0x3bdd5ea0	0.006755665
183	0xbd8dee1e	-0.06930183
184	0x3d0476ac	0.032339737
185	0xbda95b5e	-0.0826938
186	0xbc646200	-0.013939381
187	0x3dce1f94	0.10064617
188	0xbda8196c	-0.08207974
189	0xbd7e8be0	-0.062145114
190	0xbde88f92	-0.11355509
191	0x3cad2e88	0.021140352
192	0xbd8189da	-0.06325121
193	0x3dc41b6c	0.09575543
194	0xbcf1f270	-0.029534549
195	0x3d1b65ac	0.03793876
196	0x3db74654	0.08948961
197	0x3d901b96	0.070365116
198	0xbd4b81d0	-0.049684346
199	0x3d5474bc	0.05186914
200	0xbda613b0	-0.08109224
201	0xbdcc4a92	-0.09975161
202	0x3dd8c938	0.105852544
203	0xbdb33b4a	-0.08751543
204	0xbdb7f4c8	-0.08982235
205	0x3d4e2310	0.050326407
206	0xbbf96fc0	-0.0076121986
207	0xbd50310c	-0.050828025
208	0x3db0683e	0.086136326
209	0x3ca04a30	0.019566625
210	0x3d307fc0	0.043090582
211	0xbce11238	-0.027474508
212	0x3d9c86b2	0.076428786
213	0x3c64a060	0.013954252
214	0xbdda00c0	-0.10644674
215	0xbd025a78	-0.03182456
216	0xbd536510	-0.051610053
217	0xbd8ce25c	-0.06879112
218	0x3dd70ad0	0.10500109
219	0xbdae2282	-0.085026756
220	0xbdbfd2ea	-0.093664005
221	0xbdca4bd0	-0.09877741
222	0xbcc3d530	-0.023905367
223	0xbc9adb68	-0.01890345
224	0xbdba540a	-0.090980604
225	0x3c9d45f8	0.019198403
226	0xbdc7a478	-0.09748167
227	0x3c84a3c0	0.016191363
228	0xbdca46d2	-0.09876789
229	0x3c1bbbc0	0.009505212
230	0xbd0eb374	-0.03483911
231	0xbdf5e26e	-0.12006079
232	0x3d819598	0.06327361
233	0x3d3f6b9c	0.046733484
234	0xbda5a618	-0.080883205
235	0x3d3d7b90	0.046260417
236	0x3b4795c0	0.0030454248
237	0x3dcd0f2c	0.100126594
238	0x3d1f89d0	0.038949788
239	0x3cad2400	0.02113533
240	0xbdb5b86c	-0.08873066
241	0x3c454920	0.01204136
242	0x3dec09c4	0.115253
243	0xbd0a2dd0	-0.033735096
244	0x3ddaa3c8	0.1067577
245	0x3b8caa00	0.0042927265
246	0x3dfe135c	0.12406036
247	0x3dcb800a	0.09936531
248	0x3c9ca978	0.019123778
249	0xbc825738	-0.01591073
250	0x3d30b2c0	0.04313922
251	0xbd608dfc	-0.054822907
252	0xbdb7205a	-0.089417174
253	0xbd517e68	-0.05114594
254	0xbd85e7c4	-0.065383464
255	0xbc65e080	-0.014030576

fc2.bias f4 [32]
0	0x3d8d8ad4	0.06911245
1	0xbce97738	-0.02849923
2	0xbd9baaf6	-0.076009676
3	0xbd63c00c	-0.055603072
4	0x3dbb0218	0.09131259
5	0x3d9ec068	0.07751542
6	0x3dc89546	0.09794097
7	0x3daba298	0.08380622
8	0x3c181160	0.009281486
9	0xbcdaa670	-0.026690692
10	0x3cf42f68	0.029807761
11	0x3b23d300	0.0024997592
12	0x3dc8e176	0.09808628
13	0xbd221190	-0.03956753
14	0x3b4fe940	0.0031724721
15	0x3b7a1680	0.0038160384
16	0xbdff661e	-0.12470649
17	0xbd971330	-0.073767066
18	0xbd0ee434	-0.0348856
19	0xbd7fda14	-0.062463835
20	0xbb99be00	-0.004691839
21	0xbcd1ee28	-0.025626257
22	0x3cd48a10	0.02594474
23	0x3c7b7dd0	0.01534982
24	0xbd97a962	-0.07405354
25	0xbd843a1a	-0.064563945
26	0x3d67eb44	0.05662085
27	0x3d05bd64	0.03265132
28	0x3c436b20	0.011927396
29	0xbda24104	-0.07922557
30	0x3d12fad0	0.035883725
31	0x3dc749a2	0.09730841

fc3.weight f4 [1, 32]
0	0x3d38c506	0.04510977
1	0xbe31d221	-0.17365314
2	0x3c309b2b	0.010779182
3	0x3cb7a075	0.022415379
4	0x3df1c0ef	0.11804377
5	0x3d0570f2	0.032578416
6	0xbc65fac5	-0.014036839
7	0xbc9c6161	-0.019089403
8	0x3d98534e	0.07437764
9	0xbe073e7d	-0.13207431
10	0xbe0a4f54	-0.13506824
11	0xbd63d592	-0.0556236
12	0x3db8a61f	0.0901606
13	0x3db2c960	0.087298155
14	0x3d712381	0.05887175
15	0xbdddf4ec	-0.10837731
16	0x3d949565	0.07255057
17	0x3df8421e	0.12121986
18	0x3cda441b	0.026643803
19	0x3cddb2a5	0.027062723
20	0x3dea7136	0.114473745
21	0xbdc17425	-0.09445981
22	0x3e2a4ee9	0.16631664
23	0xbda8f91a	-0.08250637
24	0xbd6ebcf6	-0.058285676
25	0xbde1d1d0	-0.11026347
26	0x3d9e51c5	0.0773044
27	0xbd664bb6	-0.056224547
28	0x3e1360bf	0.14392374
29	0xbbddc59a	-0.0067679407
30	0xbd5c493f	-0.05378079
31	0xbe1c1ff3	-0.15246563
