unitree_5_sa.pt (torch, 85182 bytes, 10 tensors)

0.weight f4 [64, 19]
-0.1952394 -0.07299464 0.02220998 -0.21612032 -0.20372663 -0.02307657 0.122654326 0.18706733
0.0534312 -0.1621087 -0.22923261 -0.15991019 0.109287724 0.111825496 -0.20844601 -0.030724794
-0.12689358 -0.16012692 0.16769534 -0.0912575 -0.16874741 -0.1020404 0.16397502 -0.13004741
-0.22202119 -0.14157778 -0.19505979 0.16516593 -0.14359719 -0.0069065047 -0.00090373075 -0.025443336
0.005498112 -0.16905664 0.015594982 0.0068935417 -0.0594226 0.06531018 0.0064870063 -0.106032625
0.018769402 -0.20637803 -0.06978472 -0.032003444 0.05634231 0.18714756 -0.10000321 -0.09009787
0.13869546 -0.07308836 -0.10839006 0.15853554 0.122586116 -0.070663154 0.16026229 -0.19974577
0.1292761 -0.1258493 0.13783744 -0.08749817 0.0023199995 0.17684704 0.19400685 -0.05031613
0.1459795 0.21503593 0.216237 -0.035338428 0.2156648 0.15080625 0.123044066 -0.024302822
0.11710753 -0.12549011 -0.13270068 -0.1665724 0.011919154 -0.16925626 -0.08199306 -0.16461049
-0.018708853 0.05562778 -0.13304166 -0.12286655 0.17573361 -0.10073651 0.17130646 0.07365727
-0.19723053 -0.19210315 0.17515174 -0.15361808 -0.08914638 -0.088247545 0.2126414 -0.013364959
-0.05290707 -0.063959084 0.1693803 0.14241193 0.18418409 0.1821747 -0.12629113 0.11738522
0.12665997 -0.18914902 0.01430881 0.04632139 0.13265361 -0.19702199 0.13090058 -0.20049232
-0.04079801 0.05041439 -0.030672448 -0.2151521 -0.22600597 -0.12591301 0.042273484 -0.1504718
-0.014843336 0.05355591 -0.18639612 0.009229321 0.025366213 0.018236408 -0.12852758 0.14407437
-0.22666843 -0.19170359 0.023707226 0.16125882 -0.17380726 0.026327431 0.035259884 0.12581074
0.1602097 -0.030837633 0.1679156 0.030808317 0.20780534 -0.22533591 0.22788507 0.049803782
0.011038997 0.04022746 0.0803414 0.20477067 0.07840904 0.17318688 0.048537273 0.095432214
-0.038480278 0.036705934 -0.12216533 -0.11069541 0.049976077 0.15264973 -0.13111925 -0.084062494
-0.16498436 0.17472173 0.17525195 -0.17181861 0.031316504 -0.13069434 0.002136327 -0.07465937
-0.113983296 -0.12693505 0.19073994 -0.18000385 -0.097545326 -0.17297874 0.11315835 0.20504981
-0.16644967 0.038624868 0.12340818 -0.16976896 0.008250355 0.07884333 0.06552107 -0.09287248
-0.07258529 -0.08093836 0.13352972 0.07597533 -0.1316423 0.19141397 -0.17386708 0.049704097
0.11047533 0.04943023 -0.12887362 0.18001956 -0.07961131 -0.013764028 -0.15596968 -0.110202424
0.030458556 0.08604922 -0.028042017 -0.14914013 -0.070420876 -0.020520581 0.19105707 -0.21011657
-0.20911974 -0.14479615 0.18789591 -0.15637107 -0.07273237 -0.12824553 0.09044161 -0.14760788
-0.11455589 -0.0036864118 0.10829653 -0.15782444 -0.08413773 0.00687035 0.09959044 0.22157101
0.08578337 0.04190097 0.21415979 0.10112245 -0.21471296 0.07626287 0.18678743 -0.17551357
-0.108905144 -0.17299074 -0.1714196 -0.009000907 -0.036129374 0.047159154 -0.13490038 0.047441967
0.05089832 -0.054293036 -0.13605744 0.006026321 0.012153858 0.16900468 0.009814414 0.050129283
-0.090458155 -0.1379334 -0.17914335 -0.01940572 -0.058082905 -0.026244018 -0.13825595 0.039340414
00000000: d6ec 47be 377e 95bd b4f1 b53c a54e 5dbe
00000010: b79d 50be 130b bdbc 3132 fb3d 948e 3f3e
00000020: adda 5a3d d3ff 25be f4bb 6abe 7fbf 23be
00000030: 3ed2 df3d c404 e53d df72 55be 90b2 fbbc
00000040: 64f0 01be 50f8 23be 54b8 2b3e 36e5 babd
00000050: 1fcc 2cbe 8ffa d0bd 11e9 273e 262b 05be
00000060: 8659 63be c4f9 10be c1bd 47be 4221 293e
00000070: 240b 13be f64f e2bb 58e8 6cba 8b6e d0bc
00000080: 8229 b43b 2f1d 2dbe 1882 7f3c 38e3 e13b
00000090: 1d65 73bd 58c1 853d f490 d43b a227 d9bd
000000a0: 4ac2 993c c354 53be 4beb 8ebd 0b16 03bd
000000b0: 32c7 663d 9ca3 3f3e 7cce ccbd 3b85 b8bd
000000c0: 2f06 0e3e 5aaf 95bd 9cfb ddbd 2457 223e
000000d0: 6e0e fb3d d8b7 90bd cc1b 243e 288a 4cbe
000000e0: f460 043e a4de 00be 4225 0d3e 3e32 b3bd
000000f0: 220b 183b 6417 353e bba9 463e 4918 4ebd
00000100: a67b 153e 6132 5c3e 3b6d 5d3e 07bf 10bd
00000110: 3cd7 5c3e f46c 1a3e 87fe fb3d b616 c7bc
00000120: 13d6 ef3d 7b80 00be b0e2 07be f591 2abe
00000130: 8e48 433c 8351 2dbe faeb a7bd a78f 28be
00000140: 4f43 99bc f4d9 633d 133c 08be 75a1 fbbd
00000150: 83f3 333e f14e cebd f66a 2f3e 9fd9 963d
00000160: cdf6 49be b0b6 44be fa5a 333e 0f4e 1dbe
00000170: 6192 b6bd 21bb b4bd abbe 593e b3f8 5abc
00000180: 15b5 58bd fbfc 82bd 0872 2d3e 6fd4 113e
00000190: c19a 3c3e 018c 3a3e 7652 01be aa67 f03d
000001a0: 27b3 013e 48b0 41be 806f 6a3c 7fbb 3d3d
000001b0: 59d6 073e 22c0 49be cd0a 063e dc4d 4dbe
000001c0: d01b 27bd 527f 4e3d c944 fbbc d550 5cbe
000001d0: 1c6e 67be 57ef 00be f626 2d3d 4815 1abe
000001e0: 7731 73bc 715d 5b3d a0de 3ebe 9436 173c
000001f0: cecc cf3c 8564 953c bc9c 03be 3b88 133e
00000200: c51b 68be f24d 44be a835 c23c 0821 253e
00000210: 88fa 31be a0ac d73c ab6c 103d 88d4 003e
00000220: 030e 243e 349f fcbc 11f2 2b3e b961 fc3c
00000230: ecca 543e 75be 66be b45a 693e 0dff 4b3d
00000240: e9dc 343c 8dc5 243d 088a a43d 67af 513e
00000250: eb94 a03d e757 313e 05cf 463d f771 c33d
00000260: 7f9d 1dbd f658 163d d131 fabd 46b4 e2bd
00000270: b7b3 4c3d 3650 1c3e 2044 06be f528 acbd
00000280: a9f1 28be 41ea 323e 3f75 333e 38f1 2fbe
00000290: bc45 003d bdd4 05be 9f01 0c3b 03e7 98bd
000002a0: 1370 e9bd 43fb 01be 5551 433e ee52 38be
000002b0: d8c5 c7bd 5721 31be 91bf e73d 94f8 513e
000002c0: c871 2abe 1c35 1e3d 6ebd fc3d ead7 2dbe
000002d0: 7f2c 073c 9d78 a13d e92f 863d ed33 bebd
000002e0: 99a7 94bd 03c3 a5bd 04bc 083e f498 9b3d
000002f0: 3dcd 06be 0602 443e 360a 32be 8696 4b3d
00000300: e440 e23d 5a77 4a3d 72f7 03be 0c57 383e
00000310: 410b a3bd 8582 61bc 84b6 1fbe cfb1 e1bd
00000320: 3984 f93c 933a b03d 5fb8 e5bc 31b8 18be
00000330: d238 90bd c71a a8bc 77a4 433e cc28 57be
00000340: 7c23 56be 7145 14be c967 403e bd1f 20be
00000350: b5f4 94bd cc52 03be 7339 b93d 8526 17be
00000360: 479c eabd ba97 71bb 92ca dd3d bb9c 21be
00000370: 6750 acbd ac20 e13b 13f6 cb3d 83e3 623e
00000380: 31af af3d 5aa0 2b3d b44c 5b3e 4919 cf3d
00000390: b7dd 5bbe b52f 9c3d 3445 3f3e d4b9 33be
000003a0: a909 dfbd 7c24 31be 9f88 2fbe 8a78 13bc
000003b0: 65fc 13bd f529 413d 5323 0abe 8252 423d
000003c0: c27a 503d 6062 5ebd a452 0bbe 7278 c53b
000003d0: fa20 473c 900f 2d3e a3cc 203c 5d54 4d3d
000003e0: 2042 b9bd 6a3e 0dbe 5b71 37be bff8 9ebc
000003f0: 57e8 6dbd b2fd d6bc f892 0dbe 6a23 213d

0.bias f4 [64]
-0.027556745 -0.09729484 -0.19767748 0.02719167 0.21677102 0.20412815 0.18348332 -0.18871722
0.10076407 -0.04946242 0.22865531 -0.22604828 -0.16603439 0.14673533 -0.22242233 0.1686709
-0.011041787 0.05228374 0.05032655 -0.21977933 -0.19058283 -0.017919904 -0.091755785 -0.026898028
-0.17001645 0.123270236 -0.026639968 -0.06704479 -0.17753637 -0.16535641 0.0525237 0.022577351
0.06607345 0.15537146 -0.030826366 0.115592286 0.07970511 -0.2286947 0.09471423 0.058675412
0.1939922 -0.063583314 0.04715352 -0.008741588 0.064366415 0.006404359 -0.01599189 -0.1573554
0.098869726 0.07296428 -0.07439475 0.19144867 0.12796004 -0.014469346 0.20274882 0.06033626
-0.11971023 0.07056158 -0.14057162 -0.18101719 -0.019116292 -0.20186251 0.119996406 -0.1397251
00000000: afbe e1bc 8442 c7bd f76b 4abe 11c1 de3c
00000010: 39f9 5d3e f806 513e 0de3 3b3e 163f 41be
00000020: 655d ce3d 1b99 4abd 9e24 6a3e 3379 67be
00000030: eb04 2abe c941 163e aec2 63be 10b8 2c3e
00000040: 9de8 34bc 7a27 563d 3623 4e3d d50d 61be
00000050: 2528 43be c3cc 92bc 75ea bbbd 4159 dcbc
00000060: cb18 2ebe 1b75 fc3d 103c dabc c74e 89bd
00000070: 18cc 35be 3153 29be 1723 573d 23f4 b83c
00000080: 8451 873d b219 1f3e 9387 fcbc a6bb ec3d
00000090: 6f3c a33d f22e 6abe 89f9 c13d a155 703d
000000a0: e4a5 463e f837 82bd 0d24 413d e138 0fbc
000000b0: 8ad2 833d a8db d13b 6d01 83bc c621 21be
000000c0: 367c ca3d 4c6e 953d 465c 98bd 1f0b 443e
000000d0: f507 033e d610 6dbc 639d 4f3e 2723 773d
000000e0: a32a f5bd 9782 903d 02f2 0fbe 925c 39be
000000f0: c599 9cbc 0cb5 4ebe adc0 f53d 1914 0fbe

2.weight f4 [128, 64]
-0.0073663592 0.124237955 0.07697727 -0.11670223 0.09776996 0.060350165 -0.052575275 0.052195907
-0.0868727 0.08985785 -0.028771996 -0.05610147 -0.07926503 -0.11762634 -0.06834531 0.026530445
-0.015013009 -0.083291456 -0.034858555 -0.1041515 0.004560694 0.035444498 0.023841307 -0.0073352754
0.10800205 0.0729997 -0.08517358 -0.048267037 -0.045966998 0.08354668 0.019874409 -0.02773805
-0.009226739 0.014168739 -0.08222051 0.006237 -0.09177296 -0.11344585 0.03455852 0.12238191
0.057206273 -0.027565628 0.071450025 -0.09107116 0.033908784 0.109816656 -0.008615404 0.03456077
-0.0824368 -0.0013734847 -0.09767093 -0.11025095 -0.040639624 0.020560354 0.013424024 0.07306421
0.077442706 -0.035959423 0.029551908 0.06634629 0.008722395 -0.040356413 -0.042296454 -0.026237026
0.002785489 -0.111786336 0.084995046 -0.06251511 0.06778301 0.06628221 -0.010573551 0.011265844
0.030026674 0.06150347 -0.06410137 0.07150456 -0.06609824 0.0002283901 0.009950161 -0.022323847
0.1061807 0.09090836 0.040690213 0.0468778 -0.043780386 0.0052099526 -0.009704202 -0.009745404
-0.105516136 0.05417806 -0.064991966 -0.040232673 -0.10844821 0.016698554 -0.06482944 -0.11557324
-0.060713455 -0.09370628 -0.08935231 -0.05395484 0.007815614 -0.096555114 -0.026633948 -0.045761257
0.09339255 0.05307132 -0.085114464 0.10663183 -0.019637704 0.004437834 0.09654993 0.09493257
0.073887065 -0.06043513 0.12224671 -0.05311568 0.00101991 -0.079580426 0.082363054 -0.09401195
-0.0071767867 -0.0079084635 -0.017455295 -0.02617447 -0.085823074 0.122851714 0.008938238 0.06808084
-0.047281116 -0.08618647 0.10262632 -0.040465787 0.041663706 0.05935107 0.07337864 -0.09465644
-0.10010785 0.09928253 -0.05291556 -0.05631134 0.1135039 0.02558887 -0.112886414 -0.057654604
0.027521253 -0.12200144 0.043758005 0.0594462 0.03801164 0.054821163 0.022470772 0.06594314
0.10164939 0.05307798 0.04541996 -0.06092225 0.11383058 -0.037487388 0.028160572 0.071595654
0.059755236 -0.0116708875 -0.02783373 0.08620384 0.109903574 0.11562303 0.053465083 0.11754638
0.00096333027 -0.064140275 -0.09084438 0.08920401 -0.115302 0.060029283 -0.119021 -0.006273538
-0.10533361 0.037273884 -0.07507749 -0.022102788 0.030859709 0.06614368 0.09039368 0.052002564
-0.0501817 -0.009730771 -0.06261566 -0.028567255 0.1235342 0.09734923 -0.04418546 -0.009003282
0.04467295 0.07423198 0.05587271 0.07982519 0.09272711 0.12231365 -0.10006176 0.031219378
-0.034800828 0.08541265 0.071406186 0.11243373 -0.03215997 -0.012390643 0.08438435 0.029929757
-0.06319699 -0.073375985 0.04144965 -0.06280312 0.050906524 0.027734712 -0.010800749 -0.04647386
0.02145134 -0.122917384 -0.07275066 -0.09221272 -0.0767951 -0.124363184 0.04257773 0.11555387
-0.07332966 -0.09419188 -0.087096736 -0.011953667 0.06767258 -0.11494751 0.08406243 0.007786393
0.034833968 -0.05553095 -0.015372425 -0.07095662 -0.010314584 -0.027970403 -0.12474838 0.009433106
-0.009775847 -0.020368978 0.103768855 -0.08310366 -0.09457305 0.015912235 -0.028447002 0.009364128
0.041084304 -0.09772673 -0.07155879 0.10120997 0.08892052 -0.020010933 0.10377769 -0.0069081634
00000000: 8061 f1bb 7870 fe3d 42a6 9d3d 9401 efbd
00000010: 9e3b c83d bc31 773d 2c59 57bd 60cb 553d
00000020: 50ea b1bd 6407 b83d 40b3 ebbc a8ca 65bd
00000030: b455 a2bd 14e6 f0bd a0f8 8bbd 6056 d93c
00000040: 20f9 75bc b694 aabd d8c7 0ebd 624d d5bd
00000050: e071 953b 402e 113d d84e c33c c05c f0bb
00000060: 2e30 dd3d de80 953d 7c6f aebd a8b3 45bd
00000070: e447 3cbd 861a ab3d a8cf a23c e83a e3bc
00000080: c02b 17bc 0024 683c 3a63 a8bd c05f cc3b
00000090: 76f3 bbbd 4c56 e8bd 3c8d 0d3d 5ea3 fa3d
000000a0: 2051 6a3d 50d1 e1bc 6454 923d 8483 babd
000000b0: f0e3 0a3d 8ee7 e03d a027 0dbc 988f 0d3d
000000c0: a0d4 a8bd 8006 b4ba b207 c8bd 40cb e1bd
000000d0: bc75 26bd 306e a83c 70f0 5b3c b0a2 953d
000000e0: 489a 9e3d 304a 13bd d816 f23c 90e0 873d
000000f0: 60e8 0e3c c44c 25bd 0c3f 2dbd 08ef d6bc
00000100: c08c 363b 3cf0 e4bd e211 ae3d ec07 80bd
00000110: d2d1 8a3d f8be 873d b03c 2dbc 6094 383c
00000120: 80fa f53c 10eb 7b3d 9447 83bd fc70 923d
00000130: 845e 87bd 007c 6f39 0006 233c 80e0 b6bc
00000140: 4475 d93d 2a2e ba3d c8aa 263d f002 403d
00000150: 1053 33bd 40b8 aa3b 60fe 1ebc 30ab 1fbc
00000160: d818 d8bd d0e9 5d3d 821a 85bd 04cb 24bd
00000170: 181a debd 68cb 883c 4cc5 84bd aab1 ecbd
00000180: acae 78bd 14e9 bfbd 58fe b6bd c0ff 5cbd
00000190: 100d 003c b0be c5bd 702f dabc 2870 3bbd
000001a0: 9844 bf3d 5061 593d 7e50 aebd ca61 da3d
000001b0: 40df a0bc 406b 913b f8bb c53d 026c c23d
000001c0: 1a52 973d d48a 77bd 7c5c fa3d d48f 59bd
000001d0: 80ae 853a 10fb a2bd f6ad a83d 5689 c0bd
000001e0: 402b ebbb 8092 01bc 68fe 8ebc d86b d6bc
000001f0: 02c4 afbd ae99 fb3d b071 123c f86d 8b3d
00000200: d8a9 41bd 8882 b0bd c02d d23d 74bf 25bd
00000210: 90a7 2a3d 1c1a 733d 8a47 963d 3cdb c1bd
00000220: 5805 cdbd a454 cb3d fcbd 58bd b8a6 66bd
00000230: bc74 e83d c09f d13c fe30 e7bd 3c27 6cbd
00000240: 4074 e13c e4db f9bd 983b 333d dc7d 733d
00000250: 18b2 1b3d 288c 603d a014 b83c 320d 873d
00000260: 8e2d d03d 4c68 593d 480a 3a3d 9c89 79bd
00000270: 0220 e93d 608c 19bd 00b1 e63c bea0 923d
00000280: e8c1 743d 4037 3fbc 9003 e4bc a48b b03d
00000290: 2015 e13d c4cb ec3d 34fe 5a3d 28bc f03d
000002a0: 0088 7c3a fa5b 83bd 9e0c babd 98b0 b63d
000002b0: 7423 ecbd 44e1 753d 48c1 f3bd 4092 cdbb
000002c0: 26b9 d7bd 80ac 183d 3ac2 99bd e810 b5bc
000002d0: 80cd fc3c 5676 873d 5220 b93d a400 553d
000002e0: 548b 4dbd d06d 1fbc a43c 80bd e005 eabc
000002f0: 80ff fc3d 085f c73d d0fb 34bd 8082 13bc
00000300: fcfa 363d f006 983d c8da 643d 647b a33d
00000310: b6e7 bd3d 947f fa3d 2eed ccbd c8bf ff3c
00000320: 508b 0ebd d4ec ae3d 683d 923d a843 e63d
00000330: 2cba 03bd 2002 4bbc b4d1 ac3d 402f f53c
00000340: 6c6d 81bd 2646 96bd 1cc7 293d ec9e 80bd
00000350: 5c83 503d e833 e33c a0f5 30bc 605b 3ebd
00000360: b8ba af3c 1cbc fbbd 4cfe 94bd 06da bcbd
00000370: c046 9dbd 20b2 febd fc65 2e3d 82a7 ec3d
00000380: dc2d 96bd ace7 c0bd c65f b2bd 50d9 43bc
00000390: ec97 8a3d 9a69 ebbd ec28 ac3d 0025 ff3b
000003a0: 10ae 0e3d 6c74 63bd a0dc 7bbc b451 91bd
000003b0: 80fe 28bc 3022 e5bc 147c ffbd 508d 1a3c
000003c0: e02a 20bc d8dc a6bc c484 d43d 4032 aabd
000003d0: 84af c1bd 605a 823c b009 e9bc 006c 193c
000003e0: 0448 283d f424 c8bd 6a8d 92bd 2c47 cf3d
000003f0: f61b b63d f8ed a3bc 6689 d43d e05d e2bb

2.bias f4 [128]
-0.06708862 0.059211627 -0.022975057 0.042753518 0.098967806 0.05260496 -0.0062949806 0.068011105
-0.0130800605 0.1010184 0.05960676 0.022920996 0.110057205 0.0050361305 0.0015066564 0.012576237
-0.04396738 -0.100607455 -0.0687858 -0.048289686 0.039645374 -0.08553095 0.048151016 0.007425338
0.0844416 -0.0587489 0.021931112 0.02974552 0.081957415 -0.0029046983 -0.023582622 -0.12028892
0.05864711 -0.010388792 0.013066515 0.10392566 -0.09431663 0.10681756 0.08079444 -0.063893184
0.029780507 0.059580356 0.03360325 0.014822647 0.04077348 -0.03263749 0.04286185 0.060422495
0.08351153 -0.09943777 -0.09828 0.006992236 -0.026543185 -0.09781523 0.09024604 -0.03689222
-0.011524066 0.06768638 0.017522067 0.014904484 0.032095447 -0.03748721 -0.09586534 0.12453602
0.06906867 0.064807 0.05148624 -0.061305746 0.114180654 0.078711525 -0.076167375 0.097501576
0.11726853 0.124798715 0.019145638 0.08317499 -0.022413403 -0.11328925 -0.112195045 0.054553345
0.010285959 -0.089470774 0.039249778 0.12374486 0.09489736 -0.09178972 0.07027955 0.04692629
-0.12482767 -0.026872694 0.084382206 0.07502703 -0.0043172836 0.10977854 -0.018995777 0.028357908
-0.048499346 -0.0047573596 -0.103728056 -0.11463456 0.0350931 -0.12119146 -0.1010987 0.010211021
0.08473791 -0.06821278 0.080939665 -0.011450097 -0.10341251 0.053022802 -0.07205048 -0.09891671
-0.10521349 -0.0100723505 -0.07684849 -0.059751615 0.09250586 -0.11607066 -0.07453485 -0.11527507
0.1115562 0.00798133 0.03876789 -0.0501626 0.050113514 0.0060143024 -0.0322828 -0.053335696
00000000: c265 89bd e487 723d 3036 bcbc 501e 2f3d
00000010: a2af ca3d 4c78 573d 2046 cebb 6849 8b3d
00000020: c04d 56bc bce2 ce3d 3826 743d d0c4 bb3c
00000030: ac65 e13d 2006 a53b 007b c53a 900c 4e3c
00000040: 2417 34bd 480b cebd 92df 8cbd 68cb 45bd
00000050: 3063 223d da2a afbd 003a 453d 4050 f33b
00000060: b8ef ac3d b0a2 70bd e0a8 b33c e0ac f33c
00000070: 4ad9 a73d c05c 3ebb 5830 c1bc 0a5a f6bd
00000080: f437 703d c035 2abc f014 563c fad6 d43d
00000090: 1429 c1bd 2ac3 da3d 8e77 a53d 6eda 82bd
000000a0: 40f6 f33c 880a 743d 90a3 093d b0da 723c
000000b0: 1802 273d e4ae 05bd e88f 2f3d 947d 773d
000000c0: 1808 ab3d 08a6 cbbd 0647 c9bd 201f e53b
000000d0: 1871 d9bc 5a53 c8bd ead2 b83d 4c1c 17bd
000000e0: 70cf 3cbc 289f 8a3d 708a 8f3c f031 743c
000000f0: 8476 033d 308c 19bd 0c55 c4bd be0c ff3d
00000100: e073 8d3d 88b9 843d 3ce3 523d bc1b 7bbd
00000110: 8cd7 e93d 8233 a13d a4fd 9bbd e8ae c73d
00000120: 7c2a f03d 7896 ff3d 50d7 9c3c a657 aa3d
00000130: 509c b7bc 3204 e8bd 84c6 e5bd 5473 5f3d
00000140: 7086 283c 743c b7bd 60c4 203d f26d fd3d
00000150: 8c59 c23d 40fc bbbd baee 8f3d c835 403d
00000160: a6a5 ffbd 2024 dcbc 94d0 ac3d c6a7 993d
00000170: 0078 8dbb 92d3 e03d 089d 9bbc d84e e83c
00000180: 40a7 46bd a0e3 9bbb 606f d4bd 86c5 eabd
00000190: c8bd 0f3d 3a33 f8bd d60c cfbd 204c 273c
000001a0: 128b ad3d 24b3 8bbd b2c3 a53d 3099 3bbc
000001b0: f0c9 d3bd 702e 593d 348f 93bd d894 cabd
000001c0: 2c7a d7bd 8006 25bc be62 9dbd 1cbe 74bd
000001d0: b673 bd3d 74b6 edbd baa5 98bd 5615 ecbd
000001e0: 9477 e43d 20c4 023c 14cb 1e3d 4c77 4dbd
000001f0: d443 4d3d a013 c53b f83a 04bd 8876 5abd

4.weight f4 [64, 128]
-0.04734604 -0.052171506 -0.056748886 -0.03501811 0.011323246 -0.08494888 -0.06308716 0.05454643
-0.02704146 0.06791963 -0.031816117 0.058730863 0.045609266 -0.058003914 -0.023565114 -0.055124957
-0.00047011647 -0.0021365713 0.024376672 0.043049127 -0.040385373 -0.06087044 -0.042333536 -0.01638936
-0.038242154 -0.007584304 0.04508399 -0.02949683 -0.079548806 -0.0065147434 0.07713781 0.034731384
-0.014118288 -0.05432365 -0.011833159 0.031181535 -0.03206257 0.028338192 -0.081383765 0.07155153
0.048105832 -0.06381838 -0.05730277 -0.015873577 0.044953566 0.033918425 0.039059013 0.018841032
-0.02214604 -0.08788808 0.010190191 -0.07419053 -0.0024652851 -0.07900391 0.016978184 0.025292166
0.0060136598 -0.07775736 0.042894755 -0.013877524 -0.017065922 0.049418632 0.04755997 0.010623682
-0.087493435 0.08152907 -0.03930437 0.011367142 -0.030922256 -0.078731745 0.011149011 0.064386055
0.056036532 -0.001487868 -0.05371386 0.06870123 0.06928877 0.07280231 0.05416595 0.049671147
-0.017423982 -0.01695554 0.011950644 -0.025791436 0.07473492 0.0120239165 0.005867505 0.074592516
0.029845932 -0.087914795 0.01383012 0.04676763 -0.022208659 -0.049737096 0.08099982 -0.06997924
-0.04719677 -0.048525266 0.0013607637 0.040125642 -0.009504957 0.06368868 0.0034799178 -0.06817318
0.010788835 -0.02457196 -0.03737653 0.016206179 -0.027923087 -0.029440416 0.055303883 -0.04913749
0.024255669 -0.026664171 0.009403257 0.034975614 -0.048055023 0.0156394 0.060732756 0.050395135
-0.065930106 0.0127965 -0.06282462 -0.065343186 0.04639314 0.049239255 0.07164887 0.016893815
-0.024357654 0.04659764 0.04929878 -0.057770528 0.05237459 0.04181254 -0.027128018 0.01386508
0.022961002 -0.06470179 0.01680201 -0.037046153 -0.06237059 0.012177499 -0.07615652 -0.021432199
0.014408795 -0.042146098 0.0485972 0.07761182 -0.081599936 0.035637468 0.008589338 -0.010807316
0.015591858 0.07333803 -0.08832675 0.05284945 0.026018819 -0.0642566 -0.016585017 0.038371198
0.01016564 0.0376965 -0.07755382 0.015738865 -0.07890464 -0.047855522 -0.044555552 0.06617123
0.07002129 0.06617747 0.028491544 -0.01700579 0.02744824 0.019809661 0.022350105 0.039603315
0.027672587 -0.06746607 0.043548334 0.078895904 -0.027676085 -0.026425695 -0.02317847 0.08765966
0.07968269 -0.015312118 -0.07535622 0.08147051 -0.010449141 0.06430521 0.021091305 -0.08025751
0.0029623439 -0.07816553 -0.034776703 -0.0022934312 0.013873973 0.06811443 0.07016513 -0.08150473
0.024292475 -0.07709545 0.028842447 0.040941257 0.063640684 0.029236436 -0.084845945 0.048516564
-0.009192638 -0.05980009 -0.07723004 0.08757377 0.044941973 0.03350272 0.0877164 -0.015233051
-0.030170947 0.06688588 0.0056527248 0.013490795 -0.006325715 -0.02041077 -0.023138788 0.06343759
-0.039736427 0.001360005 0.06180362 0.058788393 -0.0385201 -0.020215977 0.0014525701 -0.06739027
0.07164443 -0.057812043 0.072351344 -0.08641693 0.012764541 -0.010598878 0.045407582 -0.07121921
0.046693396 -0.069410294 0.022559227 -0.040811963 -0.028687168 -0.04556796 0.023530575 -0.00088173314
0.047739208 0.026229953 0.045122962 -0.019247148 -0.07745482 -0.004248149 -0.070219465 0.0795215
00000000: eced 41bd cab1 55bd 8571 68bd 266f 0fbd
00000010: 2385 393c aef9 adbd d733 81bd 146c 5f3d
00000020: 0d86 ddbc 7219 8b3d 9e51 02bd c68f 703d
00000030: c8d0 3a3d 8395 6dbd a00b c1bc b5ca 61bd
00000040: f779 f6b9 b805 0cbb 96b1 c73c 4854 303d
00000050: 226b 25bd 4853 79bd ee65 2dbd fb42 86bc
00000060: cea3 1cbd c185 f8bb fda9 383d 56a3 f1bc
00000070: 7cea a2bd a179 d5bb 6efa 9d3d 7f42 0e3d
00000080: 6450 67bc 7a82 5ebd dedf 41bc 6b70 ff3c
00000090: 0b54 03bd 7f25 e83c 88ac a6bd 9c89 923d
000000a0: 9f0a 453d 36b3 82bd 4fb6 6abd 4e09 82bc
000000b0: 3b21 383d 0cee 0a3d 58fc 1f3d 8258 9a3c
000000c0: 9d6b b5bc aafe b3bd c2f4 263c 34f1 97bd
000000d0: 9f90 21bb cdcc a1bd d515 8b3c 8431 cf3c
000000e0: 3c0e c53b 403f 9fbd 69b2 2f3d 8e5e 63bc
000000f0: d5cd 8bbc 316b 4a3d 3ece 423d f40e 2e3c
00000100: c22f b3bd b7f8 a63d 9efd 20bd 403d 3a3c
00000110: ac50 fdbc 1c3e a1bd 57aa 363c d6dc 833d
00000120: 9086 653d 9104 c3ba 1103 5cbd 3bb3 8c3d
00000130: 45e7 8d3d 6119 953d 1ddd 5d3d f973 4b3d
00000140: bdbc 8ebc 58e6 8abc a2cc 433c 9048 d3bc
00000150: 9f0e 993d f6ff 443c 3344 c03b f6c3 983d
00000160: 757f f43c ac0c b4bd ba97 623c 6a8f 3f3d
00000170: efee b5bc 20b9 4bbd 3ce3 a53d 4751 8fbd
00000180: 6651 41bd 6ec2 46bd a75b b23a c95a 243d
00000190: aeba 1bbc 366f 823d 550f 643b 619e 8bbd
000001a0: a7c3 303c 234b c9bc 2218 19bd d2c2 843c
000001b0: f5be e4bc 072d f1bc 5386 623d 6544 49bd
000001c0: d3b3 c63c d26e dabc 1e10 1a3c 9742 0f3d
000001d0: 58d5 44bd 331e 803c e9c2 783d 216b 4e3d
000001e0: 5d06 87bd 69a8 513c 32aa 80bd a6d2 85bd
000001f0: bc06 3e3d 1aaf 493d a5bc 923d e664 8a3c
00000200: b489 c7bc 2bdd 3e3d 84ed 493d caa0 6cbd
00000210: bd86 563d a043 2b3d 943b debc 5c2a 633c
00000220: b618 bc3c 5f82 84bd 5ea4 893c b5bd 17bd
00000230: 4e78 7fbd 2284 473c f3f7 9bbd 9492 afbc
00000240: de12 6c3c 63a1 2cbd dc0d 473d f2f2 9e3d
00000250: de1d a7bd 98f8 113d 4bba 0c3c 2b11 31bc
00000260: fe74 7f3c 4032 963d a8e4 b4bd aa78 583d
00000270: 6b25 d53c f798 83bd 4ddd 87bc 1e2b 1d3d
00000280: c98d 263c a567 1a3d 8ad4 9ebd cbee 803c
00000290: c298 a1bd 2704 44bd e27f 36bd c884 873d
000002a0: 5267 8f3d 0e88 873d 1967 e93c ba4f 8bbc
000002b0: 22db e03c df47 a23c 9117 b73c 1637 223d
000002c0: 9fb1 e23c a72b 8abd bd5f 323d 2d94 a13d
000002d0: f5b8 e2bc b37a d8bc c6e0 bdbc e886 b33d
000002e0: ae30 a33d aedf 7abc 5d54 9abd 03da a63d
000002f0: e032 2bbc 73b2 833d acc7 ac3c 0d5e a4bd
00000300: e223 423b 4015 a0bd 0472 0ebd 644d 16bb
00000310: a94f 633c 947f 8b3d bcb2 8f3d f4eb a6bd
00000320: 0301 c73c 38e4 9dbd ff46 ec3c 05b2 273d
00000330: 0c56 823d 4081 ef3c b6c3 adbd 4eb9 463d
00000340: b89c 16bc f0f0 74bd c92a 9ebd e059 b33d
00000350: 1315 383d 263a 093d a8a4 b33d 0c94 79bc
00000360: 1029 f7bc 77fb 883d 7e3a b93b 7f08 5d3c
00000370: f247 cfbb 7d34 a7bc 8e8d bdbc 91eb 813d
00000380: aac2 22bd 3242 b23a cb25 7d3d 19cc 703d
00000390: 41c7 1dbd fa9b a5bc 2a64 be3a e903 8abd
000003a0: 51ba 923d 52cc 6cbd f12c 943d 5cfb b0bd
000003b0: 5e22 513c eba6 2dbc 4dfd 393d 61db 91bd
000003c0: 9341 3f3d fc26 8ebd 21ce b83c 722a 27bd
000003d0: 5a01 ebbc 78a5 3abd 31c3 c03c 1c24 67ba
000003e0: 308a 433d 33e0 d63c dbd2 383d 32ac 9dbc
000003f0: a2a0 9ebd 0f34 8bbb 39cf 8fbd 2bdc a23d

4.bias f4 [64]
-0.049579486 0.025484271 -0.068411455 -0.022748793 0.05735442 0.08121586 0.019815931 -0.06445866
-0.042538054 0.05116051 0.018253304 0.042529877 -0.0055056745 -0.029288528 0.052715465 -0.03041208
0.011898993 0.08326589 0.025576593 0.025684742 0.08531176 0.039013788 0.051167462 0.048980515
0.017797455 0.085360624 0.0042210175 0.06641929 -0.0049924734 -0.08061711 0.08595916 -0.05474098
-0.048260815 -0.0018972193 0.067093164 -0.06188568 -0.01817902 -0.016415227 -0.081380546 -0.05720345
0.056864318 -0.08059256 -0.0076271147 0.042846516 0.017745024 -0.019523494 0.013980626 -0.032071635
0.05204102 0.053090677 -0.023039384 -0.048200514 0.001597945 0.05029962 0.04465035 -0.018844172
-0.037912764 -0.06779726 -0.008591487 -0.08257754 -0.065190904 0.0103206355 -0.018436927 0.07609857
00000000: dc13 4bbd 64c4 d03c 4e1b 8cbd ad5b babc
00000010: 78ec 6a3d 8054 a63d 0555 a23c e702 84bd
00000020: 623c 2ebd af8d 513d f487 953c cf33 2e3d
00000030: f268 b4bb 7fee efbc 2cec 573d c122 f9bc
00000040: fef3 423c 4f87 aa3d 0186 d13c cf68 d23c
00000050: efb7 ae3d eccc 1f3d f994 513d cb9f 483d
00000060: f8cb 913c 8dd1 ae3d 7650 8a3b d606 883d
00000070: e797 a3bb 951a a5bd 5b0b b03d 1438 60bd
00000080: 22ad 45bd 1eac f8ba 2468 893d d77b 7dbd
00000090: 2bec 94bc 3a79 86bc d8aa a6bd 2a4e 6abd
000000a0: 8fea 683d b60d a5bd e0ec f9bb d47f 2f3d
000000b0: 035e 913c bcef 9fbc ff0e 653c 8c5d 03bd
000000c0: f728 553d 9c75 593d 17bd bcbc e76d 45bd
000000d0: 2372 d13a f906 4e3d 49e3 363d 185f 9abc
000000e0: 6a4a 1bbd 4ad9 8abd 4fc3 0cbc 6a1e a9bd
000000f0: cf82 85bd e217 293c 0a09 97bc 91d9 9b3d

6.weight f4 [32, 64]
0.021144167 -0.1005175 -0.092809945 -0.075298324 -0.10591434 0.016524538 -0.09819524 0.032954678
0.04370804 -0.06496236 -0.114846036 0.06188436 -0.09149876 -0.03988655 -0.0085109025 0.100296035
0.083456546 -0.060009956 0.11793743 -0.07433449 -0.1208701 0.043896258 0.02454856 -0.077758655
0.05140066 0.0873619 -0.005755082 -0.044024333 0.002353251 0.1149894 0.086682886 0.02323623
0.014698312 0.09964344 -0.018339753 0.04640062 0.1045624 -0.019834772 0.07496607 -0.05400066
0.07232121 0.018898875 0.054179296 0.073104665 -0.03437428 -0.021004021 -0.089849785 -0.05598204
0.085768074 -0.022097409 0.020818442 0.030365258 -0.10884701 0.120728716 -0.031396776 -0.1243739
-0.09314646 0.0018001497 -0.095313385 -0.011596769 -0.08327563 -0.042442292 0.0378215 0.029746115
-0.034793764 0.03843476 -0.025368169 0.0841821 -0.081181064 0.009585172 -0.12149756 0.054048777
0.04557295 0.07151176 -0.059797987 0.087781265 0.06121479 -0.031595647 0.081329346 0.11949101
-0.045727953 0.024684891 -0.029610291 0.072907746 0.0677304 -0.0126915425 0.024481088 0.09706181
-0.11156151 0.056095913 -0.049764276 0.037070513 -0.02461958 0.002855152 -0.049115464 0.021914095
-0.027802736 0.09328692 0.09394361 0.046667293 -0.02447854 -0.08747542 -0.056701824 -0.096500784
0.020228237 0.06454611 -0.034238443 0.009464249 0.0072858185 0.11399758 -0.024903491 -0.120404765
0.07576732 -0.12158638 0.11740762 -0.10564867 -0.07133441 0.03164126 -0.09518166 0.0903645
-0.09794089 -0.012829542 -0.027295873 0.006963551 0.06345177 0.04972835 -0.10398804 0.11771752
-0.038455635 -0.02828683 -0.036342174 0.0789409 0.10436264 0.05911866 -0.051385432 0.0025179833
-0.037508488 -0.053255647 -0.08659634 -0.026320219 0.0648689 -0.12103191 -0.09786336 -0.108502775
0.11608815 -0.067949206 0.054560125 0.11444686 -0.06433478 0.011977494 -0.0993775 -0.09556334
-0.11723466 -0.10017267 0.01790367 0.024378762 -0.045924872 0.097496465 -0.11220504 -0.015136361
0.11830157 -0.09851582 0.12053524 0.007111907 0.11086215 -0.05431685 0.120312765 0.0973703
-0.081482515 0.0031869411 -0.11646105 -0.10734482 -0.08281152 -0.0028367937 0.1111055 0.08605234
-0.046011224 0.10727884 -0.11796363 0.010846391 0.027125448 0.044643477 0.01839462 -0.11275172
0.09507388 -0.079807445 0.050728753 0.05376789 -0.058544576 -0.022015616 -0.04789971 -0.069551215
0.010477766 0.0025056452 0.023199737 0.018858567 -0.1221735 0.025972098 0.0624052 0.019206211
0.008935541 0.11443679 0.06427461 0.076290876 -0.0041939616 -0.10019523 -0.079164535 0.0706168
0.12079112 0.09776592 -0.09168519 0.030679017 0.024251565 -0.039767116 -0.054221317 0.04520978
-0.063433036 0.08698888 -0.04140529 -0.04042451 0.09801361 -0.114515066 0.10395323 0.0054835975
-0.039102733 -0.0971071 0.06362763 -0.055245206 -0.10016708 0.018488199 -0.06754561 0.07482304
-0.011770859 -0.08289717 0.11422275 -0.054933637 0.059027568 -0.116689906 -0.022031292 -0.06758006
0.025781587 0.11176026 0.019933596 0.04062195 -0.08950633 0.07163367 -0.12239899 -0.03636086
-0.088019624 0.09998226 0.10910258 0.016217396 0.0868388 -0.03463702 -0.124647975 0.101933375
00000000: 8836 ad3c 1edc cdbd 2413 bebd 0236 9abd
00000010: 9ee9 d8bd 785e 873c 961a c9bd 7cfb 063d
00000020: 3407 333d fc0a 85bd 6634 ebbd 747a 7d3d
00000030: b463 bbbd 1460 23bd 5071 0bbc 0268 cd3d
00000040: 44eb aa3d 00cd 75bd 2e89 f13d ae3c 98bd
00000050: be8a f7bd 90cc 333d 101a c93c ee3f 9fbd
00000060: 8089 523d ccea b23d 2095 bcbb dc52 34bd
00000070: 0039 1a3b 907f eb3d cc86 b13d e859 be3c
00000080: 30d1 703c dc11 cc3d 403d 96bc 940e 3e3d
00000090: d024 d63d 887c a2bc d087 993d cc2f 5dbd
000000a0: 241d 943d d0d1 9a3c 1ceb 5d3d e6b7 953d
000000b0: 0ccc 0cbd a010 acbc 2a03 b8bd 6c4d 65bd
000000c0: 2ca7 af3d a005 b5bc 708b aa3c 90c0 f83c
000000d0: 2eeb debd 9e40 f73d e899 00bd beb7 febd
000000e0: 92c3 bebd 00f3 eb3a aa33 c3bd 6000 3ebc
000000f0: 6a8c aabd f8d7 2dbd b8ea 1a3d 20ae f33c
00000100: e883 0ebd c46d 1d3d e8d0 cfbc aa67 ac3d
00000110: 4242 a6bd 200b 1d3c b6d3 f8bd 4062 5d3d
00000120: b4aa 3a3d c274 923d bcee 74bd aac6 b33d
00000130: 5cbc 7a3d 706a 01bd 0090 a63d b4b7 f43d
00000140: 3c4d 3bbd f837 ca3c 4891 f2bc a850 953d
00000150: 3cb6 8a3d 30f0 4fbc 908c c83c 58c8 c63d
00000160: 5c7a e4bd d4c4 653d a0d5 4bbd 40d7 173d
00000170: 00af c9bc 801d 3b3b 4c2d 49bd 3085 b33c
00000180: 90c2 e3bc 360d bf3d 8265 c03d 3426 3f3d
00000190: 3887 c8bc 5026 b3bd 2c40 68bd 34a2 c5bd
000001a0: b0b5 a53c c030 843d 9c3d 0cbd f00f 1b3c
000001b0: e0bd ee3b 9077 e93d 6802 ccbc c696 f6bd
000001c0: e62b 9b3d 4802 f9bd 6873 f03d 545e d8bd
000001d0: c617 92bd 449a 013d 9aee c2bd 0611 b93d
000001e0: 3c95 c8bd 0033 52bc 989b dfbc 802e e43b
000001f0: 00f3 813d f4af 4b3d aef7 d4bd e215 f13d
00000200: a883 1dbd c8b9 e7bc 88db 14bd c4ab a13d
00000210: 14bc d53d 6826 723d 8879 52bd c004 253b
00000220: 80a2 19bd 9822 5abd 6c59 b1bd 809d d7bc
00000230: fcd9 843d 94df f7bd 966c c8bd b436 debd
00000240: a0bf ed3d f428 8bbd 707a 5f3d 1e63 ea3d
00000250: f4c1 83bd 403d 443c 6e86 cbbd b6b6 c3bd
00000260: ba18 f0bd 5427 cdbd b8aa 923c f8b5 c73c
00000270: b81b 3cbd 3aac c73d c2cb e5bd 80fe 77bc
00000280: 1848 f23d aac2 c9bd 2edb f63d 000b e93b
00000290: b20b e33d 587b 5ebd 8a66 f63d 146a c73d
000002a0: 4ee0 a6bd 00dc 503b 2283 eebd 9ad7 dbbd
000002b0: 1699 a9bd 80e9 39bb 488b e33d 363c b03d
000002c0: 4476 3cbd 02b5 db3d ea96 f1bd 10b5 313c
000002d0: 3036 de3c 14dc 363d 50b0 963c 60ea e6bd
000002e0: 18b6 c23d 1672 a3bd f4c8 4f3d b83b 5c3d
000002f0: 70cc 6fbd 185a b4bc 7c32 44bd de70 8ebd
00000300: f0aa 2b3c c035 243b 600d be3c 487d 9a3c
00000310: 1a36 fabd 70c3 d43c 989c 7f3d 5856 9d3c
00000320: 6066 123c d65d ea3d 68a2 833d 643e 9c3d
00000330: 806d 89bb 2833 cdbd 0421 a2bd 8a9f 903d
00000340: 5661 f73d 8039 c83d 72c5 bbbd 9052 fb3c
00000350: 38ab c63c d8e2 22bd 2c17 5ebd e42d 393d
00000360: 2ee9 81bd 3a27 b23d 9898 29bd 2c94 25bd
00000370: 5cbb c83d e086 eabd 6ee5 d43d c0af b33b
00000380: 302a 20bd 16e0 c6bd 344f 823d cc48 62bd
00000390: 6624 cdbd 9074 973c 5a55 8abd d23c 993d
000003a0: 90da 40bc fec5 a9bd 9eed e93d 1802 61bd
000003b0: e4c6 713d 1efb eebd f87a b4bc 6a67 8abd
000003c0: e833 d33c 90e2 e43d c84b a33c 3463 263d
000003d0: 184f b7bd acb4 923d 52ac fabd 20ef 14bd
000003e0: a243 b4bd 80c3 cc3d 2c71 df3d 58da 843c
000003f0: 8ad8 b13d 8cdf 0dbd 7047 ffbd 72c2 d03d

6.bias f4 [32]
0.01648356 0.068836 -0.07804577 -0.08124046 -0.028686494 0.045636028 -0.05408871 0.06548786
0.007464424 -0.034464434 0.08930218 -0.04476367 -0.12347467 0.104864135 0.056274727 -0.073690146
-0.09592579 -0.07486515 0.04951644 0.06473617 0.10415174 -0.041817784 0.034746096 0.10705453
0.020765007 -0.060072407 -0.084208205 0.03739524 -0.0246218 0.10625622 0.024064109 -0.09750411
00000000: 8808 873c e4f9 8c3d 76d6 9fbd 6661 a6bd
00000010: f0ff eabc d8ec 3a3d 208c 5dbd 801e 863d
00000020: 2098 f43b 942a 0dbd 10e4 b63d 1c5a 37bd
00000030: 4ae0 fcbd 02c3 d63d 5480 663d dcea 96bd
00000040: be74 c4bd e652 99bd c0d1 4a3d 6694 843d
00000050: 824d d53d 2049 2bbd ec51 0e3d 683f db3d
00000060: 601b aa3c 7c0e 76bd 5a75 acbd c02b 193d
00000070: a8b3 c9bc dc9c d93d 1822 c53c 3cb0 c7bd

8.weight f4 [12, 32]
-0.09646075 -0.17177562 0.07916689 -0.065463305 -0.13787998 0.027762508 0.07945657 -0.016612897
-0.15857328 0.040964607 -0.16577993 -0.09973969 -0.12986809 0.1749387 -0.0546213 0.11262184
0.063024096 -0.033823773 0.042948987 -0.1405343 -0.08486312 -0.13113447 -0.0641682 0.1345377
-0.028689822 -0.11068357 -0.12466633 0.077835046 0.09458499 0.1570068 -0.0812936 0.11625327
-0.09793998 0.014763198 -0.14241202 -0.07334447 -0.17211592 -0.12438616 0.0033858882 0.12536417
0.15495507 0.16369201 0.0484329 0.12702678 -0.043417428 0.13049819 -0.13007541 0.09034487
-0.113857836 -0.08832159 0.07216845 -0.046114743 -0.16073388 -0.039828688 0.17503306 0.059167475
0.103897184 0.016818741 -0.07967238 -0.00046039108 -0.07920579 0.05187 0.09888666 0.13218905
0.16873345 -0.04498371 -0.050989866 -0.11431907 -0.06656353 0.12786804 -0.053237136 0.04344354
0.027992778 0.164307 0.06924531 -0.06839985 -0.13396034 0.09466376 0.034029197 0.1274584
-0.14087865 0.10510248 0.021851877 -0.016344631 0.0023278126 -0.17563297 0.09853636 0.08851281
0.12958893 -0.07870895 0.11325275 0.071405485 -0.1077611 0.12016397 -0.15063195 0.013103856
0.07616193 0.14445904 -0.11386567 0.11453642 0.16785593 -0.14225648 0.1424971 -0.090761974
0.16454732 -0.08380629 -0.13050409 -0.1598597 -0.045266114 0.10532708 0.10578943 -0.15891354
-0.08735779 -0.036091864 0.108092524 0.0027488174 0.056567583 -0.15829192 -0.07159628 -0.16233811
0.06366688 0.13118306 0.12603924 0.07621889 -0.17633943 0.10607533 0.052340083 0.14965534
0.010817916 -0.06257572 -0.16371277 -0.022108128 -0.08950313 -0.063132204 0.11426668 0.040927246
-0.12697163 0.102612294 -0.114735834 0.12018195 0.07330806 0.16266744 0.03669612 -0.02104074
0.12624104 0.052437104 0.07859799 -0.1182987 0.07086046 0.026841305 0.033327915 -0.113824435
0.13113199 -0.13572161 0.0016516296 0.11600728 0.006154093 -0.0248635 -0.16037528 -0.02633489
0.067656524 0.13052793 0.030894103 -0.025680939 0.1020741 -0.06635558 0.11001697 0.13064067
0.13325544 0.11431551 0.14145273 -0.1435847 -0.10800134 -0.077289775 0.11671332 0.1640954
-0.073476225 0.03658808 -0.11170238 -0.026716212 0.11954966 0.06397074 -0.12644845 0.05514955
-0.09173356 -0.11545406 -0.021249829 0.15232569 -0.15584214 0.16687186 -0.1067823 0.097231746
0.11853462 0.0058607087 0.15810665 0.16258644 0.09644716 0.006523932 -0.14389575 0.060483865
0.16814466 -0.055000477 -0.029377913 0.16941838 -0.15121543 -0.16827394 -0.018040685 -0.12296887
-0.12997192 0.13181809 -0.02735421 -0.039298587 0.10181593 0.14753696 0.080159344 0.1766378
-0.077263415 0.15734287 -0.11484664 0.16002785 0.05000007 0.08911498 -0.051296633 -0.16210279
0.07671363 -0.016029015 0.12436369 0.03998684 -0.089295894 0.024997843 -0.17389731 -0.016872142
0.1753769 -0.06652859 -0.012118778 -0.101300664 0.12103601 0.07152937 0.03350883 -0.016244618
0.15002306 -0.17011935 0.16759618 0.009220782 0.03696645 -0.1336566 0.13358802 0.09791206
0.062644 0.0329236 -0.024253277 0.15665711 -0.13267927 -0.17103258 0.043070413 -0.10809529
00000000: 378d c5bd f3e5 2fbe 4022 a23d a011 86bd
00000010: 6930 0dbe 336e e33c 20ba a23d c517 88bc
00000020: 0961 22be 81ca 273d 37c2 29be 5344 ccbd
00000030: 24fc 04be 2123 333e 96ba 5fbd 47a6 e63d
00000040: c712 813d cc8a 0abd 47eb 2f3d 39e8 0fbe
00000050: b7cc adbd 1d48 06be 9e6a 83bd 40c4 093e
00000060: eb06 ebbc 11ae e2bd 1051 ffbd fb67 9f3d
00000070: c6b5 c13d 64c6 203e 427d a6bd 3216 ee3d
00000080: c294 c8bd 57e1 713c 75d4 11be a035 96bd
00000090: 283f 30be 2cbe febd c7e5 5d3b 775f 003e
000000a0: 8bac 1e3e e19e 273e 9461 463d 4f13 023e
000000b0: 79d6 31bd 51a1 053e 7d32 05be bb06 b93d
000000c0: 4c2e e9bd f3e1 b4bd 0dcd 933d d0e2 3cbd
000000d0: 6c97 24be 6823 23bd de3b 333e 9859 723d
000000e0: 0cc8 d43d 75c7 893c 462b a3bd a560 f1b9
000000f0: a536 a2bd a375 543d 1785 ca3d 915c 073e
00000100: 76c8 2c3e d740 38bd c0da 50bd 1e20 eabd
00000110: 7652 88bd d7ef 023e 2f0f 5abd daf1 313d
00000120: 1c51 e53c 1840 283e 7cd0 8d3d 3815 8cbd
00000130: e62c 09be 13df c13d 3362 0b3d 7484 023e
00000140: 7e42 10be f83f d73d b502 b33c 2de5 85bc
00000150: 378e 183b 21d9 33be 6ecd c93d 3446 b53d
00000160: f6b2 043e 2832 a1bd 0ff1 e73d 0a3d 923d
00000170: dab1 dcbd 8718 f63d 433f 1abe 8eb1 563c
00000180: c9fa 9b3d 12ed 133e 6832 e9bd 1292 ea3d
00000190: 6de2 2b3e afab 11be c3ea 113e 6ae1 b9bd
000001a0: 187f 283e a2a2 abbd dda2 05be 43b2 23be
000001b0: f668 39bd b9b5 d73d 21a8 d83d 3bba 22be
000001c0: a4e8 b2bd 10d5 13bd 9d5f dd3d 8125 343b
000001d0: 69b3 673d 4717 22be 12a1 92bd f63b 26be
000001e0: c863 823d da54 063e 6e10 013e a618 9c3d
000001f0: 5392 34be 063e d93d 8e62 563d 403f 193e
00000200: a13d 313c b327 80bd 52a4 27be 1b1c b5bc
00000210: 6b4d b7bd 754b 81bd a604 ea3d 54a3 273d
00000220: da04 02be 6526 d23d 9ffa eabd f421 f63d
00000230: 8922 963d 4b92 263e ac4e 163d a15d acbc
00000240: 5545 013e 4ac8 563d fcf7 a03d 9746 f2bd
00000250: 4a1f 913d 4ce2 db3c da82 083d c91c e9bd
00000260: 7747 063e 9bfa 0abe 7e7b d83a 3a95 ed3d
00000270: 46a8 c93b 8aae cbbc 6b39 24be 44bc d7bc
00000280: 818f 8a3d 1da9 053e a115 fd3c d560 d2bc
00000290: 3a0c d13d 6fe5 87bd 9450 e13d abc6 053e
000002a0: 1d74 083e 401e ea3d fcd8 103e de07 13be
000002b0: ce2f ddbd 1a4a 9ebd 6507 ef3d a008 283e
000002c0: b47a 96bd 62dd 153d 38c4 e4bd f5db dabc
000002d0: 74d6 f43d 1703 833d b47b 01be 7fe4 613d
000002e0: cede bbbd 2e73 ecbd 1f14 aebc 44fb 1b3e
000002f0: 1595 1fbe 75e0 2a3e aeb0 dabd 7021 c73d
00000300: 47c2 f23d 300b c03b b6e6 213e 0f7d 263e
00000310: 1786 c53d b5c6 d53b 6859 13be eebd 773d
00000320: 1d2e 2c3e 2e48 61bd f3a9 f0bc 037c 2d3e
00000330: 38d8 1abe 0150 2cbe 0fca 93bc 1ad7 fbbd
00000340: 5c17 05be 52fb 063e f015 e0bc 8ef7 20bd
00000350: df84 d03d ee13 173e 952a a43d 8ae0 343e
00000360: 483c 9ebd 7d1e 213e b734 ebbd 57de 233e
00000370: e0cc 4c3d ea81 b63d 6b1c 52bd 46fe 25be
00000380: 091c 9d3d 484f 83bc 64b2 fe3d 3ec9 233d
00000390: c4e0 b6bd 47c8 cc3c 2312 32be 7237 8abc
000003a0: 0196 333e 2440 88bd d78d 46bc b976 cfbd
000003b0: bae1 f73d fe7d 923d 8e40 093d 6f13 85bc
000003c0: a59f 193e c433 2ebe 559e 2b3e c312 173c
000003d0: 226a 173d 47dd 08be 4ccb 083e 1e86 c83d
000003e0: 7f4b 803d e6da 063d cfae c6bc b96a 203e
000003f0: 13dd 07be 2a23 2fbe 9a6a 303d 1061 ddbd

8.bias f4 [12]
-0.15816106 -0.118616864 -0.01166728 -0.023084186 0.016010176 -0.13035744 0.16085695 -0.022345627
0.1429129 0.0064312927 0.16554713 -0.06518501
00000000: f9f4 21be 66ed f2bd 1f28 3fbc 0c1b bdbc
00000010: c627 833c 6c7c 05be afb7 243e 2d0e b7bc
00000020: c257 123e 98bd d23b 3085 293e b87f 85bd
