unitree_3_sa.pt (torch, 85182 bytes, 10 tensors)

0.weight f4 [64, 19]
00000000: 923b 3cbe 532b 513e b639 2c3e a78e 0b3d
00000010: 58fe 333e 73f1 263e fb59 2a3e 299c 653e
00000020: 8e58 26be 5714 3abc 5178 31bd 319e 08be
00000030: da90 d23d 8f89 243d f7f5 883d 83fa 2bbe
00000040: 2986 92bd 02e2 3e3b e8c6 36be b502 dc3c
00000050: 59f8 bfbd 266e 6fbc e12c ef3d 6966 e63d
00000060: 3aba 70bd 68d7 0a3e ec09 8ebd 8f6d 693e
00000070: 4625 4f3e fe12 1ebe 9e08 0c3e 8f16 693e
00000080: e087 2b3e 8117 b03b 6721 323e 13c9 21be
00000090: 8dca 473e c28e bfbb 5cf9 0b3c f949 5a3e
000000a0: 175e 89bd 8fec e9bd 550d 413e 906c 983d
000000b0: 75b8 bdbc 0b46 8bbd 9398 183e 7cba 3ebe
000000c0: 07ba 6dbd f7ec 3c3b e7fb 983d 1e7f 81bd
000000d0: ac75 8f3d 0658 66be 9fee 273e c4da 07be
000000e0: 86c6 303e 1a64 063b fbe8 103e 9ae5 363e
000000f0: 5462 273e c48b 933d a4e2 3c3c 23d2 5a3e
00000100: cfb8 dabd 0731 37be d0a9 c23d e69e 1e3d
00000110: f547 533e 6aa9 523d 3207 25bd ea14 293e
00000120: 2a9e 19be 1463 f1bc fb1c ad3d f8aa 3fbe
00000130: 0b45 4e3e 0ef2 e5bd d336 0a3e 7183 893d
00000140: d611 4abe 4802 873c acca 353d 7568 fe3d
00000150: 208a d8bd 71db 81bd 11ab 3d3d b62d dd3d
00000160: 4a7d 2c3e 6bac ca3d df6f 303e 4e7c 073d
00000170: 4faf 1fbe 8073 2bbe f3a2 98bc 3d0a 163e
00000180: e772 45be 6c07 d03d 8631 8ebd f873 473d
00000190: 2008 f3bd 7c18 56be ae0a 8fbd 365f 36be
000001a0: 4843 5f3e 7380 693e afe5 1a3e d76e 41be
000001b0: 778d 473d 3e05 503e c4d9 d3bd ccd9 cebd
000001c0: fbaf 7b3d e072 cb3c b8a9 e03d d602 183e
000001d0: a663 babd c876 58be c72e 51be 90ef 26be
000001e0: 5444 013d a183 263e 4630 a6bd 14c4 8dbd
000001f0: 5cac a33d 52c9 13be 35df 67be a3e0 123e
00000200: ff7d 7a3d 44f8 323e 526e 3b3e e30d 95bd
00000210: 4567 853d 7374 54bd 1566 203e 2812 e83d
00000220: acd1 5abd 88d9 593d 3c60 4dbe 7978 16be
00000230: e57a a23d 457b 0a3c 019d 8c3d a1cf 1c3e
00000240: 9e17 0bbe 2571 3cbe 50b0 64bd cd53 1dbe
00000250: 1e33 ff3d ae58 8e3d 727c ff3d bc5f 11be
00000260: e2d1 573e bbf0 d9bd 9211 4abe 8fed 5ebe
00000270: ce93 5ebe d67d ea3a ce9c 8c3d 4cfc f0bd
00000280: 2546 89bd f793 40be bacc c4bc e03c 50bc
00000290: 57c8 13be e1d8 283e 243c 0ebe 5f7c 35be
000002a0: ee53 953d 515f cdbc c21d aabc 02ba 393e
000002b0: 1b77 103e b385 e4bc dc6b 95bb af05 e5bd
000002c0: d018 e73a 91ad 0bbd d547 55be d358 0f3e
000002d0: 546c edbd d1d3 13bd 3947 673e ed16 373e
000002e0: 581c f33d 9485 5bbe 27ea 523e ea84 c9bd
000002f0: e9f9 d1bd ad78 4dbe 395b 6ebd a949 d53d
00000300: f691 13be 6a14 a43d eec4 82bd fb80 2dbe
00000310: 80c6 f0bb 9c40 893d 59cb 4f3e e531 4dbd
00000320: 0211 8a3d 281c 30be f481 11be 2610 993c
00000330: 0f82 57be 3432 c03d 3814 ffbd 541c 143e
00000340: 4684 57be 4754 ce3c ee2f ba3d ebeb 02bc
00000350: 98cd 1b3e c99b 4a3e c3ce 6ebd 4167 073e
00000360: 2726 373e cd05 4d3e dccc 173e 37fe a6bd
00000370: 7c98 693e 8ebd 46be 348e 1b3e ef84 1ebe
00000380: c2d2 91bc 2de7 b73d 2170 9b3d 42ee 4ebe
00000390: 7340 0cbd 3ce7 dfbd 8396 143e 8b5d 0bbe
000003a0: 8562 3ebe 7d48 e4bd 4351 d1bd b583 3dbe
000003b0: 2b24 3d3d 8d01 313e cc57 4d3e 97d9 12be
000003c0: 33b3 723d 96a2 89b9 bfbb 69be 5d49 203e
000003d0: 347b 14be 01c7 9f3d 05b2 28bc ef49 243e
000003e0: a787 b83d f9f8 c73c 031a 60be 49ad 4abe
000003f0: 6f7a 0d3c c9b4 983d d386 5d3d 78e3 ac3d
-0.183821 0.20426683 0.1681889 0.03407159 0.17577493 0.16303043 0.16635887 0.22422852
-0.16244718 -0.011357388 -0.043327633 -0.13341595 0.102815345 0.04017025 0.06687539 -0.16794781
-0.07154495 0.002912641 -0.17849314 0.02685676 -0.093735404 -0.014613664 0.11678482 0.11250002
-0.05877135 0.13558733 -0.06935486 0.227957 0.20229062 -0.15436932 0.13675162 0.22762512
0.16751051 0.0053738956 0.17395554 -0.1579936 0.1951086 -0.0058458755 0.008543339 0.21317281
-0.06707399 -0.11422073 0.18852742 0.07442582 -0.023159245 -0.06800469 0.14901952 -0.18625826
-0.058038738 0.0028827765 0.074699216 -0.06323074 0.07004866 -0.22494516 0.1639962 -0.13267046
0.1726323 0.0020506443 0.14151375 0.17861024 0.16346103 0.072043926 0.011528645 0.21369223
-0.10679781 -0.17889796 0.095050454 0.038725756 0.20632918 0.051431097 -0.040290065 0.16511884
-0.15001741 -0.02946619 0.08452793 -0.18717563 0.20143525 -0.11227809 0.13497476 0.067145236
-0.19733366 0.01648058 0.044382736 0.12422267 -0.1057322 -0.06340683 0.04630572 0.10799734
0.16844669 0.09896167 0.17230175 0.03307753 -0.15594219 -0.16743279 -0.018632388 0.14652343
-0.19282113 0.101576656 -0.069430396 0.04869458 -0.11866784 -0.20907778 -0.06984459 -0.17809758
0.2180301 0.22802906 0.1512668 -0.18889938 0.048718896 0.203145 -0.1034427 -0.10100135
0.061447125 0.02483505 0.10969871 0.14844832 -0.09101038 -0.21139061 -0.20428 -0.16302323
0.031559303 0.1626115 -0.08114676 -0.069221646 0.07991859 -0.14432266 -0.2264374 0.14343505
0.061155315 0.17477518 0.18303803 -0.07278039 0.06513838 -0.051868867 0.15663941 0.11331588
-0.053422615 0.05318597 -0.20056242 -0.14694394 0.079335965 0.008452241 0.068658836 0.15313579
-0.13583228 -0.18402536 -0.055832207 -0.15363999 0.12460922 0.06950508 0.12474908 -0.14196676
0.21076158 -0.10641619 -0.19733265 -0.21770309 -0.2173607 0.0017890285 0.068658456 -0.11766872
-0.06702832 -0.18806444 -0.024023402 -0.012709826 -0.14431892 0.16488983 -0.1389013 -0.17723225
0.07291399 -0.025069864 -0.020766143 0.18137363 0.14107935 -0.027895784 -0.004559977 -0.11182725
0.0017631296 -0.034101073 -0.20828183 0.13998728 -0.115929276 -0.036090676 0.22585763 0.17879839
0.118706405 -0.21437675 0.20597135 -0.098398045 -0.10252745 -0.20065565 -0.058192465 0.1041444
-0.14411148 0.08011706 -0.063852176 -0.16943733 -0.007347882 0.067017764 0.20292415 -0.05009641
0.06741525 -0.17198241 -0.1420973 0.018684458 -0.21045707 0.093845755 -0.12455028 0.14463931
-0.21046552 0.025186671 0.09091173 -0.007990818 0.15215147 0.1978599 -0.058302652 0.13222982
0.17885648 0.20021744 0.14824241 -0.081539564 0.22812074 -0.19408247 0.15190965 -0.15480398
-0.017800692 0.0897964 0.07589746 -0.20208076 -0.03424115 -0.10932776 0.1451054 -0.13609903
-0.1859227 -0.111466385 -0.102205776 -0.18507273 0.04617707 0.17285748 0.20053023 -0.14340816
0.05925293 -0.00026251812 -0.22825526 0.15652986 -0.14500123 0.07801629 -0.010296349 0.16043828
0.09010249 0.024410712 -0.21884923 -0.19792666 0.0086351475 0.07456357 0.054083657 0.08441824

0.bias f4 [64]
00000000: a569 9f3d afc2 b83d 6e3b b73c 34fd b23c
00000010: 3ac4 56bd 81de 4abe e37b 44bd 3afe bebb
00000020: 6e87 c5bd d127 51be 0f62 363e 52cd f93d
00000030: 9b16 633d 222a e5bc 97ff 7abd ac6e 15be
00000040: 791f 48be ebe3 583e e0b4 55be a5de f23b
00000050: 12a0 f43b 7464 34be 693a cc3d 7c10 233d
00000060: 4b14 403e c3cf 603e eb8a 043e 7902 533e
00000070: 4b0e 5e3e 3d79 773d 38e7 f13c cb07 f63b
00000080: a98b e83d 87d2 1a3e 34c1 e3bd 3faf 1b3d
00000090: 83a4 aa3d 2d13 833d ffd2 81bb f476 113e
000000a0: 1006 b8ba 7bea d43d 4faf 3e3e dd7b 203e
000000b0: d4f2 0fbe c4f3 07be 12f0 d9bc a062 c23c
000000c0: 0e88 dcbc 4e49 653d 4756 6a3e a8cf 51be
000000d0: 950d 6abe a126 393e a8f9 94bd 0149 97bd
000000e0: 1352 c53c 2ef6 7f3d 55d0 763d d698 323d
000000f0: 592a d03c ee5c ff3d d110 37be 7ca3 5fbe
0.07783822 0.09021508 0.022367205 0.021849252 -0.05243323 -0.19811441 -0.04796971 -0.005828646
-0.09644972 -0.20425345 0.17810844 0.12197365 0.05544148 -0.027974192 -0.061278906 -0.14592999
-0.19543256 0.21180694 -0.2086978 0.007411795 0.007465371 -0.17616445 0.09972078 0.039810643
0.18757741 0.21954255 0.12943618 0.20606412 0.2168514 0.060418356 0.029529199 0.007508253
0.11354763 0.15119372 -0.11120835 0.038008925 0.08332159 0.06400142 -0.0039619203 0.14205533
-0.0014039893 0.10396286 0.18621562 0.1567225 -0.14057475 -0.13276583 -0.026603732 0.023728669
-0.026920345 0.055978112 0.22884475 -0.20489371 -0.22856744 0.18081142 -0.07274181 -0.07386971
0.024086988 0.062490635 0.060257275 0.043602787 0.025410818 0.12468897 -0.17877509 -0.21839708

2.weight f4 [128, 64]
00000000: a474 3e3d 1856 ba3d 2269 d1bd 2c6a 2d3d
00000010: 90aa f13c 02a3 9abd c250 81bd 0047 b7ba
00000020: d889 283d 2892 43bd 4e90 f7bd 7ebd 893d
00000030: e8cb 763d e8b4 1abd 6eba b43d 9019 573d
00000040: 0877 2ebd 2010 acbb e6e4 f43d aa2a c8bd
00000050: d47f 0e3d eea0 9ebd d05b 02bc 807b f83b
00000060: 3421 b43d 54c8 2c3d 6434 debd f635 933d
00000070: 7436 783d f464 3c3d 00f9 14bc 00f3 0d3a
00000080: 5cf5 12bd a4ee 03bd d8bd a3bc 06fa a83d
00000090: 6aaa d73d 48e0 89bc fe12 f6bd 5043 68bc
000000a0: 0478 afbd dc8e 05bd 9417 563d 401f 25bb
000000b0: 9cd8 a63d 1003 06bc 008d 863c 9ad0 d13d
000000c0: 00f9 88bc f02b 74bc acce c9bd 80d6 49bd
000000d0: 30d6 b5bd a00f 5e3d 90f4 20bc 805f 04bb
000000e0: 181f ddbc 70ad 4fbd ea05 a03d b4d0 6d3d
000000f0: 3eb7 93bd 8cf1 f4bd 7c83 0fbd 2c0a 78bd
00000100: 1c0e cebd 6e1e e2bd d441 ad3d 845a 3ebd
00000110: 1aff 9fbd c436 aabd 14dc 5d3d 5408 a4bd
00000120: fa19 f03d 720d e43d 20c0 4a3c 48fc f63c
00000130: 9e46 95bd cad9 88bd e48e 1d3d f6a0 e03d
00000140: ccb2 9b3d 4e0e f2bd a698 ecbd 505a 233d
00000150: d8d2 c43c ee5e dabd 8aec f9bd 26f1 bbbd
00000160: d004 48bd 60b7 3f3c b01e 493d e045 1ebc
00000170: da12 8bbd f4bc debd b0fa fe3d 7666 e5bd
00000180: 7827 623d 94cd 5abd 546f e93d f2f7 ff3d
00000190: 441b 753d b85f c33c 34a4 b1bd 48fe 1e3d
000001a0: 2804 e13d 1468 183d 4adb cbbd 68d2 b8bd
000001b0: 9803 d2bd 2498 a3bd d0fe 0c3c 5cff bf3d
000001c0: b009 06bd b043 af3d dee9 b43d c09b 9cbc
000001d0: a881 29bd f838 a7bc 10b1 7dbc 781e f2bd
000001e0: 8c87 b53d 4083 9e3d a218 8e3d 7886 1b3d
000001f0: c21e eb3d 343f dd3d 600f 9cbc 029d bdbd
00000200: 68e4 923d aceb 873d 4800 f73c 7282 fcbd
00000210: 3816 97bd fa46 e73d 40c1 7cbc 70fe 1a3c
00000220: 78f5 b8bc 88fb c83c 8692 b13d 0837 a33d
00000230: b6f3 9c3d 6863 45bd 805f 453d a4a0 2fbd
00000240: 42ab c9bd c075 18bc 00aa 873d ae9c ebbd
00000250: e4f4 3ebd 70b6 d8bd 008e 293a 3c5d 9a3d
00000260: e88f 7c3d 7443 ecbd 281b 063d b073 dbbc
00000270: 9a3a acbd 00f8 963b ccd1 debd c81d f73c
00000280: c0cb 58bd 7052 da3d 8e24 993d 401d 003b
00000290: 0018 003b 786e 873d c029 a8bc 0687 a8bd
000002a0: 965f dc3d 60c0 0d3d 8a38 df3d e8da 06bd
000002b0: c4d2 e2bd f647 f83d 9aad aa3d 946f f3bd
000002c0: 62a6 a33d d4bf c33d 2c62 573d fc0e 31bd
000002d0: 6cc1 373d cc1c e1bd 143c 27bd a069 eb3d
000002e0: c051 acbb 4090 11bd f214 bf3d 48ef cb3d
000002f0: 96a7 e93d f8fd d33c 66a5 c8bd 205e 533c
00000300: 665b 9c3d 2809 213d a064 d1bd 2c19 433d
00000310: e8eb 09bd c061 893c 3667 983d 4e30 833d
00000320: eaef cd3d 707f dcbd f023 febd 0091 6b3a
00000330: 68fe 853d 40ac 193c a041 a63d e804 70bd
00000340: 209e 643d c4a9 2cbd 0020 7cbb 407c 3abc
00000350: b036 d23d ec81 293d cc49 8fbd a054 f33c
00000360: f47e 663d 3a89 843d 8080 48bd 8475 babd
00000370: 3401 8dbd b664 c0bd d029 75bd 0ede c0bd
00000380: 6c1b acbd a21b d8bd 1ab9 cfbd e8e4 b23d
00000390: 00b8 8d3c 6802 673d 18d8 ca3c b0de 573d
000003a0: 3444 a93d eea1 ef3d c412 36bd b830 793d
000003b0: 180e 42bd ccf4 533d 6815 833d 98c5 a3bd
000003c0: f095 c63d 8ecc f2bd 64db debd c07c 47bc
000003d0: 90be 4a3d fea3 dabd 2611 9ebd f494 173d
000003e0: a692 dd3d 4a14 d03d 20f4 c5bc 34e5 b93d
000003f0: 88be 0bbd 7cbf c7bd 600e 6d3c e44e ee3d
0.046497956 0.09098452 -0.102251306 0.04233758 0.029500276 -0.075506225 -0.063142315 -0.0013982952
0.041147083 -0.047746807 -0.12088071 0.06725596 0.060253054 -0.037770182 0.08824621 0.052514613
-0.042593986 -0.0052509457 0.119577214 -0.097737625 0.034789875 -0.07745539 -0.00795646 0.0075830817
0.087953955 0.042183235 -0.108498365 0.071880266 0.060598806 0.045994714 -0.009092569 0.0005414933
-0.035878524 -0.032210007 -0.019987985 0.08250813 0.10530551 -0.016830578 -0.12015341 -0.014176205
-0.08567813 -0.032606944 0.05226858 -0.0025195628 0.08146784 -0.008179441 0.016424656 0.10244866
-0.016720295 -0.014903054 -0.09853873 -0.04927683 -0.08878744 0.05421412 -0.009823933 -0.0020198524
-0.026992366 -0.050702512 0.07813628 0.058060363 -0.07212685 -0.11960134 -0.035037503 -0.060556576
-0.10061285 -0.1104096 0.08459821 -0.04647304 -0.07812329 -0.08311227 0.05416496 -0.08009401
0.11723705 0.11135377 0.012374908 0.030149594 -0.0728886 -0.06682165 0.03846635 0.10968201
0.07602462 -0.11819135 -0.11552553 0.03988105 0.02402632 -0.10662638 -0.12203319 -0.09176855
-0.048832715 0.011701435 0.04910153 -0.009660214 -0.06790705 -0.10875884 0.124501586 -0.112011835
0.05521342 -0.05341871 0.11398187 0.12498464 0.059840456 0.023849353 -0.086738974 0.03881672
0.10987121 0.03720863 -0.099539354 -0.09024507 -0.10254592 -0.07988003 0.008605674 0.09374878
-0.032724082 0.08557832 0.08833669 -0.019117236 -0.041383415 -0.020412907 -0.0154841095 -0.11822218
0.08863744 0.07739878 0.06938292 0.037970036 0.11480476 0.10803071 -0.0190503 -0.092584625
0.07172471 0.06636748 0.030151501 -0.12329568 -0.07377285 0.112928346 -0.015426934 0.009460077
-0.022577986 0.024534002 0.08670525 0.07969481 0.07663672 -0.048190504 0.04818678 -0.04287781
-0.09847118 -0.009305418 0.06624222 -0.11504494 -0.046620265 -0.10581672 0.0006467998 0.07537314
0.061660677 -0.11536303 0.032740742 -0.026788563 -0.08409615 0.0046072006 -0.10879859 0.030165568
-0.052928686 0.10660255 0.074776754 0.0019548684 0.0019545555 0.06612867 -0.02052772 -0.08228879
0.10760419 0.03460729 0.10899456 -0.03292361 -0.110753566 0.121231005 0.08333893 -0.11886516
0.079907194 0.09558073 0.05258386 -0.04322718 0.044862196 -0.10991821 -0.04082878 0.11494756
-0.005258769 -0.03553796 0.09330167 0.09957749 0.114089176 0.025877938 -0.09797172 0.012900859
0.0763462 0.039315373 -0.10224271 0.047631428 -0.033672243 0.016770244 0.07441561 0.06405698
0.100555256 -0.10766494 -0.12409198 0.0008986145 0.06542665 0.0093794465 0.08117986 -0.05859843
0.055814862 -0.04215409 -0.0038471222 -0.011382163 0.10264337 0.04138367 -0.069964975 0.029703438
0.056273416 0.064714864 -0.048950672 -0.091044456 -0.06884995 -0.09394209 -0.05985433 -0.094173536
-0.08403668 -0.105521455 -0.10142727 0.08735067 0.017299652 0.05639878 0.024761245 0.052702606
0.08264962 0.117008075 -0.04445149 0.060837477 -0.047376722 0.05174713 0.06400567 -0.079966724
0.09696567 -0.11855422 -0.10881689 -0.012175739 0.04949814 -0.1067581 -0.077181146 0.037007287
0.108189866 0.1016012 -0.02416426 0.0907692 -0.03411725 -0.097533196 0.014468759 0.11636141

2.bias f4 [128]
00000000: 106e 6c3c b815 693d a62c 823d cef5 ef3d
00000010: 24e5 253d 00bc bc3a 9458 e5bd c421 49bd
00000020: de9c a23d b8fd 1cbd 6011 a43c c08d 16bd
00000030: f865 b43c b2a7 e93d c8fd bcbd 502f 813d
00000040: d0be 183c ae3c 8ebd 58e3 d63d 00e6 94ba
00000050: f4a5 dcbd 7e02 d3bd dabf c0bd 0244 adbd
00000060: e003 d23b 5042 13bd a063 e7bd 96cd b6bd
00000070: f4d1 d7bd 50d2 2a3d cc37 3abd 8afd 933d
00000080: d49d a9bd bee0 893d e2aa a03d 2a9e 913d
00000090: 9c15 38bd eee4 bfbd 0067 c4ba 4065 dbbd
000000a0: a079 67bc 5ca3 da3d cc93 7ebd 024b 8abd
000000b0: c49b fcbd ee8b b93d 0c65 f7bd 56e8 b43d
000000c0: 1ecb 86bd 52f7 823d 1893 a2bc 4037 a13d
000000d0: 185d f9bc d457 98bd a6ec e1bd e4e1 11bd
000000e0: 361a b93d 4aa7 bcbd 3e94 8b3d f67f d7bd
000000f0: e044 e0bd b0d6 adbd 78da 45bd dc78 a83d
00000100: d0a4 3dbc 64cd b8bd 84aa 3fbd 80b0 393d
00000110: 309b 28bd f060 1f3c 0075 eabd 688f 99bd
00000120: 00bd 7bbb f049 88bd 2458 1dbd 40dc 3abd
00000130: 3ef8 c33d 4034 24bb 44e2 52bd 34fe 86bd
00000140: 0027 aa3b 6614 8abd e0b3 91bc 64b7 ddbd
00000150: 0610 ce3d 10ea 87bd a86d f83d 38ca bebc
00000160: 7440 e7bd e6de afbd c027 7fbc d48c 683d
00000170: fa6c c23d 78fc 12bd 90ed 263c 989f a83c
00000180: 906a 90bd be0d c43d deac d0bd ee90 c03d
00000190: d4e0 2fbd 1cf0 de3d 1ce6 19bd b654 b9bd
000001a0: 3803 5e3d 00b0 fc3b 88e1 d4bd 18bc 47bd
000001b0: 20f7 763c 4c6d c8bd 7827 a43d b0c7 1e3d
000001c0: 6cc3 773d 801f e13c 2ac3 c3bd b889 7ebd
000001d0: 98f2 9ebc 184b 233d 1820 a5bc 4850 d8bc
000001e0: c849 af3d eaa4 debd 905a 9a3c 12ef 9bbd
000001f0: e044 59bc ec53 e0bd 3e03 d8bd 1e73 be3d
0.014430538 0.05690548 0.06356172 0.117168054 0.04050173 0.001439929 -0.111985356 -0.049104467
0.07940076 -0.038327903 0.020027816 -0.036756277 0.022021279 0.114089385 -0.092280924 0.06307852
0.009322837 -0.069451675 0.10492581 -0.0011360049 -0.107738405 -0.1030321 -0.09411593 -0.08460237
0.0064091533 -0.035951912 -0.11298299 -0.08925931 -0.10538092 0.041704476 -0.04546337 0.07226093
-0.082820565 0.06732319 0.07845093 0.071102455 -0.044942483 -0.09369837 -0.001498431 -0.10712671
-0.014128119 0.106756896 -0.06215267 -0.06752588 -0.123343974 0.090598926 -0.1207982 0.08833377
-0.0658171 0.06394829 -0.01984553 0.07871866 -0.030439898 -0.07438627 -0.11031465 -0.035615817
0.090382025 -0.09211595 0.06815384 -0.105224535 -0.10950637 -0.08488214 -0.04830405 0.08226177
-0.011574939 -0.0902355 -0.046793476 0.04533434 -0.041163623 0.009727702 -0.11448097 -0.07498056
-0.0038412213 -0.066547275 -0.038414136 -0.045620203 0.09568833 -0.0025055557 -0.051485315 -0.06591454
0.0051926374 -0.06742172 -0.017785966 -0.108259946 0.1006165 -0.06636441 0.1213029 -0.023289785
-0.1129159 -0.085874364 -0.015573442 0.05677493 0.09493442 -0.035885304 0.010188475 0.020583913
-0.07051575 0.095729336 -0.10189222 0.09402643 -0.042939022 0.10885641 -0.037572965 -0.090493605
0.05420229 0.0077114105 -0.10394579 -0.048763365 0.015073568 -0.09786472 0.080153406 0.038764656
0.060489103 0.02748084 -0.09558709 -0.062143058 -0.019402787 0.039866537 -0.020156905 -0.026405469
0.085589945 -0.108712986 0.018842012 -0.076139584 -0.01326105 -0.10953507 -0.105474934 0.092993006

4.weight f4 [64, 128]
00000000: 3ef7 a1bd 3479 0bbd 3f58 543d 1537 1f3d
00000010: a133 373d fc61 36bd bdb1 953b 133f 33bd
00000020: 209a b13d acd5 f5bc 6e06 0fbd ef36 93bc
00000030: cd52 0a3c 9ed7 b4bd 24e9 ed3b 3a1c 463d
00000040: f067 aabc aa22 5cbd ddf6 323b e70f 15bb
00000050: a8e7 19bd 9f5f 773d 9395 9e3d 06f3 61bd
00000060: f19d 91bc 646d 353d 5a41 c4ba f81e 59bd
00000070: c2ec 8d3d 355d 74bc 980f 903d dc0d 87bd
00000080: 1f81 273c 993e 123d 9343 653d 5eb5 b23c
00000090: d430 32bc 1452 c43c f265 153d d63a b0bd
000000a0: 74c4 1e3c f47d a3bd 51cb aa3d be53 73bd
000000b0: 52ed b1bd 361b 70bd b5c1 c9bc 8633 8abd
000000c0: 9051 90bd 5e84 903d 4775 7b3c bf08 e4bc
000000d0: 18bf 033c b90c 3e3d 4412 9cbd b307 743d
000000e0: 1982 993c 69f6 47bd 1692 fcbc 46ce 9a3d
000000f0: 912a 4dbd 8e75 31bd e4e6 b1bd a2ba 8f3d
00000100: 4d40 833c 6b21 81bc d7a2 82bd 63df 913d
00000110: 4166 353d 5ef1 70bd 09d7 9cbd 76d4 31bc
00000120: 956d 08bd 8d72 113d 4b2a a53d bd54 753c
00000130: b6bc 303d f188 773d 0d25 3cbd df61 043d
00000140: 6e90 7c3b f954 403d 0edc 413d 19bc 8e3b
00000150: 6549 113d 771c 9a3d 7c66 b03d 1cdd 4d3d
00000160: c295 0e3d 4a43 9fbd 4b8f 8ebd 89ca b2bc
00000170: 0dd0 683d 0ec9 2c3d 24f5 683d 952c 613b
00000180: 559b 973d edbd 8f3d c15f 05bd d209 35bd
00000190: 0a83 e73c 0fef 673d c117 d7bc d9ab 76bd
000001a0: e45f 653d 6a20 84bd 890b 133b 1424 473d
000001b0: 7605 493b 2cd2 fb3c 4c7c b5bc 6408 99bd
000001c0: 08b0 8cbd d686 d7ba 4e96 82bc a767 8c39
000001d0: 2611 b5bc 27e8 8e3d c685 82bd bb2b 74bd
000001e0: aab2 033d 856f 683d ec87 8abd 4a3f 803d
000001f0: 7794 80bd 132d 773d 298a 8abd aced 983a
00000200: 4a9d 2ebd 8edc a0bd 7f77 f93c 9513 7c3c
00000210: c720 bcbb e39e b43d 53b9 143d 7034 393c
00000220: 5c01 ccbc 28bd 3c3d 6357 60bd 080b 103d
00000230: 40a6 803c e8f9 bb3c aee7 06bd 7e06 5ebd
00000240: a7cf 5ebc a1bb 653d 7b98 9bbd c130 103d
00000250: bf5b 26bd e6d6 8cbd 19dd 103c 99cb f5bc
00000260: 66b3 693d c60d 013d b01f 13bd 2d1b 77bd
00000270: 3b88 6dbd cb9c 1fbd d9ab aebd faa4 59bd
00000280: 33ba 9f3d 7ab7 1f3c 29f5 043d 867f b93c
00000290: d2fa cbbc 440a 74bd 7e08 ae3d 9a11 e53b
000002a0: a3c6 8a3d a14b 95bc b4f7 c7bc 0bbe 55bd
000002b0: bb33 50bd 207e a9bc ed55 e53c c59a 2e3d
000002c0: 38a9 61bd 1a36 91bd 46c9 583d 7dfd 003d
000002d0: d028 6cbd 33e1 873d 8dc9 65bd c1de a1bd
000002e0: 0ed0 1cbd 6a21 283d e3d3 3c3d 684c e0bc
000002f0: e679 63bd b1cd 3bbc 8a16 9ebd c1b8 4ebb
00000300: 5046 57bb f77a b13d fae1 543d c060 48bc
00000310: c05f b03d a629 a93c b899 9d3d 4c2c ac3d
00000320: fa1c 84bd c839 7dbd ebea 7e3d f785 abbd
00000330: 33a1 ab3d f4ea 363c 5aff 2fbd 3330 debb
00000340: 6232 2ebd 7fb0 e23c d543 90bc 3e3a 8f3d
00000350: e536 debc 75bd e43b 0ee9 2d3d 8cf7 ac3d
00000360: 874b 8dbd 7ac3 dabb 4994 6fbd bdc2 9bbd
00000370: 6c63 afbb 974d 64bd 68fc 2cbd f029 2d39
00000380: ad0f ac3d 87b8 623d 52c0 9b3d 3319 143d
00000390: fc4b 6bbd 3eda 5dbc 0af6 6a3a f6a8 84bd
000003a0: 9fac dbbc a81b a2bb 7cf5 87bd 61d5 a2bc
000003b0: b01f 46bd 3618 30bd 16c3 15bd 61a8 ca3c
000003c0: bb00 7abd c636 643d 4230 b43d 307a 763d
000003d0: ae6b 173d b215 603d 0662 8c3d 713b e7bc
000003e0: f1e1 223d 6622 9d3c 5f8f 473d 8221 2bbd
000003f0: fa3c 76bd 5d03 1d3d e80d 38bd 98d3 28bd
-0.07908486 -0.034051135 0.05184197 0.03887089 0.04472697 -0.04452704 0.004568307 -0.043761324
0.08671975 -0.030009113 -0.03491824 -0.01797053 0.008442593 -0.08830188 0.0072604585 0.048366763
-0.020801514 -0.053743996 0.0027307787 -0.0022745074 -0.03757444 0.060393926 0.07743373 -0.055163406
-0.017775508 0.044293776 -0.001497309 -0.05300805 0.069299236 -0.0149148 0.07034224 -0.0659444
0.010223656 0.03570423 0.055972647 0.021814998 -0.010875899 0.02396492 0.036474176 -0.08604972
0.009690393 -0.07983008 0.08339561 -0.059406035 -0.086878434 -0.0586197 -0.0246285 -0.067481086
-0.07046807 0.07056497 0.015347785 -0.027836202 0.008041166 0.046398852 -0.076206714 0.059577655
0.018738793 -0.04881898 -0.030831378 0.07558875 -0.050089423 -0.043325 -0.08686617 0.07018019
0.016021872 -0.015763005 -0.063787155 0.07122686 0.04428697 -0.058823936 -0.07658202 -0.010853877
-0.03330763 0.035509635 0.08064707 0.014973816 0.04314872 0.060433332 -0.045933772 0.0323199
0.0038538235 0.046956036 0.047329 0.004355919 0.035470385 0.075249605 0.08613297 0.050259694
0.03481079 -0.07776506 -0.06960925 -0.021825092 0.056839038 0.04218393 0.05687441 0.0034358848
0.07402674 0.07018647 -0.03256202 -0.04419882 0.028260726 0.05662447 -0.026256444 -0.06022248
0.05599965 -0.06451495 0.0022437295 0.04861839 0.003067342 0.030739866 -0.022153996 -0.074723035
-0.06869513 -0.0016443382 -0.015940811 0.00026780108 -0.022102904 0.06977873 -0.063731715 -0.059612017
0.03215281 0.05674698 -0.06764206 0.062620714 -0.062783174 0.06034572 -0.06764633 0.0011667511
-0.04263047 -0.078545675 0.030452488 0.015385528 -0.005741212 0.08819368 0.03630955 0.011304006
-0.024902992 0.04607883 -0.05477084 0.03516677 0.015704274 0.022946313 -0.03293579 -0.05420541
-0.013599313 0.05608714 -0.07597443 0.035202745 -0.04061484 -0.06876926 0.008841776 -0.03000431
0.057055853 0.031507276 -0.03591889 -0.06032865 -0.057991248 -0.03896789 -0.08528871 -0.05313585
0.077991866 0.009748334 0.032460365 0.022643816 -0.024899874 -0.059580103 0.084977135 0.0069906237
0.06776168 -0.01822454 -0.024410106 -0.052183192 -0.050830584 -0.020690024 0.027995074 0.04262807
-0.05509302 -0.07090397 0.052926324 0.031491745 -0.05765611 0.0663475 -0.056100417 -0.07903815
-0.038284354 0.04104749 0.04610051 -0.027380183 -0.055536173 -0.011462615 -0.07719143 -0.0031543227
-0.0032848306 0.08666032 0.05197332 -0.012230098 0.08612013 0.020649742 0.07695335 0.084068865
-0.06450839 -0.061822683 0.062235754 -0.08375161 0.08380356 0.011164416 -0.04296813 -0.006780648
-0.042528518 0.02767205 -0.01761047 0.06993531 -0.027125785 0.006980593 0.042458586 0.08445653
-0.06899171 -0.0066761347 -0.058491025 -0.07605503 -0.005352428 -0.055738058 -0.0422329 0.00016514189
0.084014274 0.05535176 0.076050416 0.036156844 -0.05744551 -0.0135408025 0.0008963054 -0.06477539
-0.02681571 -0.0049471445 -0.06638619 -0.019877138 -0.048370063 -0.04299184 -0.036563 0.024738492
-0.061035853 0.0557163 0.08798267 0.06017512 0.036967926 0.05470819 0.06854634 -0.028226586
0.039766256 0.019181442 0.048720714 -0.041780002 -0.060116746 0.038333286 -0.044935137 -0.041217417

4.bias f4 [64]
00000000: 23f4 bc3c cd7d 78bb b77e a5bd 3839 853c
00000010: 11df 9c3b e2ee 9b3d 6038 75bd 055d 803c
00000020: d1de 893d 4200 34bd d4c7 b0bc 79cc 48bd
00000030: 6944 acbd c2bb 393d 502c a73b fb21 a9bc
00000040: ed8c 0fbd c248 943d aae9 40bc 70a7 9ebd
00000050: 0975 333c fbd3 9dbd e683 4abd b9e2 40bc
00000060: 97d6 cd3c e28f 7bbd a9e3 43bb c05e 533d
00000070: 7be9 a8bd 921c 073c 2791 cf3c 214b a2bd
00000080: 3619 74bd 619b fabc 0f14 f937 58bb 30bb
00000090: 15a4 4abd 475d a33d 0f73 07bc d453 5c3c
000000a0: ace5 3a3b 6254 b03d 89cc 06bc dc8a 003d
000000b0: d1c0 7fbd 23c1 af3c d21f 5f3c 2c86 5d3d
000000c0: 1e9e fabc 7349 a33d 1e96 803d 0f03 ea3b
000000d0: f579 04bd 0a09 96bd e6a2 613d 51d2 ad3c
000000e0: 64c6 893d f5c9 70bd bb70 e1bc 08c5 3b3d
000000f0: 9128 12bd 5136 7cbd 19a6 a33d 015b 963c
0.023065632 -0.003791678 -0.080808096 0.016262636 0.004787334 0.07613923 -0.059868217 0.015669355
0.06731952 -0.04394556 -0.02157966 -0.049023125 -0.08411486 0.045345075 0.005101718 -0.020646086
-0.035046507 0.0724044 -0.01177446 -0.0774678 0.010953196 -0.07706448 -0.049442194 -0.011772805
0.025126738 -0.061416514 -0.0029890335 0.051604033 -0.08247658 0.008246558 0.025337769 -0.07924486
-0.059594356 -0.030591669 2.9692454e-05 -0.0026967134 -0.049472887 0.079767756 -0.008267178 0.013447721
0.0028518243 0.08609845 -0.008227476 0.031382427 -0.062439743 0.0214544 0.013618426 0.054083034
-0.030592974 0.07972994 0.062786326 0.007141478 -0.03234287 -0.07325943 0.055086993 0.02121845
0.06727293 -0.05878635 -0.027519574 0.0458422 -0.03568322 -0.061575238 0.07990665 0.01835394

6.weight f4 [32, 64]
00000000: cafb bfbd 6084 ddbb 3237 e9bd 287b 80bc
00000010: 580c 953c 80d5 06bd 6e34 fabd d0bf a2bc
00000020: d886 17bd 60e3 673c 0029 02ba 90f9 fa3d
00000030: 34e0 04bd 103c a23d 2051 9dbc cced c33d
00000040: 308b b73d aee8 b2bd bcb4 d5bd 70c0 5dbc
00000050: 1078 6fbd b8f9 073d 840b ddbd d04e 64bd
00000060: e0aa 7e3c e045 3c3d 700e 52bc 04e2 75bd
00000070: de7c fdbd c649 cb3d c4a1 fdbd 04bb c4bd
00000080: 88fe 81bc d00f f43d 5a78 9abd 081f db3c
00000090: 68de 8a3c 20f2 063c 2470 823d 48df bdbc
000000a0: 6060 863c 7088 0f3c f0fe ffbd 06c7 843d
000000b0: 3220 c6bd 7e3f ccbd 28ba f3bc f097 aabd
000000c0: d0a2 f4bc 285b 463d f889 9abc dc4e 293d
000000d0: 10ea 7cbc 54ce 163d 6a28 afbd 0032 63bd
000000e0: 6011 5e3c 0079 033b 9ae3 8ebd 30cd f2bd
000000f0: 3c06 d13d b03d 6cbc 3081 45bd 9428 8a3d
00000100: 4098 4dbd 9a85 9a3d 50a9 943d 12e6 b23d
00000110: 8003 38bc d856 8a3c 3691 d6bd b027 c33c
00000120: 009a 68bc 96ef d43d b4f8 9e3d 9857 94bd
00000130: 14a5 eb3d bec2 ee3d 4e90 cbbd f4f6 053d
00000140: e263 c9bd 4c23 c63d 0aae e1bd 086e 843c
00000150: e29a 9ebd 78d5 f03d 06f5 e1bd 46c7 973d
00000160: 88fc fbbc cc14 133d 38cc 283d e863 ff3c
00000170: 98cd 9d3c 44cc 1d3d f0b2 44bc 5cb8 4fbd
00000180: 2a7a b4bd a030 44bd 3013 8e3d aed6 92bd
00000190: ac69 513d 6a06 d83d 8050 7a3b 76bf 8ebd
000001a0: c0f7 e93c 10df 36bc c0b2 ef3b 28bc 403d
000001b0: 3460 503d 0c12 473d 40fa b8bd da56 d0bd
000001c0: 7254 d9bd 581b 7abd 920c ccbd 306e e7bd
000001d0: d01d acbd a021 593c 1826 4fbd ac01 8dbd
000001e0: cce3 3e3d f03e 383d 30a0 78bd 9e30 e33d
000001f0: 700f 09bc 24c6 d43d c0a6 d8bc 081c 95bc
00000200: c83f 6a3d c097 c8bd 38b3 91bc d490 ae3d
00000210: 10c3 efbd a8b2 aabc 040f 76bd a81a 5a3d
00000220: b626 fabd 5c8c bd3d 4ef5 f73d 2842 263d
00000230: 787e cd3c 0034 de3d 1c1f e23d 9492 793d
00000240: 084a 903c 04bb abbd 2a50 893d 78d5 f8bc
00000250: 0804 873d 0822 f33c 90f6 b23c 6866 e73d
00000260: 1cde 7cbd 8ea8 d73d a898 c4bd 08b8 69bd
00000270: 8cb5 22bd 1089 2e3c f487 09bd 5800 933c
00000280: 2844 b93c 80d3 9d3c 10e1 ff3d 12db ac3d
00000290: 209e 543d dc5f 273d 8851 9d3c 704d 063c
000002a0: 1acb f6bd 34a8 0fbd d8c3 853c be63 d7bd
000002b0: 289c b0bc b848 653d 9849 b9bd 0ef4 d13d
000002c0: 5c4b ab3d 0c07 933d a0fd 78bd c0b5 333c
000002d0: c0c7 f83c c087 c43c 18c8 303d dcea 34bd
000002e0: ec74 8ebd 7c08 7e3d 4420 b4bd c031 96bb
000002f0: f090 573d e061 7d3d f877 133d a8c5 bfbc
00000300: d04a 023d c843 0dbd 2054 973c 367e e2bd
00000310: c2a3 d53d 0007 f53c aa67 8f3d 824f c6bd
00000320: 924c a2bd 005b f53b 70d5 dd3d 20c3 8e3b
00000330: 6c6a 39bd e656 dcbd d01f 643d 889b e2bc
00000340: 6c05 edbd 843c ce3d 1036 373d 3070 76bc
00000350: e8bc 21bd f4bf ea3d 4084 8a3b 24be 88bd
00000360: 2c61 833d 000a ae3a 9cb6 9abd 38cd 963c
00000370: 908d 2bbd 2ad2 d73d 08bf 723d 64d5 d33d
00000380: a0b4 1b3d b0b3 ce3c d610 aabd 409c 0fbd
00000390: e250 82bd 40da d6bd e047 93bb 2cca a3bd
000003a0: c00c c73c cafd ec3d 048d 2ebd 2061 48bc
000003b0: 46d9 ddbd 9050 5b3c ccc1 ebbd c274 ab3d
000003c0: e86d 6d3d dcc6 bfbd 90ed f83c 32db db3d
000003d0: 2490 c6bd e8b6 ee3d 2a84 f7bd 7ce5 a2bd
000003e0: 005b cfba 98ac b7bd d2dc e63d 5cda 23bd
000003f0: 20d8 5abc 58fb 6cbd 2012 b1bb 7ae4 9dbd
-0.09374197 -0.006760165 -0.11387481 -0.015683725 0.018194363 -0.032918453 -0.122170314 -0.019866854
-0.03699383 0.0141533315 -0.0004965216 0.122546315 -0.03244038 0.07921612 -0.019203722 0.095668405
0.08962095 -0.087357864 -0.10434863 -0.01353465 -0.05846411 0.033197135 -0.10793212 -0.055739224
0.015543669 0.045965075 -0.012820825 -0.06003 -0.12377332 0.099261805 -0.1238437 -0.09605983
-0.01586844 0.119170785 -0.075424865 0.026748195 0.016951755 0.008236438 0.063690454 -0.023177758
0.016403377 0.008760557 -0.12499797 0.06483273 -0.096741095 -0.09973048 -0.029751852 -0.08329761
-0.029862791 0.048426777 -0.018864617 0.04133497 -0.015436664 0.036817864 -0.0855263 -0.055467606
0.013553947 0.0020061135 -0.06977005 -0.11855543 0.10206267 -0.014419004 -0.048218906 0.06746021
-0.050194025 0.07545014 0.07258856 0.08735289 -0.011231303 0.016887113 -0.104769155 0.023822635
-0.014196873 0.1039726 0.0776228 -0.0724327 0.115060955 0.11658238 -0.09939633 0.032706216
-0.09833504 0.09674701 -0.110195234 0.016165748 -0.07744385 0.11759466 -0.11033063 0.07411055
-0.030760065 0.035908505 0.041210383 0.031175569 0.019263074 0.03852488 -0.012005553 -0.05071293
-0.088123634 -0.047897935 0.069372535 -0.07169853 0.051126167 0.105480984 0.0038194954 -0.06970112
0.02856052 -0.011161581 0.00731501 0.04705444 0.050872996 0.048601195 -0.090321064 -0.101728156
-0.1061181 -0.061061233 -0.09963335 -0.113003135 -0.08404124 0.013252646 -0.05057344 -0.068850845
0.046603963 0.044981897 -0.06069964 0.11093257 -0.008365497 0.10389355 -0.0264467 -0.018201843
0.057189733 -0.09794569 -0.017785653 0.085237175 -0.11707127 -0.020837143 -0.060072914 0.053248078
-0.12214415 0.09255287 0.12107335 0.040590435 0.025084719 0.10849762 0.1104109 0.060930803
0.017613426 -0.0838528 0.06704743 -0.030375227 0.06592566 0.029679313 0.021846086 0.11298829
-0.061735258 0.10530196 -0.09599429 -0.05706027 -0.039723918 0.010652795 -0.03357692 0.0179445
0.022615507 0.01926589 0.12494099 0.08440222 0.051908612 0.040862903 0.019203916 0.0081971735
-0.12050457 -0.03507252 0.016328737 -0.10517071 -0.021558836 0.055977553 -0.0904724 0.10251628
0.08363983 0.071790785 -0.06078875 0.010968626 0.030368686 0.023990512 0.043159574 -0.04416929
-0.06955895 0.06201981 -0.08795217 -0.0045835674 0.052628458 0.06186092 0.036003083 -0.02340968
0.031809628 -0.03448847 0.018472731 -0.11059229 0.10431625 0.029910564 0.07002194 -0.09683134
-0.07924761 0.0074876547 0.108317256 0.004356757 -0.045267507 -0.10758762 0.0556944 -0.027662054
-0.115733 0.10070136 0.044729292 -0.015041396 -0.039486796 0.114623934 0.004227191 -0.066768914
0.064150184 0.0013278127 -0.07554361 0.018408403 -0.04188305 0.105381325 0.059264213 0.103434354
0.038014054 0.025232166 -0.083039925 -0.03506112 -0.063630834 -0.10490847 -0.004494652 -0.079975456
0.024298072 0.11571844 -0.04261495 -0.012230188 -0.10832457 0.013385907 -0.11511573 0.08371879
0.057966143 -0.09364101 0.030386716 0.107351676 -0.096954614 0.1165598 -0.12085755 -0.07953927
-0.0015819967 -0.089684665 0.11272587 -0.040003166 -0.013357192 -0.057856888 -0.005403772 -0.07709594

6.bias f4 [32]
00000000: f21f 8c3d ae94 dc3d 2841 97bc eefd fb3d
00000010: 001a a53d 30d0 1fbd e2f5 af3d 0c99 33bd
00000020: 5606 8cbd 183a 7e3d 38ac fcbc b0ab 3cbd
00000030: 5088 5f3d ca02 94bd 9081 a5bd 60ed 01bd
00000040: c086 c33c 40dd 6f3b 30b4 863c 004a 273b
00000050: 30e5 b3bc 0084 6eba b06d ad3d eae7 f23d
00000060: 0451 433d 2a39 d3bd 604e d0bb be61 e7bd
00000070: 1424 9abd 862f 96bd c6f2 92bd 82e6 bdbd
0.068420306 0.10770546 -0.018463686 0.123042926 0.080616 -0.039016902 0.0859182 -0.04384713
-0.06837146 0.06206712 -0.030843839 -0.04606217 0.054573357 -0.072270945 -0.08081353 -0.03172052
0.023867965 0.003660038 0.016443342 0.0025526285 -0.021959871 -0.0009098649 0.08468187 0.1186064
0.047684684 -0.103136376 -0.0063569993 -0.1129794 -0.075264126 -0.07333283 -0.071752116 -0.092724815

8.weight f4 [12, 32]
00000000: c0bc 003e a923 79bd a3b3 20be 1c8f 7f3d
00000010: 02b3 5bbc 7f48 94bc c490 063e afce 1ebe
00000020: 8c0e cfbd 77d9 ffbd 0bf2 3f3d 5c96 cebd
00000030: bde5 be3d 4253 d73d fdee 093d 39ce 86bd
00000040: aa28 0abd d1ef d3bc 9dcd 35bd 10af ca3d
00000050: 3d74 11be 0c00 143e dc5a 64bd 207b ccbd
00000060: e55b bf3d 7708 f83c 4de7 d7bd 8485 223e
00000070: 1c3f 8f3d d036 c83c c588 f4bd 374d 96ba
00000080: 56cc 453d 7cc0 d33c a9d9 5abd 12dd 123e
00000090: 2d25 9a3d dbe2 e4bd 3da8 003c 68b1 33be
000000a0: 5276 e13d c8ef 6f3d b45f e33d d7df d7bd
000000b0: 0def 623d c737 173d 4c58 e63d 8faa d0bc
000000c0: 2ba9 34be 2ca2 b53d e755 11bd 6a83 d0bd
000000d0: 997c 043d 4621 0a3e d06b a2bd 6697 fabd
000000e0: eb09 a33d 0c8e f93d 5664 58bc d6b3 9abd
000000f0: 34dd 213e a152 903d 408e 103e d858 0abe
00000100: 4aac d3bd 3331 2abd 5b93 18be 1c26 973d
00000110: c3a1 11be 9677 be3d 61b5 cb3d 608e 30be
00000120: eecc 913d 2e1c 09be e843 aebd 01f3 ce3d
00000130: a1ad 503d 0d5e 773d f011 283e ddbf a9bd
00000140: 6394 a73c e2dc 023d 7576 1f3e 01eb 06bd
00000150: 65fe c13d 473a 1abd 05fb 273e 1ad0 18be
00000160: f0c7 453d 6572 03bd 78ec 513d 0d6d 193e
00000170: 1f1f 05be f575 143e ba22 4cbc 8f8b 8e3d
00000180: 2c73 2fbe 0308 11bd 296b 76bd 1a78 efbd
00000190: 0075 36bc c595 10bc 905c e83c 5ee3 12be
000001a0: 93bb 54bd f87d 9d3d f40e 88bd d74a 29be
000001b0: 673d 8ebd 694e e1bd b765 00be 9a14 2ebe
000001c0: 2074 c93c 0477 00be ecf1 2c3e 6666 8f3d
000001d0: 5457 0b3e 9da4 f8bd 7655 82bd 6d1d 153e
000001e0: ee05 81bc 580b 3cbd 3092 323c e34d 15be
000001f0: 1757 5e3d 6d92 f23d 5700 173e c543 94bc
00000200: f18d 343e afa0 c73d afdf 71bd 10ea 76bd
00000210: 5d3d 0bbe 341e 1c3e 2c5e 13be d1b6 273e
00000220: b84f 5cbd da63 14be f255 0e3e 11be 09be
00000230: cfac af3d a10f bebd f79c c83d ac2f 30be
00000240: 40e6 0f3e c805 71bb 3e7a 783d 211f 883d
00000250: d4bf eb3c ca1e 11be 8b12 ae3d d55e 1ebe
00000260: 5a65 fa3b 2c5a 0dbe 8ef0 6f3d abe7 a4bd
00000270: a898 e1bd 4bee fb3d 0f17 f4bd 45cb 30be
00000280: 8f88 223e f94a 2b3e 5e39 863d a5a9 45bd
00000290: 6ed7 5abd 8520 1bbe da4b 2eba 8381 dbbc
000002a0: 7982 df3d 54a7 1bbe 98cf c3bc a783 213e
000002b0: eebe b9bd 3664 8f3c e8bc dbbd 0272 e6bd
000002c0: 76f1 8cbd 77c7 a73d e202 7f3d aa80 18be
000002d0: 505b a73d 3296 293e acb1 0ebe 0d16 033e
000002e0: 19b5 f6bd 8fba 8c3d 4f06 eebc acf0 123e
000002f0: fead 28be 5ad1 033e 6c5d 0d3e b038 dbbd
00000300: 6b80 243e a376 003e 322b 0d3e ae4d 163d
00000310: a821 303d c985 b7bd aae7 303e 075e d63d
00000320: 382e fc3d 6a85 dc3d a020 f63d b925 023d
00000330: 09cc 3b3d 752f dc3c 3b2b 7f3d f037 0dbe
00000340: 04de 283e e25b 06be 3b77 b6bd 5daf 2cbd
00000350: 8d39 113c f0a3 bbbd 9f61 683d 2799 1cbc
00000360: 5fdf 1cbe 6fb3 6f3b 7332 2cbc 927b 733d
00000370: ca3f debd 9fd1 153e 2e37 17be f831 15be
00000380: 2bd4 16be eabc d33d 5dd9 e23d 256f ecbd
00000390: 9e94 febd abce efbd 72f5 3f3c 5777 9b3d
000003a0: e75e 533c a1a6 3ebc 4c02 18bd 01de 0cbc
000003b0: 538f 15be 13b9 29be 4b43 92bc 6637 2c3c
000003c0: 5e64 953d b5ac 833d c22c f8bd e641 b0bc
000003d0: 5c6c 293e 295c ed3d c363 e03b fe6d 713d
000003e0: eae9 b2bc 85e1 d93d d585 01be 3313 79bd
000003f0: 0ac3 a63d 6b51 fa3d 4b1d 953d 74f1 193e
0.12572002 -0.060825024 -0.15693526 0.06239234 -0.013409378 -0.018100975 0.13141161 -0.15508531
-0.101101965 -0.1249265 0.04686169 -0.100872725 0.09321163 0.10513927 0.033675183 -0.065823026
-0.033730187 -0.02587119 -0.04438554 0.09896672 -0.14204498 0.14453143 -0.055750713 -0.09984422
0.09343699 0.030277474 -0.10542164 0.15871245 0.06994459 0.0244402 -0.11940149 -0.0011467104
0.048290573 0.02584862 -0.053430233 0.14342144 0.07526622 -0.11176082 0.007852611 -0.17548144
0.11008896 0.058578283 0.11102238 -0.10540741 0.055403758 0.036918428 0.1124731 -0.025471954
-0.17642657 0.088688225 -0.035482313 -0.10181315 0.032345388 0.13489255 -0.0793072 -0.12235908
0.07960876 0.121852964 -0.013207516 -0.07553832 0.15807039 0.0704701 0.14116764 -0.13510454
-0.10335596 -0.041550826 -0.14899962 0.07380316 -0.14221863 0.09300153 0.09946705 -0.17241812
0.07119165 -0.13389656 -0.08509046 0.10104943 0.050946835 0.06039243 0.16413093 -0.08288548
0.020456498 0.03194893 0.15572532 -0.03293896 0.0947235 -0.037653234 0.1640435 -0.14923134
0.04828638 -0.032091517 0.051250905 0.14983006 -0.13000153 0.14498122 -0.012459451 0.069602124
-0.17133778 -0.03540803 -0.06016079 -0.116928294 -0.011136293 -0.00882477 0.02836445 -0.14344546
-0.051936697 0.07690042 -0.06643477 -0.16532455 -0.06945305 -0.11001284 -0.12538801 -0.17000046
0.024591506 -0.12545401 0.16889161 0.07001953 0.13607532 -0.121407725 -0.06363957 0.14562006
-0.015749898 -0.045909256 0.010899112 -0.14580493 0.054282274 0.11844335 0.14746223 -0.018098721
0.17632271 0.09747445 -0.059051212 -0.060281813 -0.13597627 0.15245897 -0.14391392 0.16378333
-0.053786963 -0.14491215 0.13899973 -0.13451411 0.085778825 -0.09280325 0.09795564 -0.17205685
0.14052677 -0.0036777128 0.060663454 0.06646562 0.028777994 -0.14171901 0.084996305 -0.15465863
0.0076414766 -0.13803929 0.05857902 -0.08052 -0.11015445 0.1230131 -0.119184606 -0.17265041
0.15872405 0.16727819 0.06553911 -0.04825749 -0.053428106 -0.15149124 -0.0006648876 -0.026795154
0.109135576 -0.1520055 -0.0239027 0.15772878 -0.0906962 0.017503839 -0.107293904 -0.11252214
-0.068819925 0.08192342 0.06225861 -0.14892831 0.08171713 0.16561201 -0.13934964 0.1280138
-0.120462604 0.06871521 -0.029055743 0.14349622 -0.16472623 0.1287283 0.13805169 -0.10704172
0.16064613 0.12545256 0.13786009 0.036695175 0.043000847 -0.08961064 0.17275873 0.10467153
0.12313503 0.10767634 0.120179415 0.031774256 0.04584888 0.026878098 0.062297087 -0.1379087
0.16490942 -0.13120988 -0.0890946 -0.042159427 0.008863819 -0.09162128 0.056733724 -0.009557999
-0.15319584 0.0036575457 -0.010510075 0.059444018 -0.108520105 0.14630745 -0.14767143 -0.14569843
-0.14729373 0.10338767 0.11076615 -0.11544637 -0.1243069 -0.11709341 0.011716234 0.07591122
0.012901044 -0.011636407 -0.037111565 -0.008597852 -0.14605455 -0.16574506 -0.017854353 0.010511255
0.07294534 0.064294256 -0.12117912 -0.021515798 0.16545242 0.11589844 0.00684783 0.058942787
-0.021840055 0.106387176 -0.12648709 -0.060809325 0.081426695 0.122225605 0.07280978 0.15033513

8.bias f4 [12]
00000000: 087e 4c3c 7925 25bc dae2 0a3d 8ee2 21bd
00000010: 3907 64bd 6845 313c 4070 42bd 781c 1dbe
00000020: 1131 1e3e e3c4 283d c4a3 733b bf20 8d3d
0.01248122 -0.010079735 0.03390775 -0.0395227 -0.05567095 0.01081977 -0.04747033 -0.15342891
0.15448405 0.04120339 0.003717647 0.068910114
