unitree_3_ar.pt (torch, 19322 bytes, 5 tensors)

fc1.weight f4 [64, 31]
00000000: bef4 06bd b121 a83b aa0f 243e e3de f6bd
00000010: ea3b 8cbc f4fb 2ebe 4de6 77bd b338 50bb
00000020: 8f1a 203d 0d3f 7d3d 25c8 f23d 937f 253e
00000030: d5fc 033d 6493 05be 7e92 7cbd 92da dc3d
00000040: 122f cebd 617d babd 80b2 d6bc a4a2 c63d
00000050: ec25 f3bd 3bb6 c43c 2876 d9bd 4382 353e
00000060: 5bee 3fbc d82f a03b a832 0bbe 5e20 fcbd
00000070: 97e6 33be 361a 27bd 4a61 673c 7b3e c93c
00000080: 3324 1dbd 7686 c33d ba09 fabd 3b67 ae3c
00000090: 9e7e 91bd 2335 c43c 9987 98bd 8cc2 02be
000000a0: 72d0 e33c c537 33bd 07c5 0dbe b108 ee3d
000000b0: c7ff ef3d 382e 75bd 1f44 463d b3c7 923d
000000c0: 08bf 89bc 10b3 84bd 0593 1dbe 9c9a ce3d
000000d0: 9006 afbd a361 843d 9b3c 063e 2c9e 7dbd
000000e0: af02 bebb c569 78bd b609 c73c 2024 e03b
000000f0: 4530 d93d 88c2 84bd c58e c63d d95d 9c3d
00000100: a366 053e e885 0b3e 35ed 1cbe 750e c93d
00000110: c108 a9bd f97a a23d 9aca 313e 690e 22be
00000120: 75b3 fb3d 55c0 abbd 716a 2e3e cadc 6b3d
00000130: a7f9 2e3d a2e0 d5bd e984 e53d 6cc8 1cbd
00000140: bbb7 37be e093 853d baf9 153e a49b 163e
00000150: b381 08be d6a1 be3d 36ff 833c 54b8 f23d
00000160: b72f 18bd 953e f9bc 2581 143e c2ee 7fbc
00000170: 550e 2bbd cf03 1a3d 70c8 ab3d 0102 063e
00000180: a2aa 743d 4b03 e3bc 16e3 f2bd 9ea3 af3d
00000190: cec9 16bd a57b 343e a84c d0bd d897 a2bc
000001a0: a09d 1a3e c95d b93d a0d0 27be 0527 403b
000001b0: c10e 33bd 81d1 0ebe 9f0a 133d 8dfc c13c
000001c0: 59fa 353e 234d 16be b848 293d 0fdf 503d
000001d0: e8d0 13bd 5565 31be 7067 05be 19f5 fcbc
000001e0: a653 56bd 29f8 853d ffb9 5a3d 5ce0 313e
000001f0: 2597 efbd 0812 25be 523c 843c 5426 1cbd
00000200: 40f0 36be 98d4 cbbd c13b fe3b 091b 223e
00000210: f1df a83c 3dbf 243e e146 07be 5335 ac3d
00000220: 237f 893c f929 103d 8faf 8fbd cf7b acbd
00000230: 8be3 ea3d a459 863d df83 8f3d 3572 1dbe
00000240: 0a74 0ebe ee4c f5bd 73ce b13a cd84 4abd
00000250: 69fc c23d 6606 f0bd b6b0 b73d 1a77 4ebd
00000260: 0f24 833d f3db 82bd 3a3b 40bd 5c29 183e
00000270: 4b5c 20bc f88b 823c 796d 453d feab 22be
00000280: bb6b f5bc 4cea e73d 67c4 aa3d 4340 fd3d
00000290: a7d1 7dbd 3826 d83d c5d2 853d 012e 153e
000002a0: 1576 27bd e895 05be e53f 0fbe f527 053e
000002b0: eeae 373e bf6a a3bb 30df 2fbe cb87 30be
000002c0: c361 b0bd 2cb5 2ebe 668f 15be cf54 bcbd
000002d0: a381 e1bd a589 d2bd 1277 bcbd 8f5f 263d
000002e0: cedd 5a3d 5b19 bd3d 1576 1d3e de4a cf3d
000002f0: 3e39 04be 2e12 d8bd 04c3 fd3c 67e1 04be
00000300: 1b10 db3d b32e dc3d 7ed0 23bc 4b63 813d
00000310: 8cf6 b83d 1f9f 333e 89c0 abbd 6cfb dbbd
00000320: e741 743d 30a7 15be abbb 163e 9044 8dbc
00000330: a1ce 683d 0891 d2bc 03d5 0f3e 6099 833d
00000340: c630 133e e047 62bd 5d75 be3c dc61 1cbe
00000350: bf6e 1bbe abe8 10be e397 afbc 36da 55bd
00000360: a13d 2f3e e660 073e 7f13 a6bc 9939 a23d
00000370: 89f8 58bd 95e1 64bd 6d85 a03c 1d15 e4bd
00000380: 1ca8 243d cf95 d1bc 4439 8abd 70bb 27be
00000390: 53a3 0cbe 951f 833d eeb8 b1bd c4e5 363e
000003a0: f20e bc3d bad1 e33d d301 113e 5652 34bd
000003b0: 8c51 e13d 9271 8c3d ea07 123e d0ce fbbd
000003c0: aec2 803d cde3 1abe a7a0 71bd cd1f e0bd
000003d0: c094 75bd 3395 023e ad8a eb3d 4472 343e
000003e0: d2d0 dfbd 64a6 5dbd c749 7cbd 0b2c bf3d
000003f0: 4d53 74bd 5cf5 0d3e 6492 553d ca82 2abe
-0.032948248 0.0051309695 0.160216 -0.12054231 -0.017118413 -0.170883 -0.060522366 -0.0031772077
0.03908783 0.061827708 0.11854581 0.16161947 0.03222354 -0.13044506 -0.061663143 0.107838765
-0.10067572 -0.091059454 -0.026208162 0.0969899 -0.118724674 0.024012676 -0.1061824 0.17725472
-0.011714543 0.004888516 -0.13593543 -0.12310861 -0.17568432 -0.04079648 0.014122317 0.024565926
-0.0383646 0.09547131 -0.122088864 0.021289458 -0.071042284 0.023951119 -0.07447738 -0.12769526
0.027809355 -0.043754358 -0.13844691 0.116227515 0.117187075 -0.05985853 0.04840481 0.07166996
-0.016814724 -0.06479466 -0.15388115 0.10088083 -0.085461736 0.06463935 0.13109057 -0.061918423
-0.0057986598 -0.060647745 0.024296623 0.006840244 0.1060491 -0.064824164 0.096952 0.076350875
0.13027434 0.136253 -0.15324862 0.098172106 -0.08253623 0.079336114 0.17362443 -0.1582581
0.12290088 -0.08386294 0.17032792 0.057583608 0.042718556 -0.10443236 0.11206991 -0.038277075
-0.17941181 0.065223455 0.14646044 0.1470781 -0.13330726 0.093082115 0.016112905 0.11851564
-0.03715488 -0.03042535 0.1450239 -0.015620889 -0.041761715 0.03760129 0.0838784 0.13086702
0.05973304 -0.027711531 -0.118597195 0.085761294 -0.03681355 0.17625292 -0.10170871 -0.019847795
0.15099192 0.09051091 -0.16388178 0.0029320132 -0.043715242 -0.13947107 0.0358988 0.023679996
0.17771281 -0.14677863 0.041329116 0.050993975 -0.0360879 -0.17323811 -0.1302774 -0.03087859
-0.052325867 0.065414734 0.053400036 0.17370743 -0.116987504 -0.1612016 0.016142044 -0.03812249
-0.17865086 -0.099526584 0.007758588 0.15830626 0.020614596 0.16088577 -0.13210632 0.08408608
0.016784256 0.03519628 -0.07015907 -0.08422052 0.114691816 0.06560066 0.07007574 -0.15375598
-0.13911453 -0.11977564 0.0013565555 -0.049443055 0.095208 -0.117199704 0.08969252 -0.050406553
0.06403362 -0.06389608 -0.046931483 0.14859527 -0.009787629 0.015935883 0.048200104 -0.15885922
-0.029958596 0.113239855 0.08338242 0.123657726 -0.06196752 0.10554165 0.06534342 0.1456833
-0.040884096 -0.13045466 -0.13989218 0.13003524 0.17937824 -0.0049870904 -0.17174983 -0.17239301
-0.086123966 -0.17061299 -0.14605483 -0.091958635 -0.11011054 -0.1028016 -0.09202398 0.040618476
0.053434186 0.09233352 0.15377076 0.10121702 -0.12912461 -0.105503425 0.03097678 -0.12976609
0.10696431 0.10751095 -0.009998439 0.06317767 0.090314 0.17541169 -0.083863325 -0.10741314
0.059633162 -0.14614558 0.14720027 -0.017244607 0.05683768 -0.025703922 0.14046101 0.06425738
0.14374074 -0.055244327 0.023249323 -0.15271705 -0.15178965 -0.14151256 -0.02143473 -0.052210055
0.17113353 0.13220558 -0.020272968 0.07921142 -0.052971397 -0.055879194 0.019594872 -0.111368395
0.040199384 -0.02558413 -0.06749204 -0.16380095 -0.13734178 0.06402508 -0.08677851 0.17861086
0.09182538 0.111239865 0.14160852 -0.044023834 0.11001882 0.06857599 0.14260831 -0.12295306
0.06287132 -0.15125962 -0.0589911 -0.109435655 -0.059956312 0.12752227 0.1150106 0.17621714
-0.10928501 -0.05411376 -0.061593797 0.093345724 -0.059649754 0.13863128 0.052141562 -0.16651455

fc1.bias f4 [64]
00000000: 53d1 c33c 5fb9 ff3d b688 86bd 13c1 a43b
00000010: ec32 323e 7897 233c 8054 0f3e b6a9 adbd
00000020: ae17 8fbd d5ec 20bd e57e e3bd 6419 723c
00000030: 4d7b 2f3e eb10 2cbb 9eae ff3d 2cd6 24be
00000040: 2761 ed3d 412c fc3b 98d9 b3bc 3564 f4bc
00000050: 73f6 1dbd 1f23 2b3b fb5e 55bd 9573 eabd
00000060: c30f 89bd f5b1 233d 025a c53d 1656 c23c
00000070: 4cb0 debd ef3d 13be a35f 32bd adbd 293e
00000080: 71f5 9b3d 6ecb 01bc 4418 abbd 3ae5 833d
00000090: 6cab 1ebd 319c 2d3e 789c 62bd e4f9 233d
000000a0: d514 293e 6779 2abe 8835 9bbd 3eb6 d43d
000000b0: c0a8 87bd 1d1c efbd 1324 7fbd 972a 07be
000000c0: ecf7 043e d901 783d 6f32 18be abc7 b53d
000000d0: 6b42 46bd c8ad 633c 8910 823c 61b8 0ebe
000000e0: c92d edbd f1e5 d7bc 1610 173e 3f08 08be
000000f0: a562 20be 95fc b93d 6387 6bbd 2d27 e9bd
0.023903525 0.124865286 -0.06569044 0.005027899 0.17402238 0.009984843 0.13997078 -0.084796354
-0.069869384 -0.03928836 -0.111081876 0.014776561 0.1713688 -0.00262552 0.124844775 -0.16097325
0.11590796 0.007695705 -0.021954343 -0.029832939 -0.03856511 0.0026113463 -0.052092534 -0.11447827
-0.066924594 0.039964635 0.09636308 0.02372269 -0.1087347 -0.14379095 -0.043548238 0.16576262
0.076151736 -0.007922037 -0.08354238 0.06440206 -0.0387377 0.16954114 -0.055325 0.040033236
0.16511853 -0.16647874 -0.0757857 0.103863224 -0.066239834 -0.11675284 -0.062290262 -0.1319984
0.129852 0.060548637 -0.14862989 0.08875974 -0.048403185 0.013896413 0.015877025 -0.13937522
-0.115809985 -0.026354762 0.1475223 -0.13284396 -0.1566263 0.09081379 -0.05750216 -0.11384425

fc2.weight f4 [32, 64]
00000000: 2856 be3d 449f 98bd b069 0abc 48cd f1bc
00000010: 88ca e33c 243b a43d 0c87 2bbd c629 aa3d
00000020: f485 59bd b412 cfbd 5c8a aa3d f448 95bd
00000030: 0a51 f23d e05b d8bd c478 253d 68b1 4b3d
00000040: ec5a 8fbd 7a8c bc3d 2462 a53d 28da 02bd
00000050: d40a 0e3d 3cad ff3d d05d efbd 3ada c13d
00000060: a062 cdbb fe02 ac3d 8870 f43c 96d5 f33d
00000070: 903d 6c3c 36b1 f13d d875 9e3d 38f4 8cbc
00000080: 88b6 7bbd 1858 e43d 18bc cc3d 743a 803d
00000090: 9836 a73c 30f4 7abc 14f9 af3d 7283 883d
000000a0: 80c3 7ebd 000f a8bb 180e ee3c 884f dbbd
000000b0: 08f7 9c3c 5ef6 a83d 20e5 ddbc 7e7b e9bd
000000c0: 1032 77bc 70a4 a1bd c81c 063d 60d1 f13d
000000d0: 501a 123c 3e71 e43d 64e1 a93d d012 77bd
000000e0: d893 aebc f485 53bd 90b7 34bd 2476 b2bd
000000f0: 0016 4f3c c04d 6dbb 501b 59bc b45d b53d
00000100: fcbd e83d 9840 d43c 827c fd3d 5638 a4bd
00000110: 4c0b e13d aa77 debd 3856 023d dc41 01bd
00000120: 78d7 593d 2075 d6bb c84e b93c 342b 513d
00000130: e802 9a3c 5eff be3d f4dd f23d f4a2 b13d
00000140: 08b7 1dbd 602c 00bd 0428 adbd 8a5b d5bd
00000150: ba5c b93d 985c 51bd 0e15 d2bd 2c27 9e3d
00000160: b052 3cbd 3876 51bd 004f 5dbc a46c e23d
00000170: dc77 f03d 361b d83d 8014 eb3c 6e29 c5bd
00000180: 14fa ecbd 88ec 51bd d8a1 f1bc f8e3 59bd
00000190: b07e f9bd e289 91bd 888c c23c 3006 873d
000001a0: 9ca4 de3d 8079 cbbb e0f5 74bd d840 c5bd
000001b0: ccd6 b33d c898 e1bc 306a c23d 8c16 d63d
000001c0: f8bb d53d c089 febb 06ed db3d 9cd3 e6bd
000001d0: 10bf bb3d 6879 093d 3246 eebd b6ca b43d
000001e0: 14f7 ccbd 70a1 5b3c 7015 4cbc 1e2f df3d
000001f0: cca9 89bd 8c15 ab3d 8074 af3d a82f 3f3d
00000200: b8b8 babd c84f 0e3d 60b2 283d 34c0 06bd
00000210: c48e 143d 442e 563d e6e3 d1bd 68b6 aa3d
00000220: 2aca ea3d 4e84 a5bd 701e f1bd 1660 f8bd
00000230: f6fd ee3d e03b 2f3c 0875 d0bd e045 19bd
00000240: a62e d43d 4ec6 d03d e0b3 853b 64db 243d
00000250: 4092 653c 6a3c d7bd 188e 833d 6072 c53b
00000260: 284c d43c 88b1 83bc c093 f43c 98ec a6bc
00000270: 4044 a83c 7604 e9bd 44e9 ccbd a8ae cc3d
00000280: 480e d53d 1214 d33d a664 8a3d 0087 0b3a
00000290: 7416 68bd 64d1 193d 3cb1 e0bd c64c b2bd
000002a0: 3c35 043d dcc7 403d 5c42 c3bd 6cfd 283d
000002b0: 1e34 c93d d0c1 2b3d c2e5 d93d f473 803d
000002c0: 2e07 8bbd 84e7 e2bd 0ea1 a13d ac4e 7f3d
000002d0: 8874 c33c 1029 4fbc 5658 f43d e8eb 063d
000002e0: 547f ed3d a09c a6bc a064 0a3c 18c1 a1bc
000002f0: dcfa 183d a81a ae3c a890 c9bd ccf9 bf3d
00000300: f86f 133d a032 c63c 1c35 52bd 56d3 d5bd
00000310: ee6d 963d 9033 923d 884d 643d 78fb 72bd
00000320: 6c66 7b3d e0f1 87bb 009b 983d 02d7 82bd
00000330: b661 dcbd 308c 283d 2688 fe3d 7c3a 293d
00000340: 588c 33bd 864d d4bd 50ba ce3d 3ac6 d5bd
00000350: 7e41 88bd 6823 aabd c409 b43d fcc8 b8bd
00000360: c434 c5bd 6e14 e33d fabe f93d 58e8 023d
00000370: 2a29 8bbd 9a19 e3bd a84f 0cbd 140d 533d
00000380: d8f8 28bd 8074 8bba 202a 573d 824b da3d
00000390: d86d a9bc d812 d23d 4cc6 11bd 3644 ddbd
000003a0: e2ca f3bd 1ca4 3c3d ea60 f53d 644f 813d
000003b0: 3485 223d 0012 f4b9 28f1 b5bc b8ac 2d3d
000003c0: b4c8 9c3d 94d0 c4bd c08d 7abb 8014 3fbb
000003d0: 4a83 953d 509f a2bc 5833 87bc d681 a83d
000003e0: 0a31 b03d 20c3 f43d cadb e1bd 5c47 a63d
000003f0: f4ba 91bd 2685 8d3d 0093 e83d 8e0c b13d
0.09293777 -0.074522525 -0.008448049 -0.029516831 0.027806535 0.08019093 -0.041876838 0.08308749
-0.053106263 -0.10110989 0.08327171 -0.07289305 0.11831863 -0.10564399 0.040398374 0.049729735
-0.06999764 0.09206481 0.080753595 -0.03194633 0.034678295 0.12484214 -0.11687815 0.094654515
-0.0062678605 0.08399008 0.029838815 0.11905973 0.0144189745 0.118013784 0.07737321 -0.017206296
-0.061453372 0.11149615 0.099968135 0.06261149 0.020411775 -0.015317008 0.0859243 0.06665696
-0.062198162 -0.0051287413 0.029059455 -0.10708529 0.019160762 0.08250116 -0.027086794 -0.114005074
-0.015087619 -0.07892692 0.03274229 0.11807513 0.008917406 0.11154412 0.08294943 -0.060320675
-0.021310732 -0.05164142 -0.04412037 -0.0871394 0.012639523 -0.0036209673 -0.013251141 0.08855763
0.11364362 0.025909707 0.123772636 -0.08018558 0.10988483 -0.10862668 0.031820506 -0.03155695
0.053184003 -0.006544724 0.022620574 0.051066592 0.018800214 0.09326051 0.118587404 0.08673659
-0.03850463 -0.03129232 -0.08454898 -0.1041785 0.09050889 -0.051113695 -0.10257922 0.07722315
-0.045977294 -0.051138133 -0.013507605 0.11055878 0.11741611 0.10552065 0.028696299 -0.09627043
-0.11571136 -0.051250964 -0.029496118 -0.053195924 -0.12182367 -0.07106377 0.023748651 0.06592977
0.108712405 -0.0062095523 -0.059804797 -0.096315086 0.08781204 -0.027538672 0.0949291 0.10453519
0.10436243 -0.007767886 0.10738568 -0.1127083 0.09167302 0.033563048 -0.116344824 0.088277265
-0.10008064 0.013405189 -0.012456283 0.10897659 -0.06721839 0.08353719 0.085671425 0.046676308
-0.091172636 0.034744054 0.041185737 -0.032898143 0.036268964 0.052290216 -0.10248546 0.083355725
0.11464341 -0.08081876 -0.117733836 -0.12127702 0.11669533 0.010695428 -0.10178572 -0.037420154
0.1036046 0.101940736 0.0040802807 0.04024829 0.0140119195 -0.1050957 0.064235866 0.0060255975
0.02591522 -0.016075864 0.029855609 -0.020376489 0.020540357 -0.11377804 -0.100054294 0.099942505
0.104031146 0.103065625 0.067574784 0.0005322546 -0.056662038 0.037553206 -0.10971305 -0.087060496
0.03227733 0.0470656 -0.095341414 0.041257307 0.09824394 0.04193288 0.10639526 0.06272116
-0.06788479 -0.11079314 0.07892047 0.062330887 0.023859277 -0.012644067 0.11930911 0.03293982
0.115965515 -0.020338356 0.008446842 -0.019745395 0.037348613 0.021252945 -0.09842044 0.09373817
0.035995454 0.024194062 -0.05132018 -0.104407 0.07345186 0.07138741 0.055738002 -0.05932185
0.061376974 -0.004148707 0.07451439 -0.06388666 -0.107608244 0.04114932 0.12428312 0.04131554
-0.043835014 -0.10366349 0.1009413 -0.10438199 -0.06653117 -0.083075345 0.08790925 -0.0902271
-0.09629205 0.11087881 0.12194629 0.03195986 -0.06794961 -0.110888675 -0.034255654 0.051526144
-0.04125294 -0.0010639578 0.052530408 0.10658933 -0.02068226 0.102575004 -0.0355895 -0.10804026
-0.11903931 0.046054944 0.119813755 0.06313971 0.039677814 -0.00046552718 -0.022209719 0.042401046
0.076554686 -0.096100956 -0.0038231462 -0.0029156506 0.07300432 -0.019851357 -0.016503975 0.08227889
0.086031035 0.1195128 -0.110282496 0.081190795 -0.071157366 0.06910162 0.11356163 0.08644973

fc2.bias f4 [32]
00000000: 0047 c23b b879 dabc 184e bdbc 60ca 7cbc
00000010: 8606 aabd 1470 7e3d 7cdd 923d 98bf 823c
00000020: e070 c73c 5457 393d 90f2 373d a0a7 dcbb
00000030: c0d3 bc3b 48d5 adbc 70dc f43c f84f d13c
00000040: f05f f7bd f025 f2bd 0642 a8bd 4cf5 ec3d
00000050: a059 b3bc 4087 113c 1050 92bd 0886 c7bd
00000060: cc65 f93d 80fb ed3b 7c8a eabd 90c2 453d
00000070: e833 ca3c 5c5e 25bd cc82 173d f06e cdbc
0.005928874 -0.026669368 -0.023108527 -0.015429109 -0.083020255 0.062118605 0.07171151 0.0159605
0.024345815 0.0452493 0.04490906 -0.0067338496 0.0057625473 -0.021219864 0.029890269 0.025550827
-0.120788455 -0.11823642 -0.08215718 0.11570224 -0.021893322 0.008882344 -0.07144177 -0.09742361
0.12177619 0.007262647 -0.11452195 0.048281252 0.024682954 -0.04037319 0.036989972 -0.025077313

fc3.weight f4 [1, 32]
00000000: f327 fbbd 1372 1bbe ce38 b23d 04a4 c8bd
00000010: cca4 fdbd 7948 10be 76c9 15be 6b54 2bbc
00000020: ff5e 703d af08 63bd 75f5 ef3c 24c3 02bc
00000030: 55c0 0cbe 56f3 05be 48d5 f4bc 4125 adbd
00000040: c725 fc3d 41af febd 2034 34be 9cf4 81bd
00000050: 1d20 923d 8436 843d 3cf7 043e f670 db3d
00000060: f3cc 703c f7bb ff3d a611 b0bd caa7 243e
00000070: 0ef7 1ebe 2f3d d33d e4eb 243e 2bde a3bb
-0.12263479 -0.15180235 0.08702241 -0.097969085 -0.12384948 -0.14090146 -0.14627632 -0.0104571385
0.058684345 -0.055428203 0.029291848 -0.007981095 -0.13745244 -0.13081107 -0.029886857 -0.08454371
0.12311893 -0.12435771 -0.17598009 -0.06345484 0.07135031 0.064557105 0.12984937 0.10714905
0.014697301 0.12487023 -0.08597116 0.16079631 -0.15523931 0.10314404 0.1610561 -0.0050008497
