unitree_1_ar.pt (torch, 19322 bytes, 5 tensors)

fc1.weight f4 [64, 31]
00000000: 6658 423d 41e6 a7bd 675b 61bd af92 43bc
00000010: 45f9 8ebd 9f86 c63d 8acf 19be 4646 26be
00000020: 7d86 133e 2e07 943d e131 cf3d ff34 1cbe
00000030: de39 10bd 946c d4bd de4a fabc ff95 9e3d
00000040: ee40 9e3d ecf2 1fbe bcb0 1a3e 918c cebc
00000050: b210 333e 9a1a 86bd c964 0abd 98a0 01bb
00000060: 66a6 8a3d 0a8f 383d 798d 873d 2a91 643d
00000070: 4e95 37be e652 6bbd 0a60 81bd acbc 9f3c
00000080: 0b53 8bbd ffbd 173e 6720 21be 1aa9 d13d
00000090: a07c fcbd 7ecc e93d f4d9 03be cc07 063d
000000a0: d4ac 263e c082 b23d 5b33 d0bc 9c96 103d
000000b0: eca8 c33d 97ca 1a3d 1b6a 653d 5be2 ed3d
000000c0: 2929 333e 80a5 1fbe e6c4 9abd 971d 1fbe
000000d0: d564 a63d 3023 9b3d c889 173e c2a3 4a39
000000e0: d939 133e acc9 313e 3e7b 8b3c 5ec4 acbd
000000f0: 809e 0d3c 65b4 e5bd b635 663d 13c9 a63d
00000100: e98d e03d efdd 223e 237e bd3b 5eb1 d1bd
00000110: e8d5 8d3c dc59 303d 332d 0d3e 65f3 c63b
00000120: 21f8 353e d21c 103e fb1c 643d 803a 883c
00000130: d857 2f3e 3116 94bb fd67 843d cf85 2c3e
00000140: 1219 6c3d 1a71 0d3e e0d3 0ebe 4336 d03d
00000150: ab7f 1d3e 7e40 f53c 2792 243e c027 79bd
00000160: 81ff bc3d d411 57bc b0a3 213e e8a9 80bd
00000170: ae0a 003e c442 2d3d be93 f33d a33c c43c
00000180: c6be f9bd d27f c23d b4c1 33be 6d12 e13d
00000190: 94b8 eb3d 522b 233d 7bf7 58bc 77c0 cd3d
000001a0: a21a bd3c 576a 953d 6089 a0bd 9425 71bc
000001b0: 22d1 10be d544 183e 700d 30ba c829 2a3e
000001c0: 5ca1 9d3c 3ad4 89bd 753a c4bd adc8 99bc
000001d0: c080 e13d 857b cd3b b9fd 6bbd e564 3c3d
000001e0: 6051 aa3d 4374 55bd f567 4bbd a8cd 7d3d
000001f0: 7d05 b43d b466 43bd 9f04 5b3d 7c0c 2cbe
00000200: e19a 0b3e 88f6 363e 5ea9 2a3e 1066 403d
00000210: 1654 bf3d 23f4 423d 5d31 3a3c 428e 21be
00000220: 1827 c6bd 48e3 5e3d 6bb3 1d3e 6234 cabd
00000230: bd24 fd3c 9f65 42bd 3955 abbd df73 bcbc
00000240: 693e f6bc ff89 7a3d 962f bc3d 54bc 9e3d
00000250: 0877 123e 78ae cc3d 16be 1b3e 05ab b7bd
00000260: d5b2 073d c779 e8bd 066e 1a3e 49e1 153d
00000270: e114 e93c bf7e 16be 4a9d 12be eb8d 98bb
00000280: 619e 2ebe 5dcb 833d 0b4d 023e 36e9 193e
00000290: 2cb8 793d 60d5 2cbe 1d18 013e f954 cf3d
000002a0: f8c0 da3d 3d11 ef3d eada 0cbe d291 133d
000002b0: 4118 153e 0b55 12be eecc 103e 706b 7ebc
000002c0: e6f7 13be 2585 67bd 363e 99bd fbfa bcbd
000002d0: b663 8dbd 45bc edbd 363d c23d 862d 9a3c
000002e0: 867e 1ebd 9e04 9c3d ac34 8abd 08ae 033c
000002f0: 1a82 0a3e 71d8 7abd 33aa eebd 70f9 1bbe
00000300: a1e8 363e 4cc9 acbd f8a7 1abe 002a dd3d
00000310: b8b0 92bd ab07 27bd 39d0 0abe c1d0 2bbe
00000320: d890 0e3e 47b4 40bd 6a6a 02be 9dd1 2cbe
00000330: 74b8 0d3e 0823 37be 1057 0bbe d7f2 1e3d
00000340: 1968 033d 5861 1d3e 6a06 aabd 7f6b c53b
00000350: e01f ff3d 17ca 093e 2e64 2bbe d7ee f0bd
00000360: 58fa b83d b003 98bd a582 f53d 806c 1d3e
00000370: 2c80 0e3e 7be9 dfbc 90c8 32be 9f5c b03d
00000380: 6a5c 063d 1c46 163c 27ee c63d 2759 debd
00000390: 518f 7a3d 12ac f4bd 249f 09be 97b5 ebbd
000003a0: 8fe1 fbbd 2f95 b23c 6632 033e b610 7dbd
000003b0: 0399 193d 9a97 913c fc27 b23c 4923 d13d
000003c0: 305a 0bbe 247f e3bd c88f bfbd 51cc 7abd
000003d0: d6b5 1c3e c056 c03c da4e 0a3c 8491 ae3d
000003e0: ee3d f03c b2b4 e73d 3519 9abd 6fb4 1bbd
000003f0: b66b 0bbe 4ed8 5abd 2727 f9bd d081 8ebd
0.047447585 -0.08198214 -0.05501881 -0.011936828 -0.06981138 0.09693646 -0.15020576 -0.16237745
0.14406772 0.07227932 0.101169355 -0.15254591 -0.035211436 -0.10372272 -0.030553278 0.07743453
0.07727228 -0.15620011 0.15106481 -0.025213512 0.17486838 -0.065480426 -0.033787522 -0.001977956
0.06770019 0.045058288 0.06618781 0.0558025 -0.17928049 -0.057452105 -0.06317146 0.019499145
-0.068029486 0.14818572 -0.15735017 0.10237332 -0.12328458 0.11415957 -0.12876111 0.03272228
0.16276866 0.08716345 -0.025415113 0.035299882 0.09553704 0.03779086 0.056009393 0.116154395
0.1749617 -0.15590477 -0.07557087 -0.15538631 0.08124701 0.07575071 0.14798653 0.00019325226
0.14377536 0.17362088 0.01702654 -0.084358916 0.008643746 -0.11216048 0.056203566 0.081438206
0.10964567 0.15904973 0.005782859 -0.10238908 0.017313913 0.043054447 0.13786773 0.0060714954
0.17770435 0.14073494 0.0556917 0.016629457 0.17123353 -0.004519247 0.06465147 0.16847919
0.057641096 0.13812676 -0.13948011 0.101665996 0.15380733 0.029937979 0.16071378 -0.060828924
0.09228421 -0.013126809 0.15785098 -0.06282407 0.12504074 0.0423 0.11893414 0.023954695
-0.1219459 0.09497036 -0.1755436 0.109898426 0.11509815 0.039836235 -0.013242598 0.100464754
0.023083989 0.07295673 -0.07838702 -0.014718432 -0.14142278 0.14870007 -0.00067158695 0.16617501
0.019241981 -0.06729932 -0.09581462 -0.018772447 0.11010885 0.006270828 -0.057615016 0.045994658
0.08316302 -0.05211283 -0.049659688 0.061963707 0.08790109 -0.047705367 0.053471204 -0.16801637
0.136333 0.17867482 0.16666171 0.046972334 0.0934221 0.04759611 0.011364308 -0.15776923
-0.09675425 0.05441597 0.15400474 -0.098732725 0.030901307 -0.047460195 -0.08365864 -0.02300447
-0.030059056 0.06116676 0.09188764 0.077507645 0.1430322 0.09994215 0.15209231 -0.08968166
0.033129532 -0.11351352 0.15081033 0.0365918 0.028452339 -0.14696787 -0.14317814 -0.00465559
-0.17052604 0.06435273 0.12724702 0.15030369 0.060966656 -0.16878271 0.12606855 0.10123629
0.10681337 0.1167321 -0.13755384 0.036027737 0.14560033 -0.14290254 0.14140674 -0.015528545
-0.14450034 -0.05652346 -0.07482569 -0.09227558 -0.06903784 -0.11608175 0.09484331 0.018820535
-0.03869488 0.07618068 -0.067483276 0.008037098 0.13526192 -0.06124157 -0.11653557 -0.15231872
0.17862178 -0.08436832 -0.15103137 0.107990265 -0.07162613 -0.040778797 -0.13555993 -0.16778852
0.13922441 -0.047046926 -0.12735906 -0.16876836 0.13839895 -0.17884457 -0.1360743 0.03880581
0.032081697 0.15369165 -0.08302005 0.0060247774 0.124572515 0.13455997 -0.16737434 -0.11764305
0.09032124 -0.07422578 0.11987809 0.1537342 0.13916081 -0.027333012 -0.17459321 0.08611416
0.032802977 0.009171989 0.09713393 -0.10856848 0.061171833 -0.11946882 -0.13439614 -0.11509245
-0.12298881 0.021799652 0.12812194 -0.061783515 0.03749944 0.017772485 0.021747582 0.10211808
-0.13608623 -0.111082345 -0.09353596 -0.061230008 0.1530374 0.023478866 0.008441651 0.08523849
0.029326405 0.11313762 -0.07524339 -0.03801387 -0.13615307 -0.05342894 -0.12165671 -0.069583535

fc1.bias f4 [64]
00000000: a56c 18bd 1252 003e f3c2 33be a2c2 0e3e
00000010: b9a9 28bd e937 cf3d e90c 0d3e f36a da3d
00000020: 21ff 2b3e e54e 1abe 0b6c 743d b303 2abe
00000030: 62fb 773d 9164 89bd ca76 133d 89e5 113e
00000040: 425e b23d b3a4 113e 3681 333e ec81 de3d
00000050: 37bb 84bd f850 793d 76a8 24be 8c39 c1bd
00000060: a180 123e 4997 a0bd 5902 073c 0b2a 51bd
00000070: de0d c83d 6aa0 353e db80 87bd d741 fe3d
00000080: 2cf1 013e 05e2 b23d 60e2 2a3e 76e9 68bd
00000090: 0f85 ef3d 0bdd 37be 44f0 ebbd 691f 28be
000000a0: 7ad1 19bc 1050 cabc 8a85 133e 02bf 4dbd
000000b0: 2937 083e 3981 3fbd b826 0fbe d2c7 9dbd
000000c0: df66 0bbe 2ebf b5bd 28e8 d1bc 3367 2c3d
000000d0: 5ed9 e7bd 4157 1fbe 3ea3 05bd a7d6 00bd
000000e0: 9716 78bc 6192 bebd 05d2 ff3c 33bf dd3d
000000f0: d867 1dbe 7e09 86bd 7bc7 183c a87c 24be
-0.037212986 0.12531307 -0.17554836 0.13941434 -0.041177485 0.10118086 0.13774456 0.1066493
0.16796543 -0.15069158 0.05967335 -0.16602974 0.06054247 -0.06708635 0.036001958 0.14247717
0.087093845 0.14222984 0.17529759 0.108646244 -0.06481021 0.060868233 -0.16079888 -0.09434804
0.1430688 -0.07841355 0.008240306 -0.051065486 0.0976827 0.17736974 -0.06616374 0.12414902
0.12689656 0.08734516 0.16687918 -0.05686327 0.11695301 -0.17955415 -0.115204364 -0.16418232
-0.009388322 -0.02469638 0.1440641 -0.050230987 0.13302292 -0.046754096 -0.13979614 -0.07704128
-0.13613461 -0.08874355 -0.025623396 0.042090606 -0.113207564 -0.15560628 -0.032626383 -0.03145471
-0.015142105 -0.09305263 0.031228075 0.10827484 -0.15371644 -0.06544779 0.009324904 -0.16063178

fc2.weight f4 [32, 64]
00000000: ae43 84bd 601a f33b fe4f ecbd f85e d4bc
00000010: 50fb 953c 8259 ecbd e277 c7bd 5edd e23d
00000020: e48c 4c3d 80ee df3a ccfa f03d 26fa 893d
00000030: e8cb 013d 5083 11bc 005a d6bb 54d4 b03d
00000040: e43a 99bd e64e ad3d e0c2 973d 44ff acbd
00000050: 082d d23d 48cf d7bd d233 8b3d 64c3 233d
00000060: a633 ef3d 703c d63c 9c37 bb3d 608c 2cbc
00000070: 682d 783d 243a 1cbd f827 14bd 60bc 7fbc
00000080: b080 bd3c a886 d93c e451 1f3d 38ae 9bbc
00000090: f83d 253d 6080 a23d e616 a5bd b466 8fbd
000000a0: 3eeb e33d da7b debd 147f e6bd 8ac5 86bd
000000b0: 940c 253d 3802 f6bd e04b ff3c 5894 aebd
000000c0: 00ca 163d 0c68 183d e06f 963d d673 a3bd
000000d0: 7059 ecbd f0d1 9ebc 4433 abbd 60e3 bdbc
000000e0: 985c 7ebd 4c62 3c3d 9840 8a3d b288 9a3d
000000f0: a02e e73c 868d 843d b8d3 183d 0cdc b13d
00000100: 0024 d539 a4fd e7bd 625a fdbd 32a2 93bd
00000110: d044 153c 5081 203c d4a5 2f3d d823 b13c
00000120: f026 e93d 20c0 d8bc d0d1 91bc 0061 293a
00000130: 70e8 74bd 3018 babd 8462 37bd 602f 72bd
00000140: 0c50 83bd f07a 6fbc c433 c13d f23c 8c3d
00000150: 1242 9f3d 2eb1 f33d 7a15 e7bd 28c8 bfbc
00000160: aa3f 86bd fc38 8b3d 506e b7bc 80c2 3c3b
00000170: a861 ab3c 5022 9abd 206a bbbc 445d 56bd
00000180: 6625 abbd 80ba eb3c 469e a4bd 5848 f3bc
00000190: c082 b53c 483b 8abc 684b afbc 3830 8abc
000001a0: b4e7 90bd 4a0c f03d 3ca7 083d d892 0ebd
000001b0: 7cb1 303d 609e c63b 0009 e33c 00d8 29bc
000001c0: 640c 8cbd 042c 223d 682a d1bc d01d 23bd
000001d0: fa3e af3d eadf ac3d c0d9 5f3b 961b 913d
000001e0: 28f4 773d e408 51bd 58e9 d5bc 1853 883d
000001f0: 64e2 8fbd 8cd7 e43d 222e 9abd 28a2 ee3d
00000200: 40ab 1ebb d017 2f3c acf2 393d 58ae 13bd
00000210: 5e80 98bd 22a6 c3bd 68d6 1a3d f0f8 073c
00000220: 9298 efbd 7cfe 7a3d 42d2 8e3d f014 01bc
00000230: 4c00 39bd 7eff e13d 1c5b 683d 4424 523d
00000240: 00d1 a13a 78c3 9bbc 20d3 31bc 8662 e63d
00000250: 605d b73b 8028 503c 0852 a33d 00f2 613a
00000260: d0f5 793d 7673 8fbd fea7 993d 9cb0 0f3d
00000270: b887 e4bc 581a f43c 9852 6c3d b4d3 27bd
00000280: 7a81 a1bd 742e 9dbd 9ca5 503d 844c 7e3d
00000290: 420c 8a3d a013 a1bc 2c19 0dbd 0007 f63a
000002a0: bc84 a6bd e834 673d 56f5 c73d 807a c2bb
000002b0: c2d0 f83d c0e9 803d b8b6 29bd b42e 79bd
000002c0: 40bf 34bc bcea 76bd 0871 e7bd 8470 383d
000002d0: 304d 233d d829 4dbd 10e5 71bd f4b5 d73d
000002e0: ea81 be3d a853 f2bc 524f ebbd ecb1 88bd
000002f0: a07d 703d 00e9 923d 4cd1 3ebd 90ec c83c
00000300: 70c3 593c 06b8 d43d 68b7 d4bc 8038 54bb
00000310: 7a86 aebd 7c6d 1b3d 48ac 6d3d 96eb aebd
00000320: 3055 13bd 08d3 e43c 2007 65bd 308a 9a3c
00000330: d8e7 3f3d 34e3 15bd 4c6d 063d 2482 69bd
00000340: 480c 123d de73 c0bd c46f ce3d ce97 fc3d
00000350: 723a aa3d 22a7 9fbd 20b7 4bbd 50bf 25bd
00000360: ce88 a73d 1469 a23d 488d 62bd 7c61 74bd
00000370: f210 a53d 5699 843d 1297 da3d a8e5 7c3d
00000380: 30ef 133d 1028 253d 7604 87bd a033 f63c
00000390: d6b6 c7bd f8ca cbbc f85f fe3c 209e 76bd
000003a0: 40d5 183b 680a ab3d 285d 2e3d 3cfb a6bd
000003b0: e26f 9a3d 7856 283d 8075 c93b b669 e93d
000003c0: 0403 c73d 0095 ee3c 6076 ab3c c0b1 263d
000003d0: 623c c63d 0000 1aba f844 483d f047 823c
000003e0: e0b5 abbd 4042 8d3c e09a 1cbd c4d4 913d
000003f0: c226 a7bd a422 4cbd b641 d53d 06bb fa3d
-0.064582214 0.0074189156 -0.11538695 -0.02592419 0.018308312 -0.1154051 -0.09739663 0.11077379
0.04993905 0.0017084628 0.11766586 0.06737165 0.0316886 -0.008881405 -0.0065414906 0.086342484
-0.074819356 0.08462314 0.07410216 -0.084471256 0.10262495 -0.10537583 0.06796993 0.03998126
0.11679773 0.026151866 0.09141466 -0.010531515 0.060590178 -0.038141385 -0.03617093 -0.015608877
0.023132652 0.026553467 0.038896456 -0.019003972 0.0403423 0.07934642 -0.08061008 -0.07002011
0.11128853 -0.108634666 -0.11254707 -0.06580646 0.0402952 -0.12012142 0.03116411 -0.08524388
0.036813736 0.0372086 0.07345557 -0.07981078 -0.11540496 -0.019387215 -0.083593875 -0.02317971
-0.062100023 0.04599218 0.067506015 0.07545604 0.028220475 0.06472306 0.037311286 0.08684549
0.00040653348 -0.11327675 -0.12370755 -0.07208671 0.009110644 0.0097964555 0.042882755 0.021623537
0.1138438 -0.0264588 -0.017800242 0.00064612925 -0.059791982 -0.09086645 -0.044771686 -0.05912721
-0.06411752 -0.014616713 0.09433702 0.06847562 0.07776274 0.11899029 -0.11283393 -0.023410872
-0.06555112 0.06797978 -0.022391468 0.0028802454 0.02092059 -0.07526076 -0.022877753 -0.05233504
-0.083567426 0.028775454 -0.08038001 -0.029697582 0.022157073 -0.01687397 -0.021398261 -0.016868696
-0.07075444 0.11721094 0.033362612 -0.03480801 0.043138012 0.0060613602 0.027714252 -0.01036644
-0.06838301 0.039592758 -0.025532916 -0.039823353 0.08556934 0.08441146 0.0034156889 0.0708534
0.06053558 -0.05103387 -0.026112244 0.06656474 -0.070256025 0.11173925 -0.075283304 0.116520226
-0.002421096 0.01068683 0.045397446 -0.03605494 -0.07446359 -0.09553172 0.03780213 0.008299097
-0.11699022 0.06127785 0.06973697 -0.007878527 -0.0451663 0.110350594 0.056727514 0.051304117
0.0012345612 -0.019014105 -0.010853559 0.112492606 0.005595848 0.012704968 0.079746306 0.00086191297
0.06102544 -0.07004444 0.07502745 0.035080537 -0.027896747 0.029797718 0.057695955 -0.04097338
-0.07886024 -0.07674876 0.050939187 0.06208469 0.06740619 -0.019662678 -0.034447834 0.0018770397
-0.08130786 0.05644694 0.09763591 -0.0059350133 0.121491924 0.06294584 -0.04143402 -0.060835555
-0.011031926 -0.060282454 -0.11300856 0.04502918 0.039868534 -0.050088733 -0.05905634 0.10532752
0.09302123 -0.029580906 -0.114897385 -0.06674561 0.058713555 0.071733475 -0.04658632 0.024526864
0.013291225 0.10386662 -0.025966361 -0.003238231 -0.08521743 0.03794621 0.05802563 -0.08541028
-0.035969913 0.027932659 -0.055914998 0.018864721 0.046851963 -0.03659363 0.032819077 -0.057008877
0.035656244 -0.093971 0.10079911 0.12333642 0.08311929 -0.0779555 -0.04973519 -0.040465653
0.0818039 0.07930198 -0.055310518 -0.05966328 0.08059873 0.06474559 0.106733456 0.061742455
0.03611678 0.04032141 -0.06592648 0.030053914 -0.0975167 -0.024877056 0.03105162 -0.060209394
0.0023320466 0.08351594 0.04256931 -0.08153388 0.07540871 0.041098088 0.0061480403 0.11397116
0.09717372 0.029123783 0.020930469 0.04069686 0.09679486 -0.0005874634 0.0488939 0.015903443
-0.08384299 0.017243505 -0.038233638 0.0712066 -0.08161689 -0.049837723 0.10412924 0.12242703

fc2.bias f4 [32]
00000000: b41b 773d 04e1 923d b22e a3bd 9c1b 3bbd
00000010: fac9 ab3d e4eb ecbd 64a2 a6bd e856 7f3d
00000020: a0ad ec3b 4c33 43bd 2016 453d 8001 4e3d
00000030: 56fa eabd d4bf 61bd 1ac7 eb3d 868c 83bd
00000040: c84b 563d f41b 863d 6a16 863d b0b8 61bc
00000050: 949a 5fbd 96ce d63d 94b2 61bd 6873 3f3d
00000060: 4801 adbd 70bc b73d 009e 2d3b c487 053d
00000070: 08cd 163d 8801 86bc 9825 90bc 0280 9e3d
0.060329154 0.071718246 -0.07967891 -0.045680627 0.08388133 -0.1156843 -0.08136442 0.06233874
0.007222846 -0.047656342 0.048116803 0.0502944 -0.11473529 -0.055114582 0.11512585 -0.06423287
0.052318364 0.065483004 0.06547244 -0.013776943 -0.054590777 0.10488622 -0.055101946 0.04674092
-0.0844751 0.089714885 0.002649188 0.03260018 0.036816627 -0.016358152 -0.017596051 0.07739259

fc3.weight f4 [1, 32]
00000000: b6ca 15be 3ded d6bd 4815 eb3d fe53 acbd
00000010: 2d22 003d 2a63 7a3d b865 8c3d 6339 2b3e
00000020: 3139 a33d 563c 11bd 39aa d13d cb65 2d3e
00000030: d124 f8bd 59e9 1a3e cd04 e63d 7737 f83d
00000040: 7e92 ee3c ddcf f3bd 1d9b 8a3d 3dd8 573d
00000050: b493 2a3e a9de b53d 85e0 c33c 36cd fdbd
00000060: 9bab f43d b3a1 e93c 283a 893d 57eb 0a3d
00000070: eb44 e8bd 8a4f e73d 614e 0fbd 966b abbd
-0.1462811 -0.10494468 0.114786685 -0.08414458 0.031282593 0.061129726 0.06855339 0.1672111
0.07969893 -0.03545793 0.102375455 0.16933362 -0.12116397 0.15128078 0.112313844 0.12119954
0.029122587 -0.11904881 0.06767867 0.052696455 0.16657907 0.0888036 0.02391077 -0.123926565
0.11946794 0.028519487 0.067005455 0.033915844 -0.1134127 0.11294468 -0.034986857 -0.0837013
