unitree_9_sa.pt (torch, 85182 bytes, 10 tensors)

0.weight f4 [64, 19]
00000000: 4937 b63d ec23 bfbd b40d 74bc b4d7 3cbe
00000010: 6ad1 303d 522b 5e3e 6ceb 65be bb5a a4bd
00000020: 85ea 02be 2a13 583e 3c0b 473e da94 86bd
00000030: 12af 3ebe 8a66 ae3d 7345 b93d 0de9 0239
00000040: 72de b53d f411 d8bd d2cd 173e 3261 633d
00000050: 1654 183e 41f1 69be e581 1b3e 4b34 573e
00000060: 8eb5 25be 9acd d93d 684a 24be ca54 3cbe
00000070: 4458 6f3d 2c6d c63d 6188 f93d 9b25 2d3e
00000080: dc38 e4bd 8d4f 113e 88c1 d43c e6cf aa3d
00000090: 1f53 d8bb 9768 d4bd 1371 9b3d 8f5d 9dbd
000000a0: fa34 373e 7139 0abe 76b7 1fbe f6d0 03bd
000000b0: b1ac c8bd 279a b2bc 5ef3 033e 13ad b83a
000000c0: ee35 853d 539c 143d 892b e7bd 4188 0fbe
000000d0: 0086 fb3d 98d0 f23c c4e3 183e a69f 42bd
000000e0: 14fa b1bd b739 6a3e 7600 ad3d b3d8 d6bd
000000f0: f239 5fbe cb84 bebd bb2e 8bbd deb9 0cbe
00000100: a078 19be 8585 9d3d 7bce 3cbd 9356 47bd
00000110: 266f a4bd eb71 64be 57e0 c43c 6536 00bd
00000120: 61b4 3a3e f4f2 ed3d 4236 273e da2c 28be
00000130: cdb4 e23d d8fd 723c abcd 39be c0b3 9c3d
00000140: 31d8 3b3e a7f6 873d eeb9 61be f56a 00be
00000150: beba 713d 4b6d e73d fda1 843c 5452 a53c
00000160: 3891 21bd d7fe e93d c9cf 2cbd 900a 63bd
00000170: b092 c03b 82ce 563e 0dc0 3c3e a5d5 65be
00000180: 657e d8bd 8017 35bd 699b 913c 4a94 64be
00000190: 7a73 a7bb 0f71 0b3d 3eee 57be 433b 3e3e
000001a0: b500 05be dff1 4c3e 7001 0ebe b73b bb3c
000001b0: 8573 463e 011d 0e3d 74b2 3abe 3373 853d
000001c0: 823e 0e3e 940a 0ebe ce20 04be 8487 2dbe
000001d0: 953d dd3d f1fc 563e a405 f93d f888 e5bd
000001e0: 374f 243e 88a9 81bd 6db8 1bbe e579 223e
000001f0: db17 04be 0d28 08be 58ec 1abe 4c4b a9bd
00000200: bd43 ea3c 632f 053e 0f58 f73d 2eed 793d
00000210: 0836 39be 1e58 80bc 40a7 d43d 1ac2 7ebd
00000220: 49f8 9e3b 7abc f13d 2098 0c3e 9bba 1b3c
00000230: d564 6abe 6c00 973d c0c4 25bc a4b0 d5ba
00000240: dd6d 5f3e f978 5dbe 1fae 243e c6e8 d6bd
00000250: 4caa 353d c84e 663d 478d 7f3d f29e ecbd
00000260: c271 a43d d2f2 dfbc bd13 143b eaa0 95bc
00000270: ff21 db3c 9cab 3d3d ed8f 223e 2b4f fbbd
00000280: 68d9 68be 40c1 10be 612f 68be e80f 053e
00000290: 5e9a 203d a6d1 7d3c bd84 523d fbbc 46bd
000002a0: 7f34 2dbe 91d1 32be 7a0c c23d 9a59 0cbd
000002b0: ab65 1bbe 4003 143e 66da 08be 093e 093e
000002c0: 4eda 8a3c 0259 91bd 7e21 de3d 909d 4bbe
000002d0: 280d d23c 7fc0 c63d 4b1d 8a3d 818f 66be
000002e0: ae5a 863d bf71 b3bb 9b81 1f3e 5e63 31be
000002f0: c9f7 003e b793 6d3c fd5b bbbd 6056 203e
00000300: 2e6b 213e e0f5 233e 2f62 e3bd 7f8e 333e
00000310: d447 02be 3bff 993d fd81 053e 1ab2 5ebe
00000320: 199c cf3d 8dcb 0abe 32c3 153e ede9 4d3e
00000330: 2e86 a13c 0c6c 963d cc90 52be a819 2b3e
00000340: 3c85 443e edbc ae3d 43dc 603e b89a 333e
00000350: 29d7 36be c0fa de3d 58b7 df3d 35a7 d43d
00000360: f8bd de3b f355 3e3e 501a 423e bca0 5bbe
00000370: 6ae1 543e 7b83 23bd e82d cc3c b1cd 82bc
00000380: 357e 6e3d e8fc 48be ac6a 80bd 598e 09be
00000390: 1ff0 f8bd c4fd fe3d abab e63d cba7 5c3e
000003a0: 47c6 22be 16f1 51be 4f57 57be d953 5e3e
000003b0: b730 4fbd 66b4 a9bc 35dc c93d c6f6 ba3c
000003c0: be72 e5bd 9a37 37be ab60 dcbd b500 183e
000003d0: 8951 3bbe 8c8a 133b 0ff8 39be d5eb 32be
000003e0: ac47 a6bd 5168 883d 7b94 2a3e 9eb3 51be
000003f0: 27cc 44bc 2137 603e 27ad 143e 22d1 77bc
0.088972636 -0.093330234 -0.014895845 -0.18441659 0.043168463 0.21696213 -0.22453088 -0.08025118
-0.12784775 0.2110106 0.1943788 -0.0657136 -0.18621472 0.085156515 0.090464495 0.00012484584
0.08880319 -0.10550299 0.14824608 0.055512615 0.14875826 -0.22845937 0.1518627 0.21016042
-0.16182539 0.106349185 -0.16044009 -0.1839172 0.058433786 0.09688792 0.12184215 0.16908877
-0.111436576 0.14190502 0.02597119 0.08340435 -0.0066017057 -0.103715114 0.075899266 -0.076838605
0.17891303 -0.13498475 -0.15597329 -0.032181703 -0.09798563 -0.021802021 0.12885806 0.0014089666
0.06504427 0.036281895 -0.112876005 -0.1401682 0.12281418 0.02964048 0.14930636 -0.047515534
-0.08690277 0.22873579 0.084473535 -0.10490551 -0.21799448 -0.09302672 -0.067960225 -0.13742778
-0.14987421 0.076914825 -0.046095353 -0.048666548 -0.080290124 -0.22309081 0.024032755 -0.031301875
0.18232872 0.11618605 0.16329291 -0.1642336 0.11069641 0.014831029 -0.18144862 0.07651472
0.18344189 0.06638842 -0.22043583 -0.12540801 0.05901598 0.11300143 0.016190523 0.020180859
-0.039445132 0.1142556 -0.042190347 -0.055429995 0.0058768615 0.20977214 0.18432637 -0.2244478
-0.10570983 -0.044211864 0.0177743 -0.22322193 -0.0051102014 0.034043368 -0.21086976 0.18577294
-0.12988551 0.20014141 -0.13867736 0.022855623 0.19380005 0.03469563 -0.18232137 0.06516113
0.13891032 -0.13871223 -0.12903139 -0.16946226 0.108027615 0.20994927 0.12159279 -0.11207765
0.16045843 -0.06331164 -0.15207072 0.15866812 -0.12899725 -0.13296528 -0.1512922 -0.08266315
0.028596753 0.13006358 0.12077343 0.061017208 -0.18087018 -0.015667018 0.10383463 -0.06219683
0.0048513752 0.11803527 0.13729906 0.009504939 -0.22890027 0.07373127 -0.01011771 -0.0016303253
0.21819253 -0.21628179 0.16082047 -0.10493617 0.04435186 0.056227475 0.062390592 -0.11553754
0.0802951 -0.027337465 0.0022594773 -0.018265206 0.026749609 0.046306238 0.15875216 -0.122709595
-0.22739184 -0.14136219 -0.22674324 0.12994349 0.039209716 0.015491879 0.05139612 -0.04852007
-0.16914557 -0.17462756 0.09475036 -0.03426514 -0.15175502 0.14454365 -0.13364562 0.13402571
0.016949799 -0.07097055 0.10846232 -0.19884324 0.025641039 0.097046845 0.067438684 -0.2251568
0.065602645 -0.005476206 0.15576784 -0.17323062 0.12594523 0.01450055 -0.09148405 0.1565795
0.15763542 0.16011763 -0.111027114 0.17534827 -0.12722713 0.075193845 0.13037868 -0.21747628
0.10137195 -0.13554211 0.14625242 0.20108767 0.019717302 0.07344827 -0.20563048 0.16709006
0.1919145 0.085321285 0.21959023 0.1753949 -0.17855515 0.108876705 0.10923642 0.10383455
0.0067975484 0.18587475 0.1895535 -0.21448034 0.20789114 -0.03992031 0.024924234 -0.015967222
0.05822583 -0.19627726 -0.06270346 -0.13433208 -0.121551745 0.12450746 0.11263212 0.21548383
-0.1589595 -0.20502123 -0.210294 0.21711673 -0.050583567 -0.020715903 0.09856454 0.022822749
-0.11203526 -0.17892304 -0.107606255 0.1484402 -0.18292822 0.0022513 -0.18161033 -0.17472775
-0.08119139 0.06660522 0.16658203 -0.20478675 -0.012011564 0.2189603 0.14519177 -0.015125545

0.bias f4 [64]
00000000: 13d4 81bd b921 8e3d 9686 33be 55e6 49bd
00000010: 8a7a c33d 4f9b 25be bc3c f4bd b103 663e
00000020: a02b 0b3e dea0 d63d 00dc fdbd a6a6 0bbe
00000030: ff3d 4bbc 9147 2cbe 4297 14be 82fd e8bc
00000040: 8236 173e 1d47 4f3e 1f12 b8bd f551 2a3e
00000050: 2c6d f0bd cdeb 2a3e 1d0b 7f3d f120 793d
00000060: 3cfb ba3d b821 bcbd fdc7 bb3d 2354 4b3e
00000070: 53e9 00be 1977 41bd 95c4 883d 2242 1a3d
00000080: 08b2 ea3d 3860 e3bd ff19 0cbd 9a59 2abe
00000090: 6234 aabd 28cc 1abe 2721 dabd 2931 0a3e
000000a0: 4b71 fd3c c629 7bbd 0197 f8bb 7ba1 c53d
000000b0: 0e53 013e 7d01 5ebe f16c 0e3e 25ba 99bc
000000c0: 01b9 3c3e 6174 e43c dc0e 353e e60d 853d
000000d0: ae83 babd d143 30be 656a 683d 6f3b edbd
000000e0: 561e 743d aa02 f3bc 06a2 37be dd6c d3bd
000000f0: 6e94 2dbe 0042 eebd 78df c03d 8cbd f73d
-0.06339278 0.06940026 -0.17531809 -0.049291927 0.09544857 -0.16172527 -0.11925647 0.22462346
0.1359086 0.10479902 -0.12395477 -0.1363779 -0.012404918 -0.16824175 -0.14510825 -0.028441194
0.14766887 0.20241971 -0.08987831 0.16632827 -0.11739573 0.16691513 0.062266458 0.06082243
0.091299504 -0.09186119 0.09169004 0.19856314 -0.12589006 -0.04723272 0.0667812 0.037660725
0.11459738 -0.11102337 -0.03420448 -0.16635743 -0.083107725 -0.15116942 -0.106508546 0.13495316
0.030937811 -0.061319135 -0.0075863604 0.096499406 0.12629339 -0.21680255 0.13908745 -0.018765518
0.18429948 0.027887525 0.1768145 0.064967915 -0.09107147 -0.1721337 0.05674209 -0.11583602
0.059599243 -0.029664356 -0.17932901 -0.103234984 -0.16951153 -0.11633682 0.09417623 0.120967

2.weight f4 [128, 64]
00000000: 8819 65bd d0c4 953d be33 e43d 38c8 36bd
00000010: 54bb 583d e8f2 fc3c dc39 96bd 1acb da3d
00000020: e88f adbd a0a1 aabc 0003 dc3a 703d 203d
00000030: f8ba 533d 1a91 b53d 3afd a6bd 8494 2fbd
00000040: 602d 31bc 22f6 aebd b411 d33d ac2b b93d
00000050: 38a6 98bd 9c15 50bd 800f f6bc 28e3 89bc
00000060: f862 ccbd 4026 4b3c e2fe 983d 50a9 b3bd
00000070: 18a6 f7bc 187e 84bc a253 e63d b4b7 993d
00000080: f25e c9bd 42b1 943d 708e cf3d fcd7 28bd
00000090: 8076 f93d c08e e7bb 90f9 c53c 1465 96bd
000000a0: bea9 ad3d dcb1 05bd f0ec 7c3d 6423 62bd
000000b0: 9676 bcbd 7003 a9bc 0e90 963d 7024 3a3d
000000c0: 6e0b c7bd 609d bf3c 8c44 7a3d 382b 7d3d
000000d0: 806f f83d 3204 cabd 30c0 8abc 30a4 a53d
000000e0: 9ec5 cebd 10bd e7bc 44b5 733d 6cce 8bbd
000000f0: 1c19 06bd c483 563d 607e 953c e437 85bd
00000100: f20d fdbd de50 8ebd 52a2 f9bd e06c 12bd
00000110: 640f 21bd 8486 07bd d8c6 4c3d 9eef bd3d
00000120: 244e 01bd b469 fbbd 54e5 4e3d c006 ae3d
00000130: 34dd 003d a4ef cfbd d466 3ebd 48ba 8bbc
00000140: 5072 e4bd 6c56 d1bd 2202 9f3d 9c18 62bd
00000150: 384a f1bd cc6d 53bd 7461 8f3d f43a f0bd
00000160: a436 76bd 2c51 18bd 50f2 333d 7c84 013d
00000170: 5485 f13d 2233 93bd 285a 78bd 6e1f c2bd
00000180: d629 e2bd 66fa dcbd 9e32 e53d 86a3 fc3d
00000190: f882 663d 0a3f e63d 12a8 b73d a00e 9b3b
000001a0: b058 c6bd a0d6 20bd 0054 babd d475 4f3d
000001b0: a2af f2bd a495 55bd 0079 adbd a00c 853c
000001c0: 6834 babc 3040 c83c 926b a83d d416 45bd
000001d0: 42e7 b5bd b6ea 8abd 72b3 f7bd f8ea e73d
000001e0: 98dd 443d d4a1 86bd 8401 d13d 608b ba3d
000001f0: c095 243b c0dc 393c 084d afbc 10f1 0d3c
00000200: 8807 cc3c 1018 9b3c 2427 bebd 0e38 963d
00000210: 72a6 c53d d41a dc3d 98b2 953d ec5d 3ebd
00000220: 7845 55bd d2dc d4bd 50b1 273c 74db c8bd
00000230: 2a12 a4bd 0cb8 4a3d a288 db3d 3071 923c
00000240: d096 693c 5a7b dabd ea5a b3bd 6a71 d63d
00000250: 5a81 ae3d d077 da3d 5677 c1bd f23b c33d
00000260: 1ecc ca3d 204b 9f3c b4a6 e13d f859 9b3d
00000270: 1269 b93d 589d 59bd 5cc2 08bd 90f6 9e3c
00000280: 70ed c5bc 0c27 833d e0da 8cbb d0ab dabd
00000290: 60c6 3d3d ba25 b83d b6ee af3d 9685 ca3d
000002a0: 7cfb 713d ac85 a1bd f043 d13d ec27 143d
000002b0: ccf7 2abd b8b4 c93c 20ad ed3d 08d8 dcbc
000002c0: 0080 9eba 489b f43c 3403 2ebd 78da 8ebd
000002d0: b840 913d fe9e b53d ee86 ea3d f0dc b3bc
000002e0: 60c6 d1bd ea3e ca3d b8f6 cabc b447 68bd
000002f0: 3052 173d 66ae b2bd 0a21 d0bd ea0b d8bd
00000300: 501e 3cbc 5049 1dbd 6c89 2e3d ca47 f73d
00000310: d015 813c 405b 703b 7c11 063d c098 2abc
00000320: ec96 f8bd 308f e23c f8a1 c7bd e62e abbd
00000330: 48e0 e93d d2ef b9bd 4874 523d 5649 d4bd
00000340: 1474 4a3d 3a23 da3d b22c 9ebd f45c 6fbd
00000350: a06a 8ebc f040 093d 101b 7e3d 14dc 6cbd
00000360: 5e31 a2bd f886 f8bc ca4b a1bd d005 10bc
00000370: 1013 743c 7438 2ebd a470 e2bd b0d9 cfbc
00000380: f464 6bbd 6258 98bd f045 d03d 927a acbd
00000390: 408b bfbd c0e4 00bd e2ac fc3d 40d9 a93b
000003a0: d240 c0bd 28d9 f03d e0b7 dabd 9838 673d
000003b0: 5c89 fd3d e0a2 71bd ec13 fc3d 00a1 d0bc
000003c0: 6a20 b53d ec45 323d 7242 e43d 827f a63d
000003d0: ee50 cb3d 1e27 86bd 943a 563d 4861 42bd
000003e0: ee28 d33d b0f7 803d 583d cebd 3077 d03c
000003f0: 1a6b ba3d 1837 a3bd 4006 3f3c 002f be3a
-0.05593255 0.0731293 0.111426815 -0.044624537 0.052913025 0.030877545 -0.073352545 0.1068327
-0.084747136 -0.020829022 0.0016785562 0.03912109 0.05169198 0.088655666 -0.08153768 -0.042866245
-0.010814041 -0.0854304 0.10306111 0.09041533 -0.07453579 -0.05080186 -0.030036688 -0.01683195
-0.09979814 0.012399256 0.0747049 -0.08772528 -0.030230567 -0.016173407 0.112464204 0.07505742
-0.098325625 0.07260372 0.1013459 -0.041221604 0.12180805 -0.0070665777 0.024166852 -0.07343498
0.084796414 -0.032640323 0.0617494 -0.055209532 -0.09202306 -0.020631522 0.07351695 0.045444906
-0.09718977 0.023390472 0.061100528 0.061808795 0.12130642 -0.098640814 -0.016937345 0.08087957
-0.10096286 -0.028288394 0.05949904 -0.06826481 -0.03273879 0.052371755 0.018248737 -0.06504801
-0.123561755 -0.06949018 -0.12189163 -0.035748363 -0.03932132 -0.03308727 0.04999432 0.09274219
-0.03156866 -0.12276021 0.050511673 0.08497381 0.031460956 -0.1015313 -0.046484783 -0.0170566
-0.11154616 -0.10221562 0.07764079 -0.05519925 -0.11781734 -0.051618382 0.070010096 -0.117299944
-0.060110703 -0.037186787 0.04393226 0.031620488 0.117930084 -0.07187487 -0.060632855 -0.09478651
-0.11043136 -0.10789947 0.11191295 0.12335877 0.056277245 0.112424925 0.08967604 0.004731968
-0.096848845 -0.039267182 -0.09098053 0.05064948 -0.118499056 -0.05214466 -0.084703445 0.016241372
-0.022730067 0.02444467 0.082236424 -0.048117474 -0.088819996 -0.06783049 -0.12094773 0.113241136
0.04806289 -0.06573835 0.10205367 0.09108615 0.0025113672 0.011344135 -0.021399036 0.008663431
0.024905935 0.018932372 -0.09284809 0.0733491 0.096508875 0.107473046 0.07309455 -0.04647629
-0.052068204 -0.10393681 0.010235146 -0.09807482 -0.08011277 0.049491927 0.1071942 0.017876238
0.014257148 -0.10668059 -0.08757575 0.10470851 0.085207656 0.10667384 -0.0944659 0.09532918
0.099022135 0.019445002 0.11018124 0.075855196 0.09053244 -0.05312857 -0.03338848 0.01940468
-0.02416107 0.06403932 -0.004298553 -0.10677302 0.046331763 0.08991571 0.085904524 0.09888761
0.059077725 -0.07886824 0.10218036 0.036170885 -0.041740224 0.024622306 0.116052866 -0.02695848
-0.001209259 0.0298592 -0.042483523 -0.06975263 0.07092422 0.08868216 0.11451517 -0.021955937
-0.10242915 0.09875281 -0.024775848 -0.056709006 0.036943614 -0.0872467 -0.10162552 -0.105491474
-0.011481836 -0.038399994 0.042611524 0.120742396 0.015757471 0.0036675483 0.03273152 -0.010412395
-0.12138161 0.027656168 -0.0974769 -0.083585545 0.114197314 -0.09078945 0.051380426 -0.1036555
0.049427107 0.1065125 -0.07723369 -0.058438256 -0.017384827 0.033509195 0.062037528 -0.05782707
-0.07919572 -0.030337796 -0.07875784 -0.008790448 0.014897123 -0.042534307 -0.11056641 -0.025372356
-0.057469323 -0.07438733 0.101695895 -0.08421816 -0.09352732 -0.031468153 0.12337662 0.005183369
-0.093873635 0.11760169 -0.106796026 0.056450456 0.12379715 -0.05899322 0.12308487 -0.025467396
0.08844073 0.043523714 0.11145486 0.08129789 0.099275455 -0.0655043 0.05230196 -0.047456056
0.10310541 0.06297243 -0.10070294 0.025447458 0.09102459 -0.07969493 0.011659205 0.0014509857

2.bias f4 [128]
00000000: 001d 333c 04be 62bd 0cea fb3d e231 95bd
00000010: 7c1a 2f3d d4bd 7ebd f2c5 9f3d 702e 1fbc
00000020: 9817 513d f033 883c 80f1 6f3c 48b7 fa3c
00000030: d6c1 d93d f0a3 1dbd 7e9c d03d 50c1 d8bc
00000040: 2c19 3d3d 4003 0fbb bc91 9d3d 60e0 123c
00000050: f03f b73d b42e 183d f8cc bcbc f06d d8bc
00000060: 10af 90bc 74dc ac3d c4b0 16bd 78bf f8bc
00000070: 2e84 a7bd cc23 debd 20e2 d4bb e075 9e3b
00000080: 100f 95bc 8482 0cbd ba61 e73d a83e 853c
00000090: 5ec3 b63d e0bc 263d 0043 33bc 3cd1 0d3d
000000a0: 90c2 793d dedb b9bd e827 083d 3eb1 dfbd
000000b0: 645e 5bbd 9018 ccbc 380d dfbc b0f6 ecbc
000000c0: e2c0 b83d 94d9 fe3d 6c95 323d 703b 473d
000000d0: 8cfa 813d 56ce fd3d 5edf dfbd 3c8d 993d
000000e0: baa5 b13d 40c3 163b 9c9a 003d e4c3 7dbd
000000f0: 5425 303d eaaf 993d f252 f3bd 08a2 a13c
00000100: bc22 dc3d 68cd bcbd a823 ddbd 62e8 97bd
00000110: 6026 a53b 1833 dfbd 008b d0ba 5e81 ab3d
00000120: acb3 6f3d 20a0 853b d096 f7bc 0edf e1bd
00000130: c010 003c 3eea 9bbd 60f2 df3d ded5 d5bd
00000140: 5874 9b3d b004 2f3c 4e03 ddbd a0ac bb3b
00000150: 2092 df3b 06a2 803d 3cfc c1bd 84b5 173d
00000160: a01b 72bc 1020 543d 2202 81bd fa08 a3bd
00000170: aa23 8a3d 3e06 a3bd 802f bdbd 9e83 923d
00000180: 4670 cf3d 6aad cfbd 489d 893c e8c7 aebc
00000190: 48c6 a23c 44da aa3d 1661 893d 147b 643d
000001a0: 5af4 db3d 22f6 be3d 103b 9b3c 581e f4bc
000001b0: a4f3 a8bd e010 493d 4025 75bb 0082 723b
000001c0: 1455 513d 50db db3d ec01 663d 1877 943c
000001d0: ec14 9abd 28a5 e5bc e052 2dbd 64ac 85bd
000001e0: 488f 5b3d 4007 f6bd 08b4 98bc c091 d8bd
000001f0: 52ee c1bd dcc3 453d 4cb3 883d 8023 b13b
0.010932207 -0.055356994 0.123005 -0.07284905 0.042749867 -0.062192753 0.07801427 -0.009715661
0.05104789 0.016626328 0.01464498 0.030604973 0.106326744 -0.03848642 0.101860985 -0.026459366
0.046166584 -0.0021822006 0.07693812 0.008964628 0.08947742 0.037153915 -0.023046955 -0.02641961
-0.017661601 0.084404856 -0.03678967 -0.030364737 -0.08179508 -0.108466715 -0.0064966828 0.004835829
-0.018195659 -0.034304157 0.11297937 0.016265228 0.08923982 0.04070747 -0.010941267 0.03462337
0.060976565 -0.090751395 0.033241183 -0.10922478 -0.053556815 -0.024914056 -0.027227983 -0.028926224
0.090211645 0.124438435 0.04359953 0.04864067 0.06346616 0.12392871 -0.10931276 0.074976414
0.08674188 0.0023004562 0.031397447 -0.061954394 0.04300435 0.07504256 -0.11881055 0.019730583
0.107488126 -0.09218866 -0.107978165 -0.074173704 0.005039975 -0.10898417 -0.0015910566 0.08374284
0.058520958 0.0040779263 -0.03022328 -0.110288724 0.0078164935 -0.076130375 0.10934901 -0.104411826
0.0759055 0.01068227 -0.10791646 0.0057273656 0.0068228394 0.062809035 -0.09471938 0.03703834
-0.014777094 0.05178839 -0.06299235 -0.079606965 0.06745084 -0.07960175 -0.092375755 0.0715401
0.10128836 -0.10140498 0.01679863 -0.021335557 0.019869938 0.08342412 0.06707971 0.05578144
0.10739966 0.0932429 0.018949062 -0.029799625 -0.08249596 0.04908836 -0.0037406236 0.0037003756
0.051106527 0.1073519 0.056154177 0.018123195 -0.07523522 -0.028032854 -0.042315364 -0.065270215
0.05360344 -0.120131016 -0.018640533 -0.105746746 -0.09469284 0.04828249 0.06674823 0.0054058433

4.weight f4 [64, 128]
00000000: 2580 563c e18a 9cbd ff63 deb9 2d06 46bd
00000010: 1568 9c3d 9d76 ec3c c41d 5dbd ddad 5ebd
00000020: 27bc 85bd 9170 693d 51aa 153d 036a 373c
00000030: c60b 183d ce30 173d 18e5 6bbd 207b a43d
00000040: 24ed 493d 1000 42bd d271 0bbd 3498 ec3b
00000050: e850 b33c 8210 7e3d 5884 9e3d 735c 713d
00000060: 1e4c 95bc 5532 1d3c cc2a 60bc 44d3 a1bd
00000070: 8912 a9bc 84da d73c c7e5 4ebd db05 0bbd
00000080: 9d6d 4a3d 8a5b 24bd 629a 7ab9 d419 7f3d
00000090: d8c5 a73c 34a3 ba3c b54e 533d 775e 39bb
000000a0: b842 44bd d456 873d 5595 593d ba4e 94bc
000000b0: de9b 10bd dae4 8bbd 1e63 d03c 215f 413a
000000c0: ddb2 893d 2020 a93c 5737 7f3c 93d6 893b
000000d0: 0d93 0abd 6106 4b3d cc0f f0bc 22d7 b43d
000000e0: 4559 8a3d b035 a83d 075a 833d f236 a5bd
000000f0: bc23 8a3b f384 99bd c0cf 6dbd 633f 65bc
00000100: e43f 6c3d 899d cdbc 4fd2 37bc 1f87 7b3d
00000110: f5e1 283d 3345 b0bd 78e7 86bd 741e 00bd
00000120: 6e3b a8bd d77c 413d 32d4 953d e2e6 3bbc
00000130: 7924 783d 946a 9d3d 8643 49bd 5002 213c
00000140: 897d a73d 032b 63bd 7327 14bd 2cbe a3bd
00000150: 7bac 2c3d 276b b0bd cbb1 9e3d 1097 013d
00000160: 49f3 663d 8c89 363d b91c 6ebd 8761 a6bc
00000170: 29eb bd3c 6286 33bd 4936 9abd e36b 163c
00000180: d5f1 a43d 1db7 383d f828 0bbc 2c86 2dbc
00000190: 8ec7 05bd cd51 89bd 663e 90bc fb69 96bd
000001a0: 804a 46bd 0f1f bb3c ba3c 32bd 09ee 923c
000001b0: e419 d43c b066 173c 772c 9dbd 9ec2 093d
000001c0: 1583 2a3d 0f88 abbc 099f 97bc 60e0 653d
000001d0: d76c ddbc d1b2 80bd 43a0 043c 655a 60bc
000001e0: 4246 b7bc 5117 ebbc 8868 3bbd be7c 043d
000001f0: 676e 4d3d 084d 74bd 36aa 013d 65ff 603d
00000200: fb85 e23c 28d8 52bc 1380 443d 7cea e9bc
00000210: cd03 59bd 24f2 8bbd 100e 8abd a510 62bd
00000220: daa4 4b3d 3bfc 7cbd e908 5e3d 53ea 16bc
00000230: 4760 37bd 754e 06bd 9fba 52bd 9e41 70bd
00000240: 890b cabb 18b3 273d 3216 4abd 78e9 7e3a
00000250: 850f 03bd 8e1a 103c 65d6 293d 2b7f 8fbc
00000260: e180 bcbc 9038 433d 0c55 71bd d8f7 19bd
00000270: 3f1f 933c 44e2 153b a47d 533d 0412 a73d
00000280: dc6e 5b3b 9b36 34bd c4f2 663d bf2e a8bd
00000290: 4a77 89b8 3f62 aebd d07f 283c 08b9 913c
000002a0: 5a37 fdbc 3f50 8dbd 2654 1b3b ce4d 0f3c
000002b0: 18bc 153d 9ed1 853d ba4b 35bd eab7 943d
000002c0: a5e5 c83a 5413 e0b9 61bc 99bd 06b6 ff3c
000002d0: 6954 5fbd 18fb 9bbc db1f 8a3d 5aed 12bc
000002e0: 86a8 d0bc 9261 8b3d 7150 853c 736c 95bd
000002f0: 08a4 43bd 34f1 f6bc 7b91 a0bd 1874 03bc
00000300: 44b4 83bb 4bae fabc 01ff 2c3d 2cc2 19bd
00000310: 0cdb 9c3c 19ff 97bd c811 a13b a9f4 26bd
00000320: 2af7 793d 534b 3e3c 79d6 ac3d 8f52 97bc
00000330: 5370 873d 2a0c b33d b22e efbc 93fe 77bd
00000340: e71f cfbb 269d b13d bb53 8ebd 17b8 4ebc
00000350: 6e8f b4bd 6c83 613c b9c2 84bd d4fc a13d
00000360: ce92 04bd 6692 083d 7af6 383c 0067 f33c
00000370: 11f6 9e3d dd5c eebc 709c 95ba e086 103d
00000380: 1169 143c cb7f 34bd b95d 9a3c dc9e b0bc
00000390: 5402 80bd d2aa 90bd aa36 833d a6d6 79bd
000003a0: 5d32 86bd 407c 703b 3e34 b0bd 6863 d03b
000003b0: 7c19 0e3d 93d2 88bd fd95 fe3c a1fb 593d
000003c0: 94b9 acbd e348 aebd 2dac 01bd c0e3 dcbc
000003d0: d31c 353d 8d7e a13d 673c b1bd 0965 913d
000003e0: de96 9cbd fe9c 9d3c 9e84 933d 69e9 b23d
000003f0: 1f4d 283d e5f4 fa39 0879 473d 118c aebc
0.0130920755 -0.076436765 -0.00042417643 -0.048345733 0.076370396 0.028865153 -0.053983465 -0.054365028
-0.06530028 0.056992117 0.03653938 0.011194709 0.037120603 0.03691178 -0.057591528 0.08031297
0.04929842 -0.04736334 -0.034044094 0.0072202925 0.021889165 0.06202746 0.07740086 0.058926057
-0.018224772 0.00959452 -0.013682079 -0.07901624 -0.020638721 0.026349314 -0.0505121 -0.03394113
0.04942094 -0.04012636 -0.0002389937 0.06228049 0.020480081 0.0227829 0.051588733 -0.0028285065
-0.04791519 0.06608358 0.05312093 -0.018103946 -0.035304897 -0.06830759 0.025437888 0.0007376541
0.067235686 0.020645201 0.015577159 0.0042064874 -0.033831645 0.04956663 -0.029304408 0.08830096
0.06755308 0.08213365 0.06413656 -0.080671206 0.0042156857 -0.07496061 -0.058059454 -0.013992163
0.05767812 -0.025099533 -0.011219575 0.06140816 0.041231114 -0.08606949 -0.06587118 -0.031279042
-0.0821446 0.047238197 0.07315864 -0.011468621 0.060581658 0.07686344 -0.04913666 0.0098272115
0.08178241 -0.05546094 -0.036170434 -0.07995257 0.042156678 -0.08614188 0.07748755 0.031638205
0.05638436 0.04456477 -0.05813286 -0.020310177 0.023183422 -0.04382933 -0.07529885 0.009180996
0.08053938 0.045096505 -0.008493654 -0.010591071 -0.032661013 -0.067050554 -0.017607879 -0.07344433
-0.048410892 0.022841958 -0.043514945 0.01793577 0.025891252 0.009240791 -0.076744966 0.033632867
0.041628916 -0.020938901 -0.018508451 0.056122184 -0.027029438 -0.062841065 0.00809485 -0.013693427
-0.022372369 -0.028697642 -0.045753986 0.032345526 0.050154116 -0.059643775 0.031656466 0.054931063
0.027651777 -0.0128689185 0.047973704 -0.028554194 -0.05298214 -0.06833294 -0.067409635 -0.055191655
0.04971776 -0.061763983 0.054207716 -0.009211141 -0.04476955 -0.032789666 -0.051447507 -0.058656327
-0.006165926 0.04094228 -0.049337573 0.00097241206 -0.031997222 0.008795394 0.04146423 -0.017516693
-0.023010673 0.047661364 -0.058918998 -0.037589878 0.017959235 0.002287046 0.051633492 0.08157733
0.0033482825 -0.04399739 0.056383863 -0.08212041 -6.5548884e-05 -0.08514833 0.010284379 0.017788425
-0.030910183 -0.06900071 0.002370128 0.008746577 0.036556333 0.06534122 -0.04426167 0.07261641
0.0015327228 -0.0004273901 -0.075066335 0.031214725 -0.05452386 -0.01904063 0.06744357 -0.008967722
-0.025470983 0.068057194 0.016273709 -0.07296076 -0.047763854 -0.030144311 -0.07840248 -0.008023284
-0.004019292 -0.030600687 0.04223538 -0.037538692 0.019147418 -0.07421703 0.00491545 -0.04076067
0.06102673 0.011614638 0.08439345 -0.018471984 0.06613221 0.087425545 -0.02919707 -0.060545515
-0.0063209417 0.08672552 -0.06949564 -0.012617133 -0.088164195 0.013764244 -0.06482453 0.07909551
-0.032366566 0.03334274 0.011289233 0.0297122 0.07761777 -0.029097015 -0.001141442 0.035284877
0.009058253 -0.044067185 0.018843519 -0.021560125 -0.06250444 -0.070638314 0.06406911 -0.06099572
-0.06552575 0.0036695153 -0.086037144 0.0063595064 0.034692273 -0.06680789 0.03107738 0.053218488
-0.08433834 -0.08509996 -0.03165834 -0.026964068 0.044216942 0.07885466 -0.08654099 0.07099349
-0.07645963 0.019239899 0.07203029 0.08735926 0.041089173 0.00047866176 0.04869941 -0.021307023

4.bias f4 [64]
00000000: da21 9cbc 891f 653d 887a 84bd e415 803d
00000010: bdef 293d 129a 4abd 5897 803d cdbd 96bc
00000020: cd1a 9e3d fdb3 983d e291 83bd 67d5 b7bb
00000030: 7dd6 98bd 1249 14bc 2a33 cc3c 4c67 e0bb
00000040: c171 ae3d e473 93bd 4efc 8f3c 1da5 b3bd
00000050: a7e8 fabc 053a 8c3c 3617 adbd 264f 92bd
00000060: ba04 fdbc a4ee 5cba 04e2 82bd fe9a ebbc
00000070: 7e98 0f3c c3c5 1d3c b23e b4bb 6baa a4bd
00000080: 1fa7 b9bb cd6b 953d 92c4 45bd 32e8 5b3d
00000090: bef1 483d 2228 f3bc c64f 94bd 9dba a1bd
000000a0: 3fe4 8a3d 43c1 e7bb 4919 623c d097 b0ba
000000b0: 9e9d dfbc 9d62 793d b58c 993d 176c 15bd
000000c0: c1d1 d1bc aacb 40bd 91f2 273c 7c5c 82bd
000000d0: 76e3 623d bc2b 563c 849b d3bc a6b2 9b3d
000000e0: d6a0 2e3c ca09 92bd 72a5 45bd 99f6 25bc
000000f0: acbd 8dbd 8370 32bd 9893 9c3d c2f7 b0bc
-0.01905911 0.055938277 -0.064686835 0.06254175 0.041488398 -0.04946334 0.062788665 -0.018401051
0.077199556 0.07456205 -0.06424309 -0.0056101563 -0.074627854 -0.009050624 0.02492674 -0.0068482514
0.085177906 -0.07199839 0.017576363 -0.08771727 -0.030628515 0.01711751 -0.08451693 -0.071440026
-0.030886043 -0.0008427894 -0.06390765 -0.02876043 0.008764384 0.00962967 -0.005500638 -0.08040317
-0.0056656743 0.07295952 -0.048283167 0.053688236 0.04905867 -0.029682223 -0.07241778 -0.07896922
0.06781816 -0.007072599 0.013799974 -0.0013472978 -0.027296837 0.06088506 0.07497541 -0.036480036
-0.025612714 -0.04706923 0.010250703 -0.06365296 0.055392705 0.0130719505 -0.025830992 0.07602434
0.010658463 -0.07130773 -0.048253484 -0.010129594 -0.06920943 -0.04356433 0.07645339 -0.021602515

6.weight f4 [32, 64]
00000000: 408e 3abd d44a 8abd 649e d8bd 121b dbbd
00000010: fe3f bebd 0a01 a0bd 6ef9 c6bd b4f4 e3bd
00000020: 1e54 afbd 6aec fcbd 6875 da3d c004 5ebd
00000030: 78d4 543d f08a 293c d0c5 d3bd 80d8 6a3d
00000040: dc38 39bd 7026 863d a0a0 0c3d 3463 d7bd
00000050: a86e c43d c0cb dfbb c88c bb3c 7006 17bc
00000060: 0440 b3bd 8421 e7bd b2bf 963d 1452 35bd
00000070: 1845 efbc a089 db3d 1875 d8bc 62a7 8ebd
00000080: 0ebc 98bd c0ed 13bc 7a40 edbd 3455 bbbd
00000090: d86f 9e3d c2bd b2bd 226e b3bd 945e 0c3d
000000a0: 5865 793d 8c5d f6bd 50bb e43d 7056 853d
000000b0: 8072 f2ba d09b 9a3c 6078 c23c 40c9 163d
000000c0: b8c5 b53c 06cb 86bd a433 d23d fe68 cfbd
000000d0: 7c4d ad3d a02f 71bc 8636 cabd 1e9e 8fbd
000000e0: 6cc6 f7bd 102a fa3c 90ed e3bd 5609 e63d
000000f0: e84b 9bbd 500b d4bc 54c3 74bd 603e 8a3d
00000100: baff c1bd 1852 86bc 127d 89bd a800 f9bc
00000110: c0b9 1d3c 2064 c33b 32f9 fbbd 40bf ef3c
00000120: 8ce6 f83d f0f8 77bd eab2 eabd 005f e03b
00000130: 5e59 b5bd 7e39 d5bd 8087 8dbd 9c4a 403d
00000140: 84dd 413d 5ef3 e0bd 50e6 ca3c 4019 8ebc
00000150: 00ea 333c 5617 ce3d 68c6 db3d a8c0 ab3d
00000160: f028 2b3d d082 de3c 04f3 f4bd 143b a13d
00000170: e63d e7bd bc00 4dbd f422 0dbd b823 dfbd
00000180: ce3d 86bd 4080 a5bd eae9 f83d c05f 82bc
00000190: 48d4 7dbd d401 cbbd 7cd2 413d 60af 523d
000001a0: c0d9 70bc 18ea 9fbc d004 dbbd 8044 dcbc
000001b0: 6c86 5d3d ae0f b73d 86d3 ed3d 5872 d63d
000001c0: 2853 d93d dcf2 10bd ac51 9d3d 3e69 dabd
000001d0: ce69 c1bd d695 883d 4043 e2bb 6859 97bc
000001e0: 8069 8a3c 3403 313d 86d2 83bd a433 45bd
000001f0: 2041 f93b 7092 debc 74d0 623d c07c 7c3c
00000200: 00ae adba 14f1 173d 8ad4 a4bd e812 ba3d
00000210: ba0e b53d 207b ed3c 54f3 063d 7884 c53d
00000220: c822 2a3d 5c97 63bd aebb ecbd c0ba 81bc
00000230: f06d efbc b887 be3d 7a66 e3bd d469 773d
00000240: 920b e93d 00b5 d93d dc27 fcbd b8a3 f6bc
00000250: d00b 7ebc 0abf c4bd 6078 943c 0008 18bc
00000260: 98d6 debc 00fc 6dbb fe4c bb3d c017 b93b
00000270: 3cc9 b53d 809b b6ba 5886 243d 283a d1bd
00000280: 4c00 30bd 90a9 d23d e6de c73d 72be 863d
00000290: 7070 9d3c 9218 d73d b60c 95bd 90ee 40bc
000002a0: 3c8e 7a3d f846 e3bd 6608 a9bd 9c07 ba3d
000002b0: d018 4f3d fcea e43d fc0c a8bd 0832 55bd
000002c0: 76ad 97bd f6a6 f43d e465 1bbd e022 fb3d
000002d0: 28af 593d 9aac aabd 0072 423a ba58 dbbd
000002e0: 408d cdbd f0ed 2cbc 0637 88bd 24c1 5a3d
000002f0: 1c90 ac3d 10f0 463d d8f7 d13d 920d f5bd
00000300: a451 c53d 689b ed3c 1045 79bd b059 e5bd
00000310: fc4b 1f3d 6ece cabd ccfe f03d 26c9 ef3d
00000320: 6e9c c1bd c439 683d 165d bfbd 606e 53bd
00000330: 828b e5bd dabc 9d3d 1c25 cbbd d464 9e3d
00000340: f42c 82bd 5284 a4bd 08ea c2bc 3428 4a3d
00000350: 64b1 ef3d d24e af3d a4f0 54bd b0cb 8ebc
00000360: 9092 3ebd 6013 b5bb dce6 413d a042 c23d
00000370: d0bc fabc e6f8 e03d 54ec e2bd da0f df3d
00000380: da65 c63d 760d e33d 1824 9a3c fac0 c6bd
00000390: c87e f23c 145e 033d 983a c9bc 40ed 2d3d
000003a0: d23b 87bd d4b0 753d 88d1 4bbd 40fd 003d
000003b0: 8467 6e3d c02d 30bc 0aa0 b7bd a2fd d1bd
000003c0: 026e d73d 80a0 7ebc d855 18bd 1025 f93c
000003d0: a27b f3bd d8be 1f3d ae75 943d 8c07 653d
000003e0: b809 d03c 3c52 9c3d 4096 f13c 7a91 c53d
000003f0: 98a7 2d3d eca0 ca3d 1add e13d f037 81bd
-0.045545816 -0.067525536 -0.105770856 -0.106985226 -0.09289549 -0.07812698 -0.09715544 -0.11130658
-0.08560966 -0.1234978 0.10666925 -0.05420375 0.05196044 0.010348067 -0.10340464 0.057335377
-0.04522024 0.065503 0.03433287 -0.10516968 0.095914185 -0.006829709 0.022894278 -0.009217843
-0.087524444 -0.112856895 0.07360782 -0.04426773 -0.029207751 0.10719609 -0.026423022 -0.069655195
-0.074577436 -0.009028852 -0.115845636 -0.091471106 0.07736176 -0.087276 -0.087612405 0.034269884
0.060887665 -0.120295614 0.111685395 0.06510627 -0.0018497258 0.018873125 0.02373904 0.03681302
0.022189006 -0.065816924 0.10263756 -0.101274475 0.084620446 -0.014720827 -0.09873681 -0.0701258
-0.12098393 0.030537635 -0.11129296 0.112322494 -0.07582837 -0.0258843 -0.059756592 0.06750178
-0.09472604 -0.016396567 -0.067133084 -0.03039582 0.009626806 0.0059628636 -0.123033896 0.029266
0.12153348 -0.06054014 -0.114599064 0.0068472624 -0.08854936 -0.104113564 -0.0691061 0.046946153
0.047330394 -0.109839186 0.024768025 -0.017346025 0.010981083 0.10063045 0.10731202 0.08386356
0.041787088 0.027161986 -0.11960414 0.078725964 -0.11291103 -0.05004953 -0.034457162 -0.10895485
-0.06554757 -0.08081102 0.121539906 -0.015914798 -0.061970025 -0.09912458 0.047319874 0.051436782
-0.014700353 -0.019520804 -0.10694277 -0.026888132 0.054083273 0.089385375 0.116126105 0.10471028
0.10611564 -0.03538786 0.07681593 -0.106646046 -0.09444009 0.06669204 -0.0069049895 -0.01847525
0.01689601 0.043215945 -0.064366385 -0.04814495 0.0076066405 -0.027169436 0.055374578 0.015410602
-0.0013250709 0.037095144 -0.08048351 0.09085637 0.088406995 0.028989375 0.0329469 0.09644407
0.041537076 -0.05556427 -0.115592346 -0.01583612 -0.029227227 0.0930323 -0.1110353 0.06040366
0.1137916 0.10630226 -0.1231229 -0.030107364 -0.015505746 -0.0960675 0.018123806 -0.009279251
-0.027201936 -0.0036313534 0.091455445 0.005648583 0.08876273 -0.0013931841 0.040167183 -0.102161705
-0.042969033 0.10286248 0.097593114 0.06579293 0.019218653 0.10502733 -0.07277815 -0.011775628
0.0611708 -0.110975206 -0.08253555 0.090834826 0.050560772 0.11177632 -0.082056016 -0.052049667
-0.07406132 0.11945908 -0.037938967 0.12262511 0.053145558 -0.083337024 0.00074175 -0.107102826
-0.10036707 -0.010554776 -0.0665112 0.05340685 0.08425924 0.048568785 0.102523506 -0.11965479
0.09634712 0.029004768 -0.06085688 -0.11198747 0.038890824 -0.099026546 0.11767349 0.11708288
-0.09453665 0.056695715 -0.093439266 -0.051618934 -0.1120825 0.07702036 -0.099191874 0.07734075
-0.063562304 -0.080330506 -0.023793235 0.049354747 0.117037565 0.08559956 -0.051987305 -0.01743111
-0.04652649 -0.0055259913 0.047339305 0.09485364 -0.030607611 0.109849736 -0.11080232 0.10891695
0.096873954 0.11086552 0.018816039 -0.09704776 0.02960147 0.03207214 -0.024564072 0.042462587
-0.06603207 0.05998309 -0.04976037 0.031491518 0.05820419 -0.010753095 -0.08966072 -0.10253455
0.10519029 -0.015541196 -0.037191242 0.03041318 -0.118888155 0.039000362 0.07249008 0.0559154
0.02539526 0.076328725 0.02949059 0.09646888 0.042396158 0.09893975 0.110285 -0.06309497

6.bias f4 [32]
00000000: 6a6b 833d 02bf f93d 80ef f83a d0c3 37bd
00000010: 46f3 e33d 087d b1bd 0629 df3d 6ce2 5ebd
00000020: 901f 1bbc 1c4e b0bd 78bc 84bc d45d eebd
00000030: 009a 69bb 5415 493d e8d6 16bd b8e5 ddbd
00000040: c68a f83d b4e8 95bd a014 813b 1c79 5fbd
00000050: ea04 fc3d 0c7e 4b3d ce7b c4bd 5c29 3bbd
00000060: f268 b03d 2a03 9b3d 6c19 acbd 740d e43d
00000070: e8ba eabd 704d 10bd f8c3 80bd 70f8 283d
0.06416972 0.12194635 0.0018992275 -0.044864476 0.11130385 -0.08666426 0.108964965 -0.05441515
-0.009467974 -0.08608648 -0.01620315 -0.1163899 -0.003564477 0.049092606 -0.036826044 -0.10834831
0.12135844 -0.07319775 0.0039392263 -0.05455886 0.12305625 0.049680755 -0.09593926 -0.04569374
0.08613767 0.07568963 -0.08403286 0.111353785 -0.11461431 -0.0352301 -0.06287378 0.041252553

8.weight f4 [12, 32]
00000000: 4667 d43d 29eb dabc 722d ae3a 6250 8c3d
00000010: bd0e c8bd 812b 0ebe b1fc 503d ec01 24be
00000020: c6a6 18be 02ed 10bd 4c8b fb3d 08d3 da3d
00000030: fce9 04be b6e7 27be d92a 003e 6d00 0a3e
00000040: 011b 23be 41e6 e73c ac18 3b3c 2694 f43d
00000050: 43a5 2d3d 5e56 653b c612 e1bc 4566 9dbd
00000060: 22bf 86bd e14f 333e 01d2 05be b66c f33d
00000070: 6f1e f53d a9bc 98bd a7c9 ba3d f5ec 193e
00000080: 1d92 273e 3886 743d bcfd c3bd 9863 b03d
00000090: 0712 ab3d 4c96 9d3c 2b70 9bbc 49bc e83b
000000a0: ad87 f2bd 7424 eb3d e989 edbd 16c1 13bc
000000b0: 286d 79bb 39f5 223e bd3b 553d f215 eb3c
000000c0: f33c 15be 9f2a 2e3e 14b1 88bc da03 77bb
000000d0: 9d73 99bd 7de7 6cbd 16a2 193e d61a 1b3e
000000e0: 56e3 e7bd 38e4 273e 71b5 143e 7d65 263e
000000f0: 6b81 03be fce8 dabd 1a33 3b3d 4f26 803c
00000100: 0b8d 1abe 6f3e 163e 5820 0a3e 2ded 273c
00000110: c14e 30be caeb e13d 7c8e 453d a10c 1dbe
00000120: e74c 6fbd 60a7 343e 4eab 04be ad75 adbd
00000130: 98d5 e93d 62b4 a5bd 4b28 25be af0b 753d
00000140: 30e5 1abe b95b 893d 069f e3bd 248f 4fbd
00000150: 448b 763d 6918 dc3d fc5c d0bd 777e 00be
00000160: e563 0a3e b571 1f3e a038 9939 7c92 fcbd
00000170: e494 f4bb f0db 5e3d d5bb 17be 4791 e33d
00000180: cf85 afbd bb9d ccbd 7302 d5bd 4287 1abe
00000190: ace9 60bc ee0d ff3d 4c75 9f3d ffe2 88bd
000001a0: 0cec 7b3d 2c1a dbbd 2424 8fbd 6ed9 20be
000001b0: f84b a0bc 8773 9dbd 467b 1dbd dc1d 8cbd
000001c0: 5c4b ffbd 2b84 bc3c 02fe cebc 0c2a 293a
000001d0: 7981 fb3c 23d4 1bbb dace 523d 9f22 0c3e
000001e0: 3aa1 123e 10ee 8dbc e736 bb3c 3d47 c83d
000001f0: 6f3a 6a3d 4209 a63d b5c3 cd3d fff0 b83c
00000200: e553 e53c 03ad 653d 8d69 0cbe 8c46 cc3d
00000210: 5b8e c9bd abfc 1a3d a15d 1fbe 0a27 10bd
00000220: e282 163e 41d5 e4bd a342 5cbd 8691 0cbe
00000230: dee9 01be a885 27be b70c 593d 8632 1d3e
00000240: 5982 fdbd b758 d33d b75e 963d 7675 0e3e
00000250: 65ed 273d 3f7e 22be 99d3 83bd 4a25 083e
00000260: 6180 22be c9e4 933d 6f92 be3c 30fe 563c
00000270: 74c7 0a3d 47ab 6b3d 485a 03be 5398 223e
00000280: 2901 913d 60e2 23be 35d3 0cbe c7d8 f73d
00000290: 8a3b 193e 06d6 00bd 3a54 d4bd 7533 84bc
000002a0: 8813 87bd 8f75 633d 3c41 323e 4096 973d
000002b0: ce51 bbbd cf2e 8e3d 8636 203e c91b 8dbc
000002c0: 34b9 cdbd 104d adbd 2cff 9d3c 0060 e1bd
000002d0: 5768 33be 2842 83bd 8761 f43d b4b6 d6bd
000002e0: 8205 09be d97c a0bc 98ae 20be 24f9 81bd
000002f0: 56ae 0d3c 634e 1ebd 8288 e93d faed bfbc
00000300: 55f8 773c 0533 133e 20c8 6dbd 7bf9 8ebd
00000310: 64c7 51bd 1ab6 9c3d f104 083e 9c89 89bd
00000320: 2f29 dcbd f6d8 10be f345 bf3d a2f1 99bd
00000330: c5c0 1d3d 2f18 ea3c e69b 2f3e 7c6d 113e
00000340: b766 b83c a1b9 da3d c295 0ebe 9e96 223e
00000350: 4152 093c 3a3f deba 80ec a9bc 1c2c b2bd
00000360: 68d0 443d af36 f3bd ea7a 0dbd 1222 2d3e
00000370: f320 913d e556 ec3d 3e3d f83d c642 2d3e
00000380: 78e8 003e 03a0 fbbd 96ed ec3c cf78 d83d
00000390: 9369 083d 4bcf e5bd d1db 883d bd59 aebd
000003a0: 0539 dbbd 7652 c7bc f4e5 263c 5384 06be
000003b0: b415 b2bd c446 ddbc 7639 d5bd 9e6a c8bd
000003c0: aca1 18be f8e9 d8bd f7fd 97bd 423c 39bd
000003d0: 3580 b13d 86c0 653c f98d 9cbd 84d0 96bd
000003e0: 51aa 93bd a809 f0bd f3d4 203e 6bde 093d
000003f0: d60b 2abe 2197 e63d 904c ffbd dcbf 2dbe
0.1037126 -0.026723461 0.001328869 0.06851269 -0.09768436 -0.13883783 0.051022235 -0.16016358
-0.14907369 -0.03538228 0.12282428 0.10684782 -0.12979883 -0.16396984 0.12516345 0.13476725
-0.1592827 0.028308036 0.011419456 0.119423196 0.042393934 0.0034994106 -0.027474772 -0.07685522
-0.065794244 0.1751094 -0.13068391 0.11885969 0.11968695 -0.07457859 0.091204934 0.15031798
0.16364332 0.059698313 -0.0956988 0.08612746 0.08353048 0.019236706 -0.018974384 0.0071025235
-0.11842284 0.11481562 -0.1159857 -0.009018203 -0.0038059447 0.15913858 0.052058924 0.028696988
-0.14574032 0.17008446 -0.016686 -0.0037691505 -0.074927546 -0.057837952 0.15003237 0.15146956
-0.11322658 0.16395652 0.1452234 0.16249652 -0.12842338 -0.106889695 0.04570303 0.015643267
-0.15092866 0.14672254 0.134889 0.010249418 -0.17217542 0.11031301 0.048231587 -0.15336849
-0.05842295 0.17641973 -0.12955973 -0.084697105 0.11417693 -0.08091046 -0.16128652 0.059825595
-0.1512649 0.06706948 -0.11114316 -0.05067362 0.060191408 0.10746843 -0.10173985 -0.12548243
0.13514669 0.1557072 0.00029224623 -0.12332627 -0.007464038 0.054408967 -0.14817746 0.11111694
-0.08570444 -0.09991022 -0.10400858 -0.1509066 -0.013727587 0.12453829 0.077860445 -0.06683921
0.06150441 -0.10698351 -0.06989315 -0.15707943 -0.019567475 -0.07688051 -0.03844764 -0.06841633
-0.124655455 0.023012241 -0.025267605 0.0006453104 0.030701386 -0.0023777566 0.0514668 0.13685082
0.14319316 -0.017325431 0.022853328 0.097792126 0.057184633 0.081072345 0.10047094 0.022575853
0.027994106 0.0560732 -0.1371214 0.09974393 -0.09841605 0.03783862 -0.1556306 -0.03519348
0.14698365 -0.111734875 -0.053774487 -0.13727388 -0.1268687 -0.1635958 0.05299064 0.15351304
-0.123783775 0.103196554 0.07342284 0.13911995 0.04099788 -0.15868472 -0.064368434 0.13295475
-0.15869285 0.07221372 0.023263184 0.013122126 0.03388162 0.05753639 -0.12827408 0.1587842
0.070802994 -0.16004324 -0.13752444 0.12101894 0.14964119 -0.03145411 -0.103676274 -0.016137818
-0.06595522 0.055532034 0.17407697 0.07401705 -0.091464624 0.06942522 0.15645799 -0.017225163
-0.1004509 -0.08461964 0.019286714 -0.11004639 -0.17520271 -0.06409103 0.11932664 -0.104840666
-0.13381007 -0.019590782 -0.15691602 -0.06346348 0.008647522 -0.038648974 0.1140299 -0.023428906
0.015134891 0.14374931 -0.058052182 -0.069811784 -0.051215544 0.076519206 0.13283135 -0.067157
-0.10750043 -0.14145264 0.09339514 -0.07516791 0.038513917 0.028575985 0.17149314 0.14201921
0.022509916 0.10679937 -0.13924316 0.15877768 0.008381427 -0.0016956099 -0.020742655 -0.086998194
0.048050314 -0.118756644 -0.034541048 0.16907528 0.07086363 0.11540011 0.12121056 0.16920003
0.1258868 -0.12286379 0.028921884 0.105699174 0.03330381 -0.112211786 0.06682552 -0.0851321
-0.10704235 -0.024331313 0.010186661 -0.13136415 -0.08695546 -0.027011283 -0.104113504 -0.097859606
-0.14905423 -0.10591501 -0.07421487 -0.045223482 0.08667032 0.014022952 -0.07644267 -0.0736399
-0.0721022 -0.11720592 0.15706234 0.03365938 -0.16606078 0.11259294 -0.12465775 -0.1696772

8.bias f4 [12]
00000000: bcea ec3d 70aa 45bd 95b0 5abd 97b1 0e3e
00000010: 18a5 273d 46f5 833d 9893 923c ea68 d73d
00000020: 14d8 80bd e9ae 2b3e 9c7c 99bd 4470 ca3d
0.115682095 -0.048258245 -0.053391058 0.13934933 0.04092893 0.064432666 0.017892644 0.10518058
-0.06291214 0.16765942 -0.074944705 0.09884694
