unitree_9_ar.pt (torch, 19322 bytes, 5 tensors)

fc1.weight f4 [64, 31]
0.06557388 -0.039470267 0.15004994 0.09429066 -0.06790526 -0.055545937 -0.15140814 -0.10782247
0.012219533 -0.154117 0.1516199 -0.022485498 0.17375718 0.09466368 -0.017354101 0.13356252
-0.10365361 -0.16172144 0.13940297 -0.04633605 0.047827475 0.012457769 0.042862136 0.032137576
0.0019184131 -0.1238173 -0.16951296 -0.10811276 -0.08181966 0.044564664 -0.012134191 0.01282766
0.0772158 0.120353684 -0.11555747 0.032817814 0.12599733 0.17738464 0.00829244 0.07227757
-0.11965642 -0.098138854 0.0876751 0.10126352 0.1387986 0.123945355 -0.12088422 -0.025655748
-0.07547432 0.09305088 0.09056033 0.0068561947 -0.023031255 0.012164936 0.13601977 0.069087386
0.13964474 0.16495068 -0.1031213 0.16815212 -0.09539718 0.12360953 -0.16741836 -0.0368978
-0.04317263 0.056702476 -0.15640512 0.14799228 0.07371566 0.14707452 0.060057625 0.03224887
-7.605053e-05 -0.17881392 -0.13349807 0.11220433 -0.16048305 -0.12580733 -0.10860404 0.079485305
-0.048276197 0.043962836 -0.10284808 0.01104484 -0.17525992 -0.17445618 -0.14566538 0.17526776
-0.079268605 -0.1613409 -0.12980711 -0.0022627814 0.050643075 -0.021108024 0.0932698 0.0013055769
0.04967763 -0.09492887 -0.116073914 -0.048872184 0.034990862 0.054629326 0.16955431 -0.07558116
0.009641802 -0.019439109 0.16543719 0.16084322 -0.016216833 0.16452865 -0.09589864 -0.09761611
0.020156922 -0.09349166 0.1627396 0.14058597 0.16043818 -0.12830745 -0.14319526 -0.08479111
-0.11001049 0.094786465 -0.09152822 0.0027858214 0.03436334 0.0795402 -0.06645193 0.029846726
0.10440733 -0.04929791 0.02593657 -0.13123055 0.09880032 -0.009842719 0.055792697 0.16917375
0.052516505 0.14864726 0.09532783 0.014674068 0.09803268 0.10838823 0.14996035 0.07427762
0.1753337 0.048673514 0.00071789813 0.0074976995 -0.16388875 -0.10212389 0.100420155 -0.024126815
0.13560429 0.05050459 -0.15925348 -0.13864878 0.06006304 -0.13150172 0.16955708 -0.070406966
0.028321456 -0.066934675 0.15867452 -0.012133656 -0.07419917 0.014778231 0.14156185 0.11664569
0.048383337 -0.1777296 0.15357196 -0.17539693 0.01576387 0.102304354 -0.0062126126 -0.022883264
-0.13080595 -0.13352582 -0.09998148 -0.07170381 0.06061212 -0.06902673 0.105610736 -0.06960295
0.032082852 -0.1447539 0.11697731 -0.038047552 -0.05040182 -0.05414868 0.13496418 0.11029711
-0.09277053 -0.007439891 -0.054137547 0.15102756 0.043828912 -0.11310458 -0.015371691 -0.026861101
-0.028650152 0.16933422 0.008796297 0.10547439 0.059812024 -0.15552256 -0.13987981 0.17160632
0.056249276 0.084610835 -0.06655397 0.022926899 0.004360744 0.14262891 -0.17879252 0.16033645
-0.057400078 0.035396617 0.124253266 0.048798252 0.1411082 0.081444286 -0.17606002 -0.076698154
-0.1626121 0.08404506 -0.11693323 0.10762984 -0.078136265 0.04332829 -0.0927491 0.091967456
-0.09933768 -0.055029064 0.07285803 -0.102575675 0.06964209 0.17668608 0.12068848 0.15401326
0.059655707 -0.008442294 0.013878001 -0.09992831 -0.10623528 0.083181225 0.026301427 0.029771425
0.10097508 0.08825147 0.06297311 -0.019991076 -0.06649336 0.09853005 -0.07143446 0.17940596
00000000: 994b 863d 93ab 21bd b1a6 193e 761b c13d
00000010: ea11 8bbd 2384 63bd bc0a 1bbe 07d2 dcbd
00000020: 7034 483c d9d0 1dbe 3f42 1b3e 8233 b8bc
00000030: 67ed 313e 08df c13d 302a 8ebc 9dc4 083e
00000040: 5848 d4bd 4e9a 25be a7bf 0e3e dfca 3dbd
00000050: bee6 433d ac1b 4c3c 3590 2f3d b1a2 033d
00000060: 4373 fb3a ed93 fdbd ce94 2dbe 396a ddbd
00000070: 1191 a7bd 7089 363d 7cce 46bc 1b2b 523c
00000080: 5123 9e3d fe7b f63d 65a9 ecbd f96b 063d
00000090: 7205 013e 52a4 353e 04dd 073c 4306 943d
000000a0: 6d0e f5bd 06fd c8bd 018f b33d 4063 cf3d
000000b0: 3821 0e3e 10d7 fd3d 2592 f7bd 012c d2bc
000000c0: 4892 9abd 7691 be3d b277 b93d eea9 e03b
000000d0: 0bac bcbc 714f 473c c448 0b3e b07d 8d3d
000000e0: 08ff 0e3e d5e8 283e 4331 d3bd 1230 2c3e
000000f0: 995f c3bd fe26 fd3d b86f 2bbe 2622 17bd
00000100: c9d5 30bd db40 683d aa28 20be 4a8b 173e
00000110: 3cf8 963d b49a 163e fcfe 753d 6417 043d
00000120: 517d 9fb8 ff1a 37be b8b3 08be 62cb e53d
00000130: ab55 24be a3d3 00be cc6b debd 31c9 a23d
00000140: 43bd 45bd 6012 343d 04a2 d2bd 6bf5 343c
00000150: 5677 33be a4a4 32be 4e29 15be 6479 333e
00000160: 9457 a2bd 8d36 25be 28ec 04be 2c4b 14bb
00000170: 1d6f 4f3d bcea acbc 3d04 bf3d e41f ab3a
00000180: c57a 4b3d 116a c2bd 29b8 edbd 332e 48bd
00000190: 9452 0f3d 00c3 5f3d a59f 2d3e 4cca 9abd
000001a0: a6f8 1d3c c43e 9fbc 5e68 293e 16b4 243e
000001b0: 2ad9 84bc 337a 283e 8266 c4bd f5ea c7bd
000001c0: 2120 a53c 8e78 bfbd 36a5 263e c5f5 0f3e
000001d0: e849 243e 0763 03be c7a1 12be f6a6 adbd
000001e0: 2e4d e1bd 681f c23d 2673 bbbd 5492 363b
000001f0: 93c0 0c3d f9e5 a23d f317 88bd 1f81 f43c
00000200: 83d3 d53d 9bec 49bd ee78 d43c 4d61 06be
00000210: d257 ca3d 5b43 21bc e286 643d e23b 2d3e
00000220: 8c1b 573d fd36 183e 3d3b c33d 816b 703c
00000230: 5cc5 c83d a6fa dd3d 358f 193e dd1e 983d
00000240: ad8a 333e e15d 473d 5431 3c3a 43af f53b
00000250: 74d2 27be 5426 d1bd 15a9 cd3d 99a5 c5bc
00000260: dadb 0a3e e7dd 4e3d 5813 23be f2f9 0dbe
00000270: aa04 763d 63a8 06be 5fa0 2d3e 8731 90bd
00000280: 6602 e83c 0c15 89bd 937b 223e 3ecc 46bc
00000290: bcf5 97bd 6520 723c 97f5 103e efe3 ee3d
000002a0: 9b2d 463d c0fe 35be f841 1d3e 419b 33be
000002b0: 3b23 813c f284 d13d 2c93 cbbb af75 bbbc
000002c0: fff1 05be feba 08be 17c3 ccbd 72d9 92bd
000002d0: 6a44 783d e35d 8dbd 714a d83d fe8b 8ebd
000002e0: 4f69 033d 5e3a 14be cd91 ef3d c0d7 1bbd
000002f0: 2472 4ebd 02cb 5dbd 0d34 0a3e 74e3 e13d
00000300: 7afe bdbd 54ca f3bb 55bf 5dbd f8a6 1a3e
00000310: f285 333d 60a3 e7bd 8cd9 7bbc d00b dcbc
00000320: b9b3 eabc f365 2d3e 581e 103c f502 d83d
00000330: 74fd 743d 4e41 1fbe a73c 0fbe 91b9 2f3e
00000340: a465 663d 7248 ad3d 734d 88bd 31d1 bb3c
00000350: 92e4 8e3b 500d 123e 6315 37be 3d2f 243e
00000360: 581c 6bbd 0bfc 103d 7f78 fe3d ade0 473d
00000370: ab7e 103e 43cc a63d 1449 34be ec13 9dbd
00000380: c983 26be d11f ac3d b07a efbd 096d dc3d
00000390: e805 a0bd 0179 313d 3df3 bdbd 6f59 bc3d
000003a0: 8e71 cbbd 2866 61bd 9736 953d 3213 d2bd
000003b0: 83a0 8e3d 32ed 343e 862b f73d a7b5 1d3e
000003c0: 8b59 743d 8c51 0abc 8e60 633c 37a7 ccbd
000003d0: e291 d9bd eb5a aa3d 1776 d73c 34e3 f33c
000003e0: 06cc ce3d 30bd b43d 0cf8 803d 53c4 a3bc
000003f0: ac2d 88bd 1fca c93d 3b4c 92bd 32b6 373e

fc1.bias f4 [64]
0.043903142 -0.13720532 0.0022712173 0.025541715 -0.12755863 0.059205614 0.03764062 -0.11682155
0.015204581 -0.0389432 -0.13774867 0.1382964 0.05058722 0.11570807 -0.13396361 0.05768944
0.08016573 -0.07160979 0.14860173 -0.08700698 -0.10097425 -0.14195175 0.030607788 0.019068021
0.1617276 -0.060622547 0.0622772 -0.09988457 0.077789284 -0.05571324 -0.11063579 -0.091683894
-0.11081062 -0.06355349 0.056570586 0.14394441 0.08786208 0.13945718 -0.05589628 0.021222442
0.090198666 0.0909068 0.1082752 -0.06847635 -0.0416856 -0.02303588 0.072014555 0.0324518
0.03356541 -0.048899032 -0.028153725 0.007494702 -0.16058512 -0.12647198 0.074640654 0.035587728
-0.0792822 0.15029404 -0.012784539 0.17815857 0.029165462 -0.14430577 -0.17306611 0.0021929187
00000000: c8d3 333d 8d7f 0cbe b4d8 143b dc3c d13c
00000010: bb9e 02be 9681 723d 0d2d 1a3d 2340 efbd
00000020: a31c 793c e882 1fbd fd0d 0dbe 929d 0d3e
00000030: 8b34 4f3d 5af8 ec3d c22d 09be c34b 6c3d
00000040: ee2d a43d 27a8 92bd 0d2b 183e b730 b2bd
00000050: 96cb cebd cd5b 11be 2fbd fa3c 8a34 9c3c
00000060: ec9b 253e 594f 78bd 6116 7f3d 4890 ccbd
00000070: fd4f 9f3d 9133 64bd 0495 e2bd c4c4 bbbd
00000080: aef0 e2bd 5528 82bd 8fb6 673d 2a66 133e
00000090: 09f1 b33d ddcd 0e3e 7ff3 64bd b0da ad3c
000000a0: 14ba b83d 582d ba3d 63bf dd3d 543d 8cbd
000000b0: 85be 2abd beb5 bcbc 5e7c 933d 2eec 043d
000000c0: e27b 093d 5a4a 48bd a4a2 e6bc 1e96 f53b
000000d0: 6d70 24be df81 01be 33dd 983d 70c4 113d
000000e0: b55e a2bd aee6 193e 3e76 51bc 336f 363e
000000f0: 68ec ee3c e4c4 13be 3e38 31be 12b7 0f3b

fc2.weight f4 [32, 64]
-0.08418703 -0.07421465 -0.08289643 -0.069104895 -0.10837452 0.10848516 0.040909067 -0.0043018013
-0.0062842816 0.020144403 -0.013952002 -0.00378111 0.1100806 -0.097397745 0.08154842 -0.06384212
-0.08578685 0.01589109 -0.122158945 0.09144458 -0.0939977 0.001122266 -0.035896838 0.0035194457
-0.10286869 -0.03389822 -0.09701398 -0.10513206 -0.112011984 0.04526791 0.018292502 -0.119145006
-0.013006464 -0.03705308 -0.071753085 -0.07732877 0.06694332 -0.027680308 -0.014375925 -0.11928213
0.052216977 0.059226498 -0.0054358095 -0.012215257 0.118141025 0.052908108 -0.08601178 0.09307632
0.036706775 -0.06724958 0.0085308105 -0.02998729 0.036404133 -0.12457569 -0.08000557 0.0061077625
-0.0568168 -0.12211202 -0.0028346032 0.022051796 -0.06398654 -0.079307035 0.06666571 0.122886315
-0.08765063 0.051181868 0.10735421 0.053722918 0.1200355 -0.087923795 0.011198401 -0.08164865
-0.03757696 -0.10163571 0.10805385 0.10758899 0.09652802 -0.111794025 0.014599383 -0.10682441
-6.0856342e-05 0.08472827 0.112008885 -0.10350637 0.052950546 -0.09424412 0.009234965 -0.11241421
-0.03889875 0.02657044 -0.043904513 0.044449463 -0.06529978 -0.0029728413 -0.09812684 -0.05675222
-0.055510372 -0.020045146 -0.08053012 0.09952618 0.041578054 0.022292629 -0.08653127 0.05458349
-0.11464967 -0.026872009 -0.037991554 0.0059116036 -0.031132326 -0.11544281 -0.097230256 0.038701624
-0.060129076 0.097933784 -0.12444705 0.045712233 -0.06575872 0.10733475 0.11518562 0.009681895
-0.033765107 0.098405465 -0.091780454 -0.014233619 0.078908175 0.08425626 -0.06673077 0.0497521
0.050448492 0.089164674 -0.07482211 -0.068972856 -0.0032290667 -0.029924288 0.10866584 -0.078018025
0.084820926 -0.07814926 -0.018598557 0.085800216 0.090614006 -0.0764077 -0.11293332 -0.006200865
-0.03293477 0.0019172877 -0.10545421 -0.10164818 0.100654736 0.09058115 -0.045624793 0.0009509772
-0.07503477 -0.04632412 -0.010816351 0.085351065 -0.06350818 0.10365677 -0.015404388 0.03697239
0.00017033517 0.10679518 -0.09371632 -0.08206569 0.07903744 -0.05960664 0.01905939 0.108463705
-0.05390191 0.00021526217 0.107249245 -0.093261 -0.050213218 0.10656501 -0.04432538 -0.114170894
-0.08641441 0.032693222 -0.03231652 0.09235141 0.09563598 0.07459766 0.05868113 0.0057938844
0.045082256 0.07514122 0.031089962 -0.021183178 -0.09114042 0.025196075 -0.041128337 0.011240676
0.10546844 -0.07016991 -0.052659005 -0.061226532 0.07503201 0.120479986 0.02198854 -0.10603848
-0.09613624 0.05391124 0.011815712 0.025186718 -0.078541264 -0.03574109 0.06084375 0.037120685
0.040900677 0.1118613 0.044020995 -0.11627431 0.12408821 0.049856305 0.05230345 0.073587045
0.12426743 0.09291029 -0.102587804 -0.11635582 -0.023303673 -0.022194713 0.07451452 0.07990228
-0.06641078 0.008069679 -0.011993334 -0.036434606 0.116337895 -0.013522312 -0.087283 0.046656027
0.009489149 -0.007870406 -0.011662781 -0.122998744 0.06366211 -0.021755874 0.06995976 0.01451838
-0.11288768 -0.11831269 0.043019697 0.07134667 -0.017628625 -0.055692613 -0.00061251223 -0.09615882
-0.087360755 -0.081533045 -0.109791085 0.013149768 -0.10363282 0.072196305 0.06469965 -0.11338867
00000000: 406a acbd dafd 97bd 9ac5 a9bd de86 8dbd
00000010: 76f3 ddbd 782d de3d 4490 273d 20f6 8cbb
00000020: 60ec cdbb e005 a53c f096 64bc 80cc 77bb
00000030: f071 e13d 7878 c7bd dc02 a73d a8bf 82bd
00000040: 04b1 afbd 082e 823c 782e fabd 4c47 bb3d
00000050: de81 c0bd 0019 933a 9008 13bd 80a6 663b
00000060: d2ac d2bd dcd8 0abd 44af c6bd 7a4f d7bd
00000070: 8a66 e5bd d86a 393d 28da 953c 4c02 f4bd
00000080: 1019 55bc f8c4 17bd 48f3 92bd 8c5e 9ebd
00000090: 9419 893d d0c1 e2bc 0089 6bbc 304a f4bd
000000a0: 78e1 553d 7c97 723d e01e b2bb 8022 48bc
000000b0: ecf3 f13d 2cb6 583d f226 b0bd cc9e be3d
000000c0: d859 163d 26ba 89bd d0c4 0b3c e8a7 f5bc
000000d0: 801c 153d 8a21 ffbd f6d9 a3bd a023 c83b
000000e0: bcb8 68bd de15 fabd c0c4 39bb f8a5 b43c
000000f0: 600b 83bd ba6b a2bd 0888 883d d2ab fb3d
00000100: 2c82 b3bd 14a4 513d 86dc db3d 900c 5c3d
00000110: 2cd5 f53d 6411 b4bd 8079 373c 6837 a7bd
00000120: 4cea 19bd 6226 d0bd 564b dd3d 9e57 dc3d
00000130: 7cb0 c53d 44f4 e4bd 4032 6f3c c2c6 dabd
00000140: 0040 7fb8 0486 ad3d ea64 e53d 26fb d3bd
00000150: ace2 583d 1003 c1bd 404e 173c 6c39 e6bd
00000160: 4c54 1fbd 40aa d93c 38d5 33bd a410 363d
00000170: e4bb 85bd 00d4 42bb baf6 c8bd 0475 68bd
00000180: d85e 63bd b835 a4bc faec a4bd 62d4 cb3d
00000190: c04d 2a3d 089f b63c 4e37 b1bd f092 5f3d
000001a0: 72cd eabd b022 dcbc 089d 1bbd 20b6 c13b
000001b0: 3809 ffbc 486d ecbd a820 c7bd 9885 1e3d
000001c0: e849 76bd 8291 c83d 18de febd c03c 3b3d
000001d0: 82ac 86bd 52d2 db3d 70e6 eb3d d0a0 1e3c
000001e0: 484d 0abd ce88 c93d 64f7 bbbd 2034 69bc
000001f0: 9c9a a13d 8c8e ac3d 24aa 88bd dcc8 4b3d
00000200: 14a3 4e3d f89b b63d 563c 99bd a441 8dbd
00000210: c09e 53bb c823 f5bc 328c de3d eac7 9fbd
00000220: 98b6 ad3d b80c a0bd 005c 98bc 06b8 af3d
00000230: d693 b93d a47b 9cbd 9649 e7bd a030 cbbb
00000240: 9ce6 06bd 804d fb3a 60f8 d7bd ec2c d0bd
00000250: 1224 ce3d 9c82 b93d 10e1 3abd 004b 793a
00000260: d4ab 99bd 5cbe 3dbd 1037 31bc 8acc ae3d
00000270: 9410 82bd 004a d43d b062 7cbc 5c70 173d
00000280: 009c 3239 6eb7 da3d 58ee bfbd 0e12 a8bd
00000290: 62de a13d 1826 74bd 7022 9c3c 3822 de3d
000002a0: 40c8 5cbd 00b8 6139 7ea5 db3d a0ff bebd
000002b0: 60ac 4dbd c23e da3d 888e 35bd 6ed2 e9bd
000002c0: 0afa b0bd 54e9 053d 545e 04bd bc22 bd3d
000002d0: ccdc c33d a8c6 983d a05b 703d a0da bd3b
000002e0: 2ca8 383d a4e3 993d 60b0 fe3c 5888 adbc
000002f0: d4a7 babd 0068 ce3c 3076 28bd d02a 383c
00000300: d6ff d73d 3eb5 8fbd f8b0 57bd acc8 7abd
00000310: 62aa 993d 36be f63d 5021 b43c b42a d9bd
00000320: 14e3 c4bd 08d2 5c3d b096 413c 6054 ce3c
00000330: 3eda a0bd 4065 12bd 4c37 793d dc0b 183d
00000340: 7887 273d 8a17 e53d 5c4f 343d 3a21 eebd
00000350: f621 fe3d 2036 4c3d 243c 563d ceb4 963d
00000360: ec7f fe3d c047 be3d 8e19 d2bd f64b eebd
00000370: 58e7 bebc b0d1 b5bc 129b 983d cea3 a33d
00000380: 6002 88bd b036 043c b07f 44bc 743c 15bd
00000390: 9042 ee3d b08c 5dbc 6ec1 b2bd 641a 3f3d
000003a0: 6078 1b3c e0f2 00bc 4015 3fbc c4e6 fbbd
000003b0: 4861 823d 6039 b2bc 1047 8f3d 80de 6d3c
000003c0: a831 e7bd ec4d f2bd 6c35 303d 341e 923d
000003d0: e869 90bc f01d 64bd 0091 20ba eaee c4bd
000003e0: 32ea b2bd ccfa a6bd 26da e0bd 2072 573c
000003f0: 723d d4bd a8db 933d 4081 843d 5238 e8bd

fc2.bias f4 [32]
-0.08056806 -0.10797794 0.0869925 -0.015409738 0.1177863 0.048344016 0.06394811 0.016545847
-0.043535724 -0.0914686 -0.08533323 0.020483226 0.056505844 0.053118855 -0.109599724 -0.07271434
-0.00821203 -0.061661527 -0.019579932 0.020490408 0.06678869 -0.08509803 0.12225507 -0.036921248
0.092360824 -0.09534426 0.11144929 -0.041440696 -0.0014174134 -0.05760841 -0.11457981 -0.013834447
00000000: de00 a5bd 8a23 ddbd 2029 b23d 2079 7cbc
00000010: f239 f13d 6004 463d 3af7 823d 288b 873c
00000020: 8452 32bd e453 bbbd 30c3 aebd 70cc a73c
00000030: ac72 673d 2893 593d d275 e0bd 42eb 94bd
00000040: c08b 06bc cc90 7cbd 1866 a0bc 80db a73c
00000050: 82c8 883d e047 aebd de60 fa3d bc3a 17bd
00000060: ac27 bd3d da43 c3bd 863f e43d b8bd 29bd
00000070: 80c8 b9ba ccf6 6bbd d2a8 eabd e0a9 62bc

fc3.weight f4 [1, 32]
0.08941909 -0.14427386 0.16583638 0.11082615 0.04652165 0.02052855 0.17346902 0.04404
0.0942055 -0.003848808 -0.087448135 -0.15058203 0.025894243 0.018907012 -0.05969334 -0.09290809
0.0640194 -0.17081201 0.07157599 0.15456164 0.00031681787 -0.09295323 0.16628008 -0.08084286
-0.043775443 0.11050857 0.051518198 0.07112624 -0.010987409 -0.0086835995 0.13996783 0.10691208
00000000: 5b21 b73d 87bc 13be 03d1 293e d2f8 e23d
00000010: 7c8d 3e3d 7d2b a83c dda1 313e 4963 343d
00000020: d0ee c03d 483c 7cbb 0218 b3bd 2d32 1abe
00000030: 2a20 d43c e1e2 9a3c 0181 74bd 9946 bebd
00000040: 9a1c 833d 58e9 2ebe 6f96 923d 6845 1e3e
00000050: 931a a639 435e bebd 5345 2a3e f190 a5bd
00000060: e14d 33bd 5152 e23d bf04 533d a2aa 913d
00000070: 8904 34bc a845 0ebc ba53 0f3e b8f4 da3d
