unitree_4_ar.pt (torch, 19322 bytes, 5 tensors)

fc1.weight f4 [64, 31]
0	0x3c8b3389	0.016992347
1	0x3cef0720	0.029178202
2	0x3e05c805	0.13064583
3	0xbd24993f	-0.04018521
4	0x3d0db19b	0.034593206
5	0xbe26827c	-0.16260713
6	0xbe1b6dfd	-0.15178676
7	0x3dbefefc	0.09325978
8	0xbdb7c643	-0.08973362
9	0xbda79832	-0.08183326
10	0xbcc37a65	-0.023862073
11	0xbe033ed2	-0.12816933
12	0x3dab472b	0.083631836
13	0x3db28c42	0.08718158
14	0xbd8bc70c	-0.068250746
15	0xbd4aca4f	-0.049509343
16	0x3c523c14	0.012831707
17	0xbe08a9d7	-0.13346039
18	0xbe35d129	-0.1775557
19	0x3dfeef81	0.124480255
20	0x3dbcd2e2	0.0921991
21	0xbe2b04df	-0.16701077
22	0x3d15ec88	0.036602527
23	0x3e2a83da	0.1665186
24	0x3db01a89	0.08598811
25	0x3e197e9b	0.14989702
26	0xbe345ae5	-0.17612799
27	0xbd9fda48	-0.07805306
28	0xbdfe1b6d	-0.12407575
29	0xbd8e8a5b	-0.06959983
30	0x3b8d64c1	0.0043149893
31	0x3b4a4c1d	0.003086812
32	0x3d92690c	0.07148942
33	0xbc753e79	-0.014968508
34	0x3e200377	0.15626322
35	0x3d134a3a	0.03595946
36	0x3dbb2b68	0.091391385
37	0xbde7a75c	-0.11311218
38	0x3e0183e3	0.12647967
39	0xbe22a306	-0.15882501
40	0xbd9141f7	-0.0709266
41	0x3e369c67	0.178331
42	0x3db3c168	0.08777124
43	0x3de62629	0.11237747
44	0x3dfe2e68	0.12411195
45	0x3ddc12bd	0.107457615
46	0x3e2c844e	0.16847345
47	0x3d2722ad	0.040804554
48	0xbd3e0858	-0.046394676
49	0x3e0c08b0	0.13675189
50	0x3cd14120	0.02554375
51	0x3c3eb85b	0.011640633
52	0xbe1089c3	-0.14115052
53	0x3cc28cb0	0.023748726
54	0xbd268319	-0.04065237
55	0xbd5ee969	-0.054421816
56	0x3d2f9b69	0.04287282
57	0x3e28c51d	0.16481443
58	0xbc9bff54	-0.019042648
59	0x3de854a5	0.1134427
60	0x3b2e3cfa	0.0026586638
61	0xbdb59f19	-0.08868236
62	0x3d425f22	0.047454007
63	0xbdcdb3b1	-0.10044039
64	0xbe2b1815	-0.16708405
65	0x3dc35ec7	0.09539562
66	0xbd5baf56	-0.05363401
67	0x3cce2f37	0.025168998
68	0xbdda6d5d	-0.10665391
69	0x3d5e5fa7	0.05429044
70	0x3e09bf3f	0.13451861
71	0x3dd8675b	0.105665885
72	0xbde567d3	-0.112014435
73	0x3e11929e	0.14216086
74	0xbe11df0d	-0.14245243
75	0x3d2f87d5	0.04285415
76	0xbe0e7e37	-0.13915335
77	0x3d571bf9	0.05251691
78	0xbd90bb1d	-0.07066939
79	0xbde1d0bb	-0.1102614
80	0x3daa1239	0.08304257
81	0xbe2807af	-0.16409181
82	0x3c275775	0.0102137225
83	0x3d9c69ed	0.07637391
84	0xbc703920	-0.014662057
85	0x3e0cf763	0.13766246
86	0x3cfc25ec	0.030779801
87	0xbd42a7c3	-0.04752327
88	0xbd850e2b	-0.06496843
89	0xbe163c2b	-0.1467139
90	0xbc84ca2a	-0.01620968
91	0x3dd168dc	0.102250785
92	0x3d17b664	0.037039176
93	0xbdbb5732	-0.091474906
94	0xbdd34eee	-0.10317789
95	0xbd28cf5f	-0.04121339
96	0xbd9fdae1	-0.0780542
97	0x3d25dcfc	0.04049395
98	0x3dbe4ee8	0.09292394
99	0x3deb1700	0.11478996
100	0x3e21f3da	0.15815678
101	0xbde82c61	-0.113365896
102	0x3db8fc35	0.0903248
103	0x3ccbed78	0.024893507
104	0xbd8c8080	-0.06860447
105	0x3ddf95dd	0.10917256
106	0x3dfb880f	0.122818105
107	0x3e01e880	0.12686348
108	0xbd606eb4	-0.054793075
109	0xbdce48b5	-0.100724615
110	0xbdaa5731	-0.08317412
111	0xbde9a551	-0.11408485
112	0xbde6579c	-0.11247179
113	0x3d9af096	0.075654194
114	0x3dbfdb5c	0.09368011
115	0x3e33cd4f	0.17558788
116	0x3dbd3286	0.09238152
117	0x3da4cc35	0.08046762
118	0xbc84069f	-0.016116438
119	0xbdab6ec5	-0.08370737
120	0x3e32a8ad	0.17447157
121	0xbd5cefb5	-0.05393954
122	0xbc9a22a8	-0.018815354
123	0x3e197cf4	0.14989072
124	0xbb9b9266	-0.0047476767
125	0x3dea4c7c	0.114403695
126	0x3a663138	0.0008781138
127	0xbc874b95	-0.016515533
128	0x3e0a70cd	0.13519593
129	0x3deb932f	0.115026824
130	0xbe1ca726	-0.15298137
131	0x3bf45edd	0.0074575976
132	0x3dc5ce33	0.0965847
133	0xbd0a92e6	-0.0338315
134	0x3e129b2b	0.14317004
135	0x3d80c9b0	0.06288469
136	0xbde0c375	-0.109747805
137	0xbc919e79	-0.017775761
138	0xbd33dbee	-0.043910913
139	0x3dfeb8a6	0.12437563
140	0x3dc01258	0.09378499
141	0xbe163c2d	-0.14671393
142	0x3e03f321	0.12885715
143	0x3e0c952f	0.13728784
144	0xbe0b4d54	-0.13603717
145	0xbdc46fe4	-0.09591654
146	0x3cb999f4	0.022656418
147	0x3d87858a	0.066172674
148	0xbe19befb	-0.1501426
149	0x3d0ac4b2	0.03387899
150	0x3e0f7305	0.1400872
151	0x3df78b3b	0.12087103
152	0x3d8d8b93	0.06911387
153	0x3e059437	0.1304482
154	0xbd2392c6	-0.039934896
155	0x3bf4a0f5	0.0074654766
156	0xbc8df2f5	-0.017327765
157	0x3e194c44	0.149705
158	0xbe33a01e	-0.17541549
159	0xbafd0fa2	-0.0019307027
160	0x3c4e5fe3	0.012596103
161	0xbe336e09	-0.17522444
162	0xbd2d0ed6	-0.042250477
163	0x3d8645a3	0.06556251
164	0xbe1389d0	-0.1440804
165	0x3e28258a	0.1642057
166	0x3dfd7750	0.12376273
167	0xbd90e142	-0.070742145
168	0x3d9b8068	0.07592851
169	0x3bca3bf3	0.0061716973
170	0xbdf07a81	-0.11742116
171	0x3d32658b	0.04355387
172	0xbe310196	-0.17285761
173	0xbc2fde8f	-0.010734214
174	0xbe1aa428	-0.15101683
175	0xbe1f7f47	-0.15575896
176	0x3e1d44c2	0.1535826
177	0xbdcfd4c5	-0.101480044
178	0x3da842fa	0.082159
179	0xbab233bf	-0.0013595744
180	0x3d8692cd	0.06570969
181	0xbd44e6e7	-0.048071768
182	0x3c8588af	0.016300527
183	0xbdcac436	-0.099007055
184	0x3dadbe27	0.08483534
185	0xbd6d3eb4	-0.057921126
186	0x3e099a10	0.13437676
187	0xbdeeae6f	-0.11654364
188	0x3ddf26d3	0.10896077
189	0xbe0eec93	-0.13957433
190	0x3e00cc5b	0.12577955
191	0x3d6b717a	0.057481267
192	0xbc86ba6a	-0.016446311
193	0xbda97fef	-0.082763545
194	0x3ded6864	0.115921766
195	0xbe0244b5	-0.12721522
196	0x3dae4796	0.08509748
197	0xbde41625	-0.11137036
198	0x3def2834	0.1167759
199	0x3d462afa	0.04838083
200	0xbd44cea8	-0.048048645
201	0xbe33d431	-0.17561413
202	0xbd1e0d65	-0.038586993
203	0xbdc9a8ba	-0.09846635
204	0x3e04b926	0.12961254
205	0xbe147823	-0.14498954
206	0x3a500ce0	0.0007936489
207	0xbd91b895	-0.07115284
208	0xbc4cdf16	-0.01250436
209	0xbd2d4b46	-0.042308114
210	0xbc73657b	-0.014855738
211	0x3be837bd	0.0070867226
212	0x3e365b3c	0.1780824
213	0xbcc5d280	-0.024148226
214	0x3bb6a10f	0.005573399
215	0x3d84b6b1	0.06480158
216	0x3caebe79	0.021331059
217	0x3de4e78b	0.11176976
218	0x3e1b3358	0.15156305
219	0x3d08d38c	0.03340487
220	0x3bb9299d	0.0056507126
221	0x3d63db22	0.055628903
222	0xbda18992	-0.078875676
223	0x3dcffee6	0.1015604
224	0x3d2e588c	0.042564914
225	0xbc35e37c	-0.0111016
226	0xbdb1faa2	-0.086903825
227	0xbd6ad868	-0.057335287
228	0x3d871604	0.06595996
229	0xbdcc0e28	-0.099636376
230	0x3db4d45f	0.08829569
231	0xbe077e81	-0.13231851
232	0xbe1736da	-0.14767018
233	0xbe31852d	-0.17335959
234	0xbe32be2b	-0.17455356
235	0xbd88027f	-0.06641101
236	0x3e176611	0.14785029
237	0x3e149b8d	0.14512463
238	0xbe0898da	-0.13339558
239	0xbe0b9927	-0.13632642
240	0xbceb3594	-0.028712071
241	0x3db6f6a1	0.089337595
242	0x3dd4ecc9	0.10396726
243	0x3d330592	0.043706484
244	0xbe2c4713	-0.16823988
245	0xbe160b3e	-0.14652726
246	0x3cbf7730	0.023372263
247	0xbca4a057	-0.020095987
248	0xbba47126	-0.005018371
249	0xbc48bfb9	-0.0122527415
250	0xbe3234fd	-0.17403026
251	0xbd5f5b1f	-0.05453026
252	0x3da28b4e	0.079367265
253	0x3e0d2a08	0.13785565
254	0x3db6d53e	0.089273915
255	0xbb76d7f9	-0.003766535

fc1.bias f4 [64]
0	0x3c9c6c9f	0.019094763
1	0x3dce170c	0.100629896
2	0x3d060fed	0.03273003
3	0x3dfab39f	0.12241291
4	0x3e32c21e	0.17456862
5	0xbc872218	-0.01649575
6	0x3e2832f9	0.16425695
7	0x3d001172	0.031266637
8	0x3ddfd91b	0.109300815
9	0x3dca1ec3	0.098691486
10	0xbe21e808	-0.15811169
11	0x3db4f930	0.08836591
12	0x3d25c61b	0.04047213
13	0xbe160364	-0.14649731
14	0x3e317fa3	0.17333846
15	0xbe10e879	-0.14151181
16	0xbd5a4056	-0.05328401
17	0x3d9b6b3c	0.07588813
18	0x3ccd1f34	0.025039293
19	0xbe1881f6	-0.14893326
20	0xbd9cde9d	-0.076596476
21	0xbca44091	-0.020050319
22	0x3d3fa9c4	0.04679276
23	0x3cf64fa7	0.030067278
24	0x3d7056df	0.058676597
25	0xbe176c10	-0.14787316
26	0xbe13616e	-0.14392635
27	0xbe24f125	-0.16107614
28	0xbdc0a25d	-0.09405968
29	0xbdcb4ed0	-0.09927142
30	0x3e191654	0.14949924
31	0x3e22237a	0.15833846
32	0xbdb39c99	-0.08770103
33	0x3c94c121	0.018158497
34	0x3d73b4e4	0.059498683
35	0xbe0a15c5	-0.13484867
36	0xbde9a6ac	-0.11408743
37	0x3df5c91e	0.12001251
38	0x3d0c5af0	0.034266412
39	0xbcb9fc6c	-0.022703372
40	0xbe27578f	-0.16341995
41	0xbd7c8340	-0.061648607
42	0xbdc15424	-0.09439877
43	0x3e2cf0be	0.16888711
44	0xbdccb132	-0.09994735
45	0xbd7c7e72	-0.061644025
46	0xbc2c43ed	-0.010514242
47	0xbd620230	-0.055177867
48	0xbda67acd	-0.08128891
49	0xbdd84586	-0.105601355
50	0xbe373264	-0.17890316
51	0x3e068bdc	0.1313929
52	0x3db480ac	0.08813605
53	0xbe2b38c9	-0.1672088
54	0xbd2b4b77	-0.041820016
55	0x3e028339	0.1274537
56	0x3d443507	0.047902133
57	0x3d89be4d	0.0672575
58	0x3dc1c761	0.09461857
59	0xbce573c8	-0.02800931
60	0x3cc80bc2	0.024419669
61	0x3cefedf6	0.029288273
62	0xbcf0cf97	-0.029395862
63	0xbd504d77	-0.050855126

fc2.weight f4 [32, 64]
0	0x3dfa9dea	0.12237151
1	0x3dcc0114	0.09961143
2	0xbd841434	-0.06449166
3	0x3d2907bc	0.04126714
4	0xbd459800	-0.04824066
5	0x3c2f51d0	0.010700658
6	0x3cb20768	0.021732047
7	0x3de86c6a	0.11348803
8	0x3c13f140	0.009029686
9	0xbdc0dc12	-0.09416975
10	0x3d3e40ac	0.046448395
11	0x3d66c3d0	0.056339085
12	0xbd75aab0	-0.059977233
13	0x3c6b1180	0.014347434
14	0xbce2b468	-0.027673915
15	0xbd4eac38	-0.05045721
16	0x3cde2a50	0.027119786
17	0x3deb95f6	0.11503212
18	0xbdda9440	-0.10672808
19	0x3dea5f16	0.114439175
20	0x3d706eec	0.058699533
21	0xbddee772	-0.108839884
22	0xbd5197c4	-0.051170126
23	0x3ddc3018	0.10751361
24	0x3daef08c	0.085419744
25	0xbd68f5ec	-0.056875154
26	0xbc6e3700	-0.01453948
27	0x3b51d2c0	0.0032016486
28	0x3db34784	0.08753875
29	0xbdf4289a	-0.11921807
30	0x3da34410	0.07971966
31	0xbdaaab5c	-0.083334655
32	0xbdb14270	-0.0865525
33	0xbde8c0be	-0.11364888
34	0x3d8d0cae	0.06887184
35	0xbdaf6c4a	-0.085655764
36	0xbb332d00	-0.0027340055
37	0xbcbe4720	-0.023227274
38	0x3d41d2dc	0.04732023
39	0xbdce1826	-0.100632
40	0x3dcdc046	0.10046439
41	0x3d46013c	0.04834102
42	0x3da1d652	0.079022065
43	0xbdd264b0	-0.10273111
44	0xbd7bb04c	-0.061447427
45	0xbd30e510	-0.0431872
46	0xbca4d2d8	-0.02012007
47	0x3d26bc38	0.040706843
48	0xbdcc803c	-0.09985396
49	0x3d85625a	0.065129
50	0xbd16fac4	-0.036860242
51	0x3c86f290	0.016473085
52	0xbd1c2ae8	-0.038126856
53	0x3de6dba0	0.11272359
54	0xbd8d141e	-0.06888603
55	0xbda4a342	-0.080389515
56	0xbc84e400	-0.016222
57	0x3b3e1e40	0.002900973
58	0xbdca6282	-0.0988207
59	0xbd3aabd0	-0.04557401
60	0xbbb83060	-0.005621001
61	0x3d8e5a5e	0.0695083
62	0xbca2e6c0	-0.01988542
63	0xbd25ef08	-0.04051116
64	0xbdbeaf92	-0.09310831
65	0x3cfc9988	0.030834928
66	0x3d00e0f0	0.031464517
67	0xbd4460b0	-0.04794377
68	0x3de47b4c	0.111563295
69	0xbd518b84	-0.051158443
70	0xbdd6e6e2	-0.10493256
71	0x3d278230	0.04089564
72	0x3d0bd058	0.03413424
73	0x3df708da	0.12062235
74	0xbd5d3208	-0.05400279
75	0xbdd31224	-0.103061944
76	0xbdcce238	-0.10004085
77	0xbc9b3318	-0.018945262
78	0x3d153288	0.036425143
79	0x3d8b6124	0.068056375
80	0xbde41084	-0.111359626
81	0x3de6eab8	0.11275238
82	0xbd79e2c4	-0.061007276
83	0xbc73b920	-0.01487568
84	0x3d8fd414	0.070228726
85	0xbdd0055c	-0.10157272
86	0x3d0f0448	0.034916192
87	0x3dd2f262	0.10300137
88	0xbdd848cc	-0.1056076
89	0xbda602a6	-0.08105974
90	0xbdc3a484	-0.09552863
91	0xbcf5eae0	-0.030019224
92	0xbd7457b8	-0.059653968
93	0x3c816ea8	0.015799835
94	0x3b9f6040	0.004863769
95	0x3dc9d824	0.09855679
96	0x3d95ab56	0.0730807
97	0xbdcc2d9e	-0.09969638
98	0x3dadbe08	0.08483511
99	0x3df6e4a8	0.120553315
100	0x3d352bcc	0.04423122
101	0x3d8e3d10	0.069452405
102	0xbd956092	-0.0729381
103	0x3cc4d0e0	0.02402538
104	0xbded3970	-0.11583221
105	0xb9a9be00	-0.00032375753
106	0x3a5e0300	0.0008469075
107	0xbd4b7b68	-0.049678236
108	0x3d3dd024	0.046341076
109	0x3d1e80f0	0.038697183
110	0xbd55f520	-0.052235723
111	0x3d5a210c	0.053254172
112	0xbde4e642	-0.11176731
113	0x3dd58bdc	0.10427067
114	0x3c74b510	0.014935747
115	0x3c964390	0.018342763
116	0xbd7077e0	-0.05870807
117	0x3d84dcfa	0.064874604
118	0xbc8e6f58	-0.017387077
119	0xbd62b4d8	-0.055348247
120	0x3d5e2d5c	0.054242477
121	0xbde9f406	-0.11423497
122	0xbce06ed8	-0.027396604
123	0x3c244b00	0.010027647
124	0x3dfb9568	0.12284356
125	0xbbf7ede0	-0.0075661987
126	0x3adce580	0.0016853064
127	0xbc4b9930	-0.012426659
128	0xbd3f8070	-0.046753347
129	0x3de110fe	0.10989569
130	0xbb98c160	-0.004661724
131	0x3df248ec	0.11830315
132	0xbd4e13f4	-0.050311998
133	0xbd23641c	-0.039890394
134	0x3c5ad760	0.013357013
135	0x3df8db68	0.121512234
136	0x3d85a9b8	0.06526512
137	0x3cb8dd58	0.022566482
138	0xbd57e9a8	-0.052713066
139	0x3c8f7318	0.017510936
140	0x3da268ec	0.079301685
141	0xbd42757c	-0.047475323
142	0x3d5d4f98	0.054030985
143	0x3c2497e0	0.010045975
144	0xbdd25dce	-0.10271798
145	0x3d49690c	0.049172446
146	0xbd09fe78	-0.033689946
147	0xbd9c37c2	-0.076278225
148	0xbdeb426c	-0.11487278
149	0x3d7ae0e8	0.061249644
150	0xbd2b97fc	-0.04189299
151	0x3dab1f08	0.08355528
152	0xbde28ca8	-0.11061984
153	0xbddf8746	-0.10914473
154	0x3cc8bce0	0.024504125
155	0xbd7707ac	-0.06031005
156	0x3de6f466	0.11277084
157	0x3dbc7ca8	0.09203464
158	0xbdab481a	-0.08363362
159	0x3dee866a	0.11646731
160	0x3c4dcd90	0.012561217
161	0xbc4b4930	-0.012407586
162	0x3c114fb0	0.008869097
163	0x3c01f9c0	0.00793308
164	0xbd619ec8	-0.055083066
165	0xbdc6ee28	-0.097133934
166	0xbd9ca2f2	-0.07648267
167	0x3dc30608	0.09522635
168	0x3c863e08	0.016387
169	0xbd6e10d8	-0.058121532
170	0x3c97be48	0.01852335
171	0xbd749120	-0.059708714
172	0x3d89357e	0.06699656
173	0xbd922bfe	-0.07137297
174	0x3dbc05a4	0.09180763
175	0xbce64308	-0.028108135
176	0xbd8dea8a	-0.069295004
177	0x3d05b314	0.032641485
178	0x3dabb43e	0.08383988
179	0x3d99b752	0.07505669
180	0xbd7b496c	-0.061349317
181	0xbd757734	-0.059928134
182	0x3dc0df2a	0.09417565
183	0x3d4ab99c	0.049493417
184	0xbdfc25c0	-0.12311888
185	0x3dcec4de	0.10096143
186	0x3dc07d34	0.093988806
187	0x3d271bbc	0.040797934
188	0xbdedee5a	-0.116177276
189	0xbd4c279c	-0.049842462
190	0xbc7bb770	-0.015363559
191	0xbd754a60	-0.059885383
192	0x3d21ed2c	0.039532825
193	0x3df9c054	0.12194887
194	0x3db4a8a4	0.08821228
195	0x3c9f7e38	0.019469365
196	0x3df90da0	0.12160802
197	0xbdc0ecde	-0.09420179
198	0x3c7ed770	0.015554294
199	0xbdacb2de	-0.08432554
200	0x3d3c8924	0.046029225
201	0xbd9b3098	-0.07577628
202	0x3c23e2e0	0.010002822
203	0xbddcf454	-0.107887894
204	0x3dd0019a	0.101565555
205	0x3dfbb796	0.122908756
206	0x3ddc81cc	0.10766944
207	0x3de7ce4c	0.11318645
208	0x3c1c56e0	0.009542197
209	0x3d2781f8	0.040895432
210	0xbdf59422	-0.11991145
211	0xbd4e9010	-0.050430357
212	0xbcb1e198	-0.021714017
213	0xbd1b533c	-0.037921175
214	0xbd827f20	-0.063719034
215	0x3d4b6590	0.049657404
216	0x3d0eeb2c	0.034892246
217	0x3c78fff0	0.015197739
218	0xbbce6540	-0.006298691
219	0xbddb0ba2	-0.10695578
220	0xbd691ab4	-0.05691023
221	0x3dcd9ffc	0.1004028
222	0x3bff73a0	0.007795766
223	0xbd6b4318	-0.057437032
224	0xbdc3d9de	-0.09563039
225	0xbc3a57a0	-0.0113734305
226	0x3df4451a	0.119272426
227	0x3d2ee644	0.042700067
228	0xbd626044	-0.055267587
229	0xbd926496	-0.071480915
230	0x3dd50964	0.10402182
231	0x3de36c36	0.11104624
232	0x3bf20ea0	0.0073869973
233	0x3b69d500	0.0035679936
234	0x3c9e3028	0.019310072
235	0xbd0ebbd0	-0.03484708
236	0x3d008a7c	0.03138207
237	0xbd25bdf8	-0.04046437
238	0x3d2dc068	0.04241982
239	0x3d88c0f2	0.066774264
240	0xbd454464	-0.048160926
241	0xbde03784	-0.10948089
242	0xbb8bd940	-0.0042678416
243	0x3c8be798	0.017078206
244	0x3dc2e23e	0.095158085
245	0xbdbe0958	-0.09279126
246	0x3b926e40	0.004468709
247	0xbd5d2e74	-0.05399938
248	0xbdeecc52	-0.11660065
249	0x3d94aa7a	0.07259078
250	0xbd5639c4	-0.052301183
251	0x3defa674	0.1170167
252	0xbdb85d28	-0.09002143
253	0xbc8f4918	-0.017490909
254	0xbdbf5ab2	-0.09343471
255	0xbdd3a7b4	-0.10334721

fc2.bias f4 [32]
0	0x3d04ba68	0.032404333
1	0xbddfe488	-0.10932261
2	0x3c2d2df0	0.010570034
3	0x3dbff398	0.09372634
4	0x3dc210b0	0.09475839
5	0x3d4b3a48	0.04961613
6	0x3abb2800	0.0014278889
7	0xbdb5e142	-0.08880855
8	0xbd170e6c	-0.03687899
9	0xbdfdebc8	-0.12398487
10	0xbc008f60	-0.007846683
11	0xbdc92756	-0.09821956
12	0xbdfee3da	-0.12445803
13	0xbca33788	-0.01992394
14	0x3dfdade8	0.123866856
15	0xbdc7e77e	-0.097609505
16	0xbdce0654	-0.10059801
17	0xbc823f98	-0.015899464
18	0x3c839ac8	0.016065016
19	0xbdcf915a	-0.101351455
20	0xbd20ce98	-0.039259523
21	0xbdf64850	-0.12025511
22	0xba739e00	-0.0009293258
23	0x3dbc9e6e	0.092099056
24	0xba226900	-0.0006195456
25	0x3c306950	0.010767296
26	0xbb36a340	-0.00278683
27	0x3d94bd22	0.07262637
28	0xbd5c4384	-0.053775325
29	0x3cad2688	0.021136537
30	0x3c8276e0	0.015925825
31	0x3c8d7ef8	0.017272457

fc3.weight f4 [1, 32]
0	0x3d05ace5	0.03263559
1	0xbd558a34	-0.052133754
2	0xbde69b5a	-0.112601
3	0xbe30a951	-0.17252089
4	0xbdd123a9	-0.1021188
5	0x3cfaeb9d	0.030629927
6	0x3d4e88e4	0.050423518
7	0x3d4b17e7	0.049583342
8	0x3deb9e65	0.11504821
9	0x3c59370e	0.013257755
10	0x3e161bae	0.14658996
11	0x3db0aeae	0.086270675
12	0x3daee7ef	0.085403316
13	0x3bfacfc5	0.0076541626
14	0xbdd7e111	-0.10540975
15	0x3ded18e3	0.115770124
16	0x3bd62849	0.006535564
17	0xbd6d74e3	-0.0579728
18	0x3cc49a0c	0.023999237
19	0xbd99b1ff	-0.07504653
20	0xbe08825b	-0.13330977
21	0x3d901407	0.0703507
22	0xbd1b24b5	-0.037876803
23	0xbc84d343	-0.016214019
24	0xbe082e4c	-0.13298911
25	0xbcfb3466	-0.030664634
26	0xbba6eeb4	-0.0050943736
27	0x3d2416b7	0.040060725
28	0xbe0df9cc	-0.13864821
29	0xbcc91eeb	-0.024550876
30	0x3cf89265	0.030343244
31	0x3d25dfba	0.040496565
