unitree_7_sa.pt (torch, 85182 bytes, 10 tensors)

0.weight f4 [64, 19]
-0.18620126 -0.18158197 -0.030119298 -0.22339854 -0.009866076 0.22331056 0.15083826 0.18142433
-0.19605151 -0.21144581 0.01744292 -0.049373098 -0.10290467 0.10804736 0.14344926 -0.14156678
0.124342516 0.1222139 0.15261908 0.17168748 -0.013362443 0.22812256 0.21324232 -0.15290694
0.0112314485 -0.11503695 -0.12997174 -0.15443343 -0.21536985 0.001674958 -0.18054685 0.13374971
0.015308452 0.21626078 0.1315723 0.057308752 0.004560169 0.19115683 -0.04386276 0.20323943
0.12438452 -0.027384285 -0.019901138 -0.15441568 0.052652728 0.06801675 -0.06685143 -0.0034889283
0.10813813 0.20323527 0.01615899 -0.069099426 0.08811244 0.00025707576 0.009058229 0.17914607
-0.008953156 -0.21800843 0.15485741 -0.22820014 0.12383953 -0.0028551272 0.15325205 0.043299325
0.03131853 0.18474904 0.07723546 -0.14642103 0.12667218 0.08199609 0.09085257 0.13376626
-0.10061921 0.17889309 -0.18022606 0.042057324 0.16563854 0.19379058 -0.14627135 0.20869534
-0.0460237 0.035819516 0.22844614 -0.062367264 0.015549966 -0.17863531 -0.11481436 -0.21137571
0.11977808 0.038402773 0.08252794 -0.20647289 0.044529736 0.13421234 -0.014909793 -0.22552828
-0.015629768 -0.06474661 -0.013003303 -0.1283649 -0.09707523 0.19162445 -0.19589926 0.09941295
0.17994538 0.025649242 -0.19365774 -0.21570389 -0.03866127 -0.06242757 0.027641553 -0.10466911
-0.21691181 -0.12654842 -0.12765513 0.09343652 0.22236381 0.22035895 0.1900987 -0.08396436
-0.025190225 -0.21990001 0.17762484 0.22740641 -0.18508472 -0.22284813 0.13588326 0.12927055
0.10696185 -0.15547943 0.011507368 -0.06930713 -0.19052239 0.20285447 -0.09942342 -0.22531945
0.089706756 0.034043312 0.04851542 -0.13445535 0.19862959 -0.04987207 -0.11902668 0.16316736
-0.20635505 0.06092138 -0.11620976 -0.03255331 -0.115527965 0.076708645 0.06724183 -0.15806851
0.011158346 -0.15976477 -0.0841654 0.19149758 0.0021932393 0.21637759 -0.0345791 -0.023456905
0.22231926 0.15495187 -0.03100621 -0.14007853 -0.22689682 0.21669532 -0.1800934 -0.015243991
0.022174098 0.04719613 -0.092571124 -0.11140231 -0.09963579 -0.12971798 0.1278445 -0.13699396
0.17748068 -0.019133603 0.019170523 0.038507354 -0.06263446 0.012178746 -0.12543026 -0.064914614
-0.082094 0.1277785 -0.11032199 0.07854775 -0.089774415 -0.21948183 0.11479516 0.13512893
0.13204582 0.19038334 0.04607922 0.17417048 0.015632313 0.19063552 -0.021466894 -0.18964651
-0.0943654 0.05409971 -0.1656918 0.09203851 -0.0063876216 -0.19307362 -0.029385565 0.18638243
-0.13861187 -0.19947611 -0.021059865 -0.07509509 -0.103540875 -0.13302356 -0.11352663 -0.053520467
0.22478189 -0.0051048137 0.037596676 -0.22003572 -0.1940784 0.063407436 -0.002466642 -0.07628904
-0.03466355 -0.043064404 -0.07072693 0.195771 0.06295564 0.06644394 -0.050000418 -0.0864143
-0.121102266 -0.19374685 -0.21998069 -0.099608354 0.0705362 0.16682945 -0.08178026 -0.108629115
-0.1642609 -0.21821691 -0.18885201 -0.16268466 -0.18876155 0.05479882 0.14122058 -0.19396801
-0.055291146 0.19782405 -0.16868415 0.069181494 0.06351744 0.19568221 -0.16708864 0.15191239
00000000: 8bab 3ebe a0f0 39be bfbc f6bc 96c2 64be
00000010: 52a5 21bc 86ab 643e 5875 1a3e 4dc7 393e
00000020: bac1 48be 4085 58be 74e4 8e3c 723b 4abd
00000030: afbf d2bd ef47 dd3d 5de4 123e e2f6 10be
00000040: 4aa7 fe3d 484b fa3d 2d48 1c3e d8ce 2f3e
00000050: 26ee 5abc f698 693e 325c 5a3e a393 1cbe
00000060: 1c04 383c 7e98 ebbd 5017 05be cc23 1ebe
00000070: ea89 5cbe 448a db3a 46e1 38be aff5 083e
00000080: 4dd0 7a3c 7773 5d3e e4ba 063e 95bc 6a3d
00000090: 786d 953b 9ebe 433e 70a9 33bd ff1d 503e
000000a0: 50bd fe3d 0255 e0bc b607 a3bc 251f 1ebe
000000b0: 63aa 573d 5e4c 8b3d 67e9 88bd 81a6 64bb
000000c0: 8677 dd3d e81c 503e dc5f 843c 0084 8dbd
000000d0: 4c74 b43d 20c8 8639 f768 143c 1172 373e
000000e0: 42b0 12bc 9a3d 5fbe f192 1e3e 4cad 69be
000000f0: 949f fd3d 161d 3bbb 1bee 1c3e a25a 313d
00000100: dc47 003d da2e 3d3e a02d 9e3d 65ef 15be
00000110: 5ab6 013e 91ed a73d ea10 ba3d 06fa 083e
00000120: 7211 cebd c02f 373e 2e8d 38be 4d44 2c3d
00000130: 269d 293e 0a71 463e 28c8 15be 3bb4 553e
00000140: 5983 3cbd 7cb7 123d c9ed 693e d174 7fbd
00000150: 49c5 7e3c 2dec 36be cb23 ebbd e072 58be
00000160: 364e f53d 3a4c 1d3d 6904 a93d a16d 53be
00000170: d064 363d f66e 093e 3448 74bc e3f0 66be
00000180: 000a 80bc df99 84bd ce0b 55bc 1772 03be
00000190: 61cf c6bd 3339 443e d199 48be 0499 cb3d
000001a0: 9a43 383e 5c1e d23c 374e 46be 7be1 5cbe
000001b0: 485b 1ebd 0db4 7fbd 8a70 e23c c25c d6bd
000001c0: 211e 5ebe e995 01be 07b8 02be a55b bf3d
000001d0: 57b3 633e c7a5 613e 3ca9 423e 82f5 abbd
000001e0: bb5b cebc 782d 61be 49e3 353e 3add 683e
000001f0: d986 3dbe 4d32 64be fb24 0b3e 805f 043e
00000200: d00e db3d 0036 1fbe 6689 3c3c e6f0 8dbd
00000210: 4d18 43be 15b9 4f3e 829e cbbd 24ba 66be
00000220: 2db8 b73d 0071 0b3d 1bb8 463d aaae 09be
00000230: 8e65 4b3e a846 4cbd 43c4 f3bd 5815 273e
00000240: bd4e 53be b288 793d 62ff edbd 9f56 05bd
00000250: ed99 ecbd 6c19 9d3d 16b6 893d b6dc 21be
00000260: 7fd1 363c 6099 23be e95e acbd f117 443e
00000270: 73bc 0f3b 1692 5d3e d0a2 0dbd b228 c0bc
00000280: a9a7 633e b4ab 1e3e bc00 febc bf70 0fbe
00000290: a457 68be 61e5 5d3e 676a 38be efc1 79bc
000002a0: 74a6 b53c bb50 413d ee95 bdbd e526 e4bd
000002b0: d90d ccbd cad4 04be abe9 023e 2548 0cbe
000002c0: 7fbd 353e 13be 9cbc 800b 9d3c e3b9 1d3d
000002d0: 7f46 80bd 5d89 473c ca70 00be f4f1 84bd
000002e0: e620 a8bd 5ed8 023e 7ff0 e1bd a5dd a03d
000002f0: a6db b7bd d8bf 60be ba19 eb3d 3d5f 0a3e
00000300: 0537 073e daf3 423e 90bd 3c3d bf59 323e
00000310: 560f 803c f535 433e 57db afbc b232 42be
00000320: a642 c1bd a897 5d3d 1cab 29be b07e bc3d
00000330: 414f d1bb 17b5 45be ffb9 f0bc 09db 3e3e
00000340: 45f0 0dbe 7743 4cbe bd85 acbc 74cb 99bd
00000350: 3d0d d4bd 5437 08be a680 e8bd 4738 5bbd
00000360: 392d 663e 4846 a7bb f9fe 193d 0b51 61be
00000370: 7dbc 46be c2db 813d 63a7 21bb 6e3d 9cbd
00000380: 5efb 0dbd 4d64 30bd 48d9 90bd 3178 483e
00000390: e3ee 803d c313 883d 3dcd 4cbd fbf9 b0bd
000003a0: 7704 f8bd 9365 46be 9e42 61be 77ff cbbd
000003b0: 4975 903d 57d5 2a3e 697c a7bd f178 debd
000003c0: 0234 28be 4174 5fbe 6c62 41be cf96 26be
000003d0: b54a 41be ba74 603d 219c 103e 8d9f 46be
000003e0: f878 62bd 6392 4a3e 8abb 2cbe 07af 8d3d
000003f0: 6e15 823d eb60 483e 4919 2bbe ec8e 1b3e

0.bias f4 [64]
0.059367247 -0.06693249 -0.006628152 0.11663194 0.009478028 -0.12119698 0.08642789 0.060061324
0.08568748 0.065432705 -0.0012992172 0.07201264 0.1297535 -0.12081785 0.17926241 -0.038818303
0.15629184 -0.04350772 -0.06425016 0.034024224 -0.113552995 -0.117962584 -0.20939492 -0.1492358
0.20333542 -0.15911055 0.11944662 0.10585401 -0.22244331 -0.12919454 0.20798579 -0.07433759
0.047925707 0.16726023 0.10983034 0.052495036 0.21137139 -0.01608463 0.13820152 0.14701474
0.07148263 -0.19595954 -0.0097452225 -0.069720946 -0.03016601 0.034711573 0.039781027 0.213335
-0.011184108 -0.101726465 -0.11965865 0.17602 0.13080609 -0.06804131 0.039036106 0.094605826
-0.10042241 -0.08226039 0.011965619 -0.028662717 0.12616616 0.11267021 0.048309267 0.014864176
00000000: 122b 733d e713 89bd f830 d9bb badc ee3d
00000010: bb49 1b3c 1f36 f8bd 1b01 b13d dd02 763d
00000020: eb7c af3d 9501 863d 7f4a aaba 5d7b 933d
00000030: 1ade 043e 596f f7bd 9190 373e f1ff 1ebd
00000040: f80a 203e 2735 32bd 9695 83bd fc5c 0b3d
00000050: 798e e8bd 5e96 f1bd 9f6b 56be 45d1 18be
00000060: 2937 503e e0ed 22be 6ea0 f43d fdc9 d83d
00000070: 2ec8 63be 934b 04be 3afa 543e 4e3e 98bd
00000080: bf4d 443d 4446 2b3e bbee e03d 0905 573d
00000090: be71 583e eac3 83bc b384 0d3e 088b 163e
000000a0: 7c65 923d 9ea9 48be 6daa 1fbc dbc9 8ebd
000000b0: b51e f7bc b92d 0e3d 6ef1 223d 7e74 5a3e
000000c0: 8d3d 37bc f755 d0bd 980f f5bd 963e 343e
000000d0: 08f2 053e 3e59 8bbd 53e4 1f3d b3c0 c13d
000000e0: 44aa cdbd 2378 a8bd 720b 443c 13ce eabc
000000f0: b431 013e a4bf e63d f0df 453d df88 733c

2.weight f4 [128, 64]
-0.035557643 -0.0070071816 0.010978609 0.08395699 -0.058115453 0.019653901 -0.075181454 -0.030312449
0.035690293 0.017698258 0.020247996 0.016979352 -0.09120111 0.043604434 -0.037983388 0.072901845
0.090247616 -0.00086420774 -0.025538564 0.024831325 0.06419586 -0.100335956 0.0053685308 0.06532045
0.01872176 -0.1015847 0.10227843 -0.115266025 0.016670793 -0.05644788 -0.048610747 0.09090194
0.08347827 -0.013856769 0.027479574 -0.062802404 -0.094082385 0.011593148 0.06495839 -0.004060358
-0.0668893 -0.03691335 -0.10436487 0.072380155 0.00048834085 -0.079722956 0.09375052 0.034872368
0.1107468 0.061525673 0.0026135594 0.05469528 0.049163535 -0.12318395 -0.012360439 0.11173046
0.035633355 -0.041276902 0.09882869 -0.0871474 0.07154794 -0.012828246 0.07664487 -0.099396974
-0.01543878 -0.050468042 0.041118428 0.04025981 0.03802286 0.10937588 -0.05907823 0.11565229
0.11134039 -0.014719471 0.10945012 -0.007396728 0.11268224 0.070283145 0.0024170429 0.076928556
0.08711395 -0.10716911 -0.083762154 0.08562258 -0.12095001 0.09148286 0.12441969 0.084384084
0.037834495 -0.003099233 -0.008664414 -0.040203854 0.008798212 -0.035778955 0.080453455 0.018316105
0.009818956 -0.09035142 0.037189275 -0.009584889 -0.07394244 0.043013796 0.039692536 0.10730779
0.0694934 -0.12043451 -0.080485374 -0.11545256 0.03135322 0.04691811 0.040193453 0.03794834
-0.109484464 0.10522188 0.11850028 -0.098374546 -0.103506684 -0.05018179 0.05041991 0.088591054
-0.0588267 0.111138925 -0.06872594 -0.011711031 -0.014510348 0.0913645 0.056743532 0.0045800507
-0.07457934 0.077562064 0.09620239 0.02582328 0.08736661 -0.10290575 -0.082867175 0.09686336
0.017533034 0.018764585 0.037477806 -0.11368124 -0.006818101 0.09056111 -0.012904942 -0.093032554
0.10841036 0.053399563 -0.041369006 0.008137375 -0.04849872 0.04142244 0.11945155 -0.09224565
-0.029049322 -0.118224844 -0.10955754 -0.062284663 0.11998646 -0.053439498 0.105467334 0.08654842
0.027532175 -0.112354845 -0.09939501 -0.0011627972 -0.11380324 -0.015983924 0.06387435 0.11593142
-0.04600446 0.09703548 0.01642169 0.061359048 0.08672461 -0.00097081065 0.11261085 -0.02004306
-0.08173962 0.022778124 0.07181215 0.09311806 0.07435648 -0.053649604 -0.098319724 0.06079571
-0.07296631 0.0065437257 -0.044140637 -0.07096642 0.09407756 0.11725138 -0.11211763 -0.10040626
0.004586652 -0.015540972 0.06435087 -0.005312249 -0.06468983 -0.024844915 0.071076214 -0.115854934
0.1043053 -0.006666705 0.04874426 0.1197063 0.067602545 0.07177761 -0.003977746 0.031222433
-0.07139084 0.100093454 -0.029274002 -0.049522117 -0.037494943 -0.081291735 -0.017854258 -0.0804887
0.09135269 -0.044026256 -0.020621046 -0.012395039 0.056957796 0.011802733 -0.028154045 0.10358831
-0.085462585 -0.0551776 0.048283234 0.11755082 -0.08029021 -0.028030336 0.09173086 -0.050168365
0.033303246 -0.0035891533 0.023811638 -0.017855018 0.015781567 -0.07938014 0.026857749 0.0026456267
-0.021004558 -0.096303776 0.0072503835 0.058766454 -0.06628072 0.09547521 0.011938944 0.10352613
-0.0021834671 -0.08159807 -0.1014379 -0.11167538 0.11853081 0.07502942 0.0015833974 -0.119699314
00000000: e4a4 11bd 809c e5bb a0df 333c a4f1 ab3d
00000010: 780a 6ebd 3801 a13c bcf8 99bd d051 f8bc
00000020: fc2f 123d f0fb 903c 20df a53c 4818 8b3c
00000030: a6c7 babd 909a 323d 7894 1bbd 904d 953d
00000040: bed3 b83d 008c 62ba 4036 d1bc 106b cb3c
00000050: 1e79 833d f07c cdbd 80ea af3b bac6 853d
00000060: 605e 993c a40b d0bd 5a77 d13d 9810 ecbd
00000070: 3091 883c e435 67bd 101c 47bd cc2a ba3d
00000080: a8f6 aa3d 8007 63bc d81c e13c 8c9e 80bd
00000090: 44ae c0bd 30f1 3d3c e808 853d c00c 85bb
000000a0: 42fd 88bd 7432 17bd 40bd d5bd 0c3c 943d
000000b0: 0004 003a ca45 a3bd 4600 c03d 54d6 0e3d
000000c0: 38cf e23d 5802 7c3d 4048 2b3b 2808 603d
000000d0: b45f 493d de47 fcbd 7083 4abc f0d2 e43d
000000e0: 48f4 113d f811 29bd b266 ca3d 567a b2bd
000000f0: ba87 923d 902d 52bc fcf7 9c3d a490 cbbd
00000100: f0f2 7cbc 94b7 4ebd cc6b 283d 78e7 243d
00000110: dcbd 1b3d 7600 e03d 04fc 71bd 1cdb ec3d
00000120: 6e06 e43d f029 71bc 6227 e03d 4060 f2bb
00000130: f2c5 e63d 9cf0 8f3d 4067 1e3b b88c 9d3d
00000140: cc68 b23d 7a7b dbbd 7e8b abbd e45a af3d
00000150: a4b4 f7bd 5e5b bb3d c0cf fe3d 90d1 ac3d
00000160: 58f8 1a3d 801c 4bbb 30f5 0dbc ccac 24bd
00000170: 6026 103c f48c 12bd c8c4 a43d a80b 963c
00000180: b0df 203c 2a0a b9bd c853 183d f009 1dbc
00000190: 226f 97bd 3c2f 303d a494 223d 30c4 db3d
000001a0: 8e52 8e3d 5ea6 f6bd 84d5 a4bd 6472 ecbd
000001b0: 3c6c 003d 342d 403d e4a1 243d b86f 1b3d
000001c0: 6439 e0bd 927e d73d 46b0 f23d 9878 c9bd
000001d0: 50fb d3bd 6c8b 4dbd 1c85 4e3d 3a6f b53d
000001e0: 44f4 70bd ce9c e33d 30c0 8cbd a0df 3fbc
000001f0: d0bc 6dbc 501d bb3d e86b 683d 4014 963b
00000200: 0ebd 98bd dcd8 9e3d c205 c53d 588b d33c
00000210: 44ed b23d 40c0 d2bd 44b6 a9bd 4c60 c63d
00000220: 70a1 8f3c 30b8 993c 5482 193d b6d1 e8bd
00000230: 606a dfbb 1a78 b93d 406f 53bc da87 bebd
00000240: 4006 de3d 80b9 5a3d 8c72 29bd a052 053c
00000250: 98a6 46bd 94aa 293d 04a3 f43d 4aeb bcbd
00000260: d8f8 edbc de1f f2bd b45f e0bd 341e 7fbd
00000270: 76bb f53d 60e3 5abd 42ff d73d 4c40 b13d
00000280: 288b e13c 4c1a e6bd 9c8f cbbd 0069 98ba
00000290: ac11 e9bd b8f0 82bc 8ed0 823d 746d ed3d
000002a0: 2c6f 3cbd 8aba c63d c886 863c a053 7b3d
000002b0: ac9c b13d 007e 7eba 84a0 e63d 5831 a4bc
000002c0: 1a67 a7bd 3099 ba3c 4012 933d aeb4 be3d
000002d0: 3648 983d b0bf 5bbd da5b c9bd ec04 793d
000002e0: 5c6f 95bd c06c d63b d0cc 34bd d856 91bd
000002f0: bcab c03d 7e21 f03d ee9d e5bd cca1 cdbd
00000300: a04b 963b 909f 7ebc 64ca 833d 6012 aebb
00000310: 1a7c 84bd 9087 cbbc 6890 913d 5a45 edbd
00000320: 049e d53d 6074 dabb 10a8 473d 9428 f53d
00000330: 3473 8a3d 2400 933d c057 82bb 30c6 ff3c
00000340: 5c35 92bd ccfd cc3d 08d0 efbc b4d7 4abd
00000350: 4c94 19bd 487c a6bd 1843 92bc 42d7 a4bd
00000360: 1e17 bb3d e054 34bd 78ed a8bc 9014 4bbc
00000370: 944c 693d 4060 413c 50a3 e6bc 1c26 d43d
00000380: 0207 afbd e801 62bd a4c4 453d 7cbe f03d
00000390: 326f a4bd e09f e5bc 64dd bb3d 587d 4dbd
000003a0: fc68 083d 0038 6bbb a010 c33c b044 92bc
000003b0: 5848 813c 0e92 a2bd c804 dc3c 4062 2d3b
000003c0: c011 acbc ea3a c5bd a094 ed3b 18b5 703d
000003d0: 30be 87bd 8288 c33d 909b 433c 8205 d43d
000003e0: 8018 0fbb e41c a7bd acbe cfbd 10b6 e4bd
000003f0: 48c0 f23d 06a9 993d 008a cf3a ea24 f5bd

2.bias f4 [128]
0.053965226 0.018771455 0.01879163 -0.11313109 -0.08646029 -0.080922425 -0.038782984 -0.05621186
-0.030853376 0.07190415 0.030411422 0.065543205 -0.07918018 -0.10207778 -0.12274125 -0.042742595
0.0830943 -0.07377091 -0.013341323 0.026444927 -0.12037969 -0.09690827 -0.124223664 -0.07694833
-0.07114187 0.09688188 0.071738705 0.058760554 0.05288951 0.07537903 0.09023835 -0.12154111
0.05875811 -0.040879413 0.10793488 -0.12198815 0.032798544 0.076095596 -0.101547554 -0.0635099
0.096237704 0.09099813 -0.042973116 -0.006470546 0.035782233 0.08128311 -0.01731366 -0.01130119
0.09161557 -0.0745371 0.11914152 0.09876862 -0.09712447 -0.09762518 -0.010639444 -0.10956615
-0.097389445 -0.03446576 0.024840042 0.006202489 -0.115986794 0.088150725 -0.023110226 -0.011807248
-0.005877629 0.09826751 0.09231959 -0.03279011 -0.069018394 0.0141750425 -0.029412284 -0.020596161
-0.06529494 0.124288484 0.11064546 -0.0070401877 0.08835113 -0.051031575 -0.10637516 -0.052879944
-0.0839777 0.02352199 0.02327843 0.045395747 -0.02908872 -0.055328608 -0.04668948 -0.08369833
-0.08455527 0.036248982 -0.049727872 -0.11734977 0.0811872 -0.06771715 -0.056595355 0.113335386
0.009675041 0.106771365 -0.11483875 -0.113922685 -0.04892111 -0.11080663 -0.1178664 -0.112749904
-0.062882155 0.010740012 0.058775887 0.004991874 -0.004778549 0.055790856 0.12474458 -0.0149903
-0.060061246 0.03162019 -0.06928407 -0.11940315 -0.061579555 -0.03728448 0.07693018 -0.02098371
0.059747517 -0.11493297 -0.11961216 -0.05591263 0.036049828 0.014834017 -0.018320188 0.08508001
00000000: a40a 5d3d 98c6 993c e8f0 993c 46b1 e7bd
00000010: 1812 b1bd a8ba a5bd e8da 1ebd 683e 66bd
00000020: 38c0 fcbc 7c42 933d 6021 f93c 843b 863d
00000030: 3829 a2bd 280e d1bd c45f fbbd dc12 2fbd
00000040: 582d aa3d 3415 97bd 9095 5abc 08a3 d83c
00000050: a089 f6bd d877 c6bd fa68 febd 1697 9dbd
00000060: d4b2 91bd 026a c63d beeb 923d e8ae 703d
00000070: aca2 583d 5260 9a3d e2ce b83d 8cea f8bd
00000080: 58ac 703d 2c71 27bd f60c dd3d ecd4 f9bd
00000090: c457 063d 02d8 9b3d 2af8 cfbd 7a11 82bd
000000a0: 4618 c53d 3a5d ba3d 9404 30bd e006 d4bb
000000b0: 6490 123d c277 a63d 60d5 8dbc a028 39bc
000000c0: f2a0 bb3d e8a6 98bd 7800 f43d 3447 ca3d
000000d0: 32e9 c6bd b6ef c7bd 1051 2ebc 3864 e0bd
000000e0: 1e74 c7bd f82b 0dbd 587d cb3c 403e cb3b
000000f0: 7c8a edbd 5e88 b43d a851 bdbc 3073 41bc
00000100: 2099 c0bb 7a40 c93d 0e12 bd3d ec4e 06bd
00000110: 8459 8dbd 703e 683c 08f2 f0bc 48b9 a8bc
00000120: 5ab9 85bd f68a fe3d 169a e23d 60b1 e6bb
00000130: 70f1 b43d 7c06 51bd 38db d9bd a498 58bd
00000140: 80fc abbd 30b1 c03c 68b2 be3c e4f0 393d
00000150: 784b eebc 40a0 62bd 783d 3fbd 086a abbd
00000160: 502b adbd d079 143d 74af 4bbd 1455 f0bd
00000170: 7a45 a63d 4aaf 8abd 88d0 67bd 621c e83d
00000180: 1084 1e3c f2aa da3d 9430 ebbd 4c50 e9bd
00000190: 8061 48bd 96ee e2bd f063 f1bd 6ce9 e6bd
000001a0: 5cc8 80bd e0f6 2f3c fcbe 703d e092 a33b
000001b0: 6095 9cbb f484 643d 167a ff3d e099 75bc
000001c0: c802 76bd 2c84 013d cee4 8dbd a489 f4bd
000001d0: d83a 7cbd 9cb7 18bd 928d 9d3d 08e6 abbc
000001e0: d0b9 743d fa61 ebbd 38f7 f4bd a404 65bd
000001f0: fca8 133d 600a 733c 3814 96bc 6e3e ae3d

4.weight f4 [64, 128]
0.037358828 -0.030486416 -0.058016285 0.018222421 0.04559093 -0.016452106 0.03429336 0.012786732
-0.06963918 0.06537659 -0.06508386 -0.07125564 0.024833724 -0.047052298 -0.022868227 -0.061563563
-0.05886548 -0.022366142 -0.07195069 0.030810168 -0.0047522467 -0.06433627 0.072846465 0.008063093
0.07270824 0.071905695 0.04890654 0.05923416 0.039111454 0.015815899 -0.04161542 -0.028911263
-0.046041742 0.07121589 0.07854494 0.07025635 0.0558256 0.009635896 -0.08091061 -0.07322561
0.07114745 -0.028470796 0.0127729075 -0.075749636 0.051928848 0.06519921 0.001310082 0.047340423
0.023198688 0.052358016 0.058771957 0.08048861 -0.03301376 -0.047675207 0.014177936 -0.0041113407
0.018954217 0.013553267 0.067540616 0.0796414 0.026175594 -0.009316656 -0.059022497 -0.03310086
-0.0047324905 -0.00782786 0.07216298 -0.0084001515 0.08215209 0.0030867825 -0.020874955 -0.07534016
0.06771479 -0.024836147 -0.055831835 0.00046061235 -0.043174166 0.0855401 0.064456694 0.0065880474
-0.04722465 0.014177883 0.028912842 0.031096967 -0.012177057 0.08581788 0.020566797 0.007642804
-0.03280562 -0.05222419 -0.046896175 -0.08762402 -0.05901821 -0.043891463 -0.078531966 -0.03191117
0.051831078 -0.015279012 -0.0011113913 -0.03522464 -0.018840263 -0.06480967 -0.028341416 -0.004345951
-0.04934966 0.047444686 -0.07259736 -0.040276065 0.053338364 0.056097277 0.045137715 -0.051849075
-0.087579094 0.0057314443 -0.07501471 -0.06662891 -0.079603 -0.01495093 -0.015763354 0.042514537
0.025426235 -0.08781673 -0.018666565 0.040549017 -0.011971274 0.0013900873 0.06944636 0.0054016877
0.027956372 -0.07923763 -0.052222833 -0.059755746 0.076405965 0.058084406 0.07137403 0.04086808
0.019370154 -0.08143399 -0.084976055 0.010446697 -0.012147712 0.08627996 0.035638466 -0.01629042
0.018315556 -0.050617628 0.0038465636 -0.03470113 -0.031088853 -0.025561526 0.005426175 -0.086880215
0.05752105 -0.0070472797 -0.015563503 -0.08186996 -0.038272213 -0.060180355 0.011848554 -0.011917991
-0.028115287 0.06588462 -0.035985094 0.04849012 0.08627042 0.08358527 0.039754245 -0.042456396
0.08648886 -0.04545663 0.010358168 0.03193707 0.085740715 0.007227468 -0.0129262805 -0.01863424
0.028169394 0.064619936 0.078156725 0.023799904 -0.0070364266 -0.054216545 -0.06484042 -0.046335127
0.025821183 0.05918367 0.04758119 0.00013273096 -0.006994891 -0.07037958 -0.025284 -0.009943432
0.02230759 0.07428902 0.082314976 -0.07516474 -0.07450445 0.0014181467 0.080587305 -0.08774141
0.066261485 0.050597396 0.014022667 0.014927908 -0.03051455 -0.068592824 0.03371355 0.07975793
0.08764587 0.04178331 0.0361613 0.029940793 -0.04865571 -0.060446482 -0.038927145 -0.042679362
0.054196253 0.072432764 -0.072782055 -0.015673865 -0.0109543875 0.053575344 0.08506272 -0.04859673
-0.07281167 0.064847864 0.034769736 0.0017891864 0.07731142 -0.050181597 0.043896247 0.009709717
-0.033407878 0.0629047 -0.009546061 0.008559066 0.017083729 0.053059753 0.06655799 0.0020309302
0.086804286 -0.007608781 -0.043393034 0.0063162213 -0.06544407 0.0144845545 0.08265712 0.052989505
-0.048637524 0.07625234 -0.023965614 -0.08364856 -0.082278915 0.04136396 0.02473532 0.0019215064
00000000: 9205 193d a6be f9bc 7ca2 6dbd 3047 953c
00000010: 8ebd 3a3d 91c6 86bc 3277 0c3d 717f 513c
00000020: fd9e 8ebd 29e4 853d b04a 85bd 7aee 91bd
00000030: 1870 cb3c e9b9 40bd 2656 bbbc 132a 7cbd
00000040: ee1c 71bd 3339 b7bc e25a 93bd 9b65 fc3c
00000050: bcb8 9bbb bcc2 83bd 8730 953d 101b 043c
00000060: 0fe8 943d 4b43 933d 3952 483d 859f 723d
00000070: 5533 203d 5890 813c ee74 2abd 50d7 ecbc
00000080: 4496 3cbd a3d9 913d 2bdc a03d 90e2 8f3d
00000090: 62a9 643d e1df 1d3c 76b4 a5bd 4ff7 95bd
000000a0: c1b5 913d 963b e9bc 7545 513c a022 9bbd
000000b0: 58b3 543d 2a87 853d 0fb7 ab3a 08e8 413d
000000c0: 2d0b be3c 5c75 563d ddba 703d 36d7 a43d
000000d0: 7039 07bd 1447 43bd 934a 683c 6db8 86bb
000000e0: e045 9b3c 860e 5e3c bc52 8a3d 081b a33d
000000f0: 336e d63c e3a4 18bc 93c1 71bd c494 07bd
00000100: 0213 9bbb 6d40 00bc 2fca 933d caa0 09bc
00000110: 5b3f a83d 9e4b 4a3b f401 abbc f14b 9abd
00000120: 0dae 8a3d 2d75 cbbc ecaf 64bd 587e f139
00000130: 65d7 30bd a62f af3d df01 843d 8ce0 d73b
00000140: a26e 41bd 5a4a 683c a0da ec3c 11bf fe3c
00000150: 4782 47bc 49c1 af3d b37b a83c 7d70 fa3b
00000160: 305f 06bd 08e9 55bd 3416 40bd 3974 b3bd
00000170: 14bd 71bd 89c7 33bd 5ed5 a0bd 49b5 02bd
00000180: d34c 543d d254 7abc 1bac 91ba b647 10bd
00000190: e556 9abc efba 84bd 422c e8bc 7b68 8ebb
000001a0: de22 4abd 5c55 423d edad 94bd 84f8 24bd
000001b0: 5479 5a3d 42c6 653d 53e2 383d b25f 54bd
000001c0: ab5c b3bd d7ce bb3b 50a1 99bd bd74 88bd
000001d0: e606 a3bd bff4 74bc 2622 81bc b923 2e3d
000001e0: ae4a d03c 42d9 b3bd a0ea 98bc ba16 263d
000001f0: 2a23 44bc 9733 b63a e539 8e3d a400 b13b
00000200: c304 e53c 5747 a2bd 9ce7 55bd 71c2 74bd
00000210: bb7a 9c3d eae9 6d3d 8c2c 923d 4a65 273d
00000220: 28ae 9e3c ddc6 a6bd ed07 aebd 9f28 2b3c
00000230: 3207 47bc 8cb3 b03d a4f9 113d 7d73 85bc
00000240: 810a 963c 6e54 4fbd a116 7c3b c622 0ebd
00000250: 0dae febc 6866 d1bc 0ece b13b 41ee b1bd
00000260: 319b 6b3d deec e6bb 10fe 7ebc 70ab a7bd
00000270: 53c3 1cbd ad7f 76bd 7020 423c ad43 43bc
00000280: 0852 e6bc 84ee 863d 1b65 13bd 939d 463d
00000290: 8cae b03d c12e ab3d 59d5 223d c2e6 2dbd
000002a0: 1221 b13d bb30 3abd 4eb5 293c 72d0 023d
000002b0: d498 af3d 65d4 ec3b c0c8 53bc d5a6 98bc
000002c0: 80c3 e63c 7557 843d a210 a03d 04f8 c23c
000002d0: d391 e6bb 2b12 5ebd 0ecb 84bd e7c9 3dbd
000002e0: f286 d33c 936a 723d 7ee4 423d b22d 0b39
000002f0: 6635 e5bb 2b23 90bd 6420 cfbc c7e9 22bc
00000300: 68be b63c d724 983d c194 a83d f9ef 99bd
00000310: ca95 98bd 1be1 b93a f50a a53d c5b1 b3bd
00000320: 1ab4 873d 373f 4f3d 54bf 653c 2f94 743c
00000330: a6f9 f9bc 657a 8cbd 3817 0a3d 2058 a33d
00000340: ae7f b33d fa24 2b3d df1d 143d 6546 f53c
00000350: 364b 47bd bb96 77bd 1272 1fbd 8ed0 2ebd
00000360: e4fc 5d3d a157 943d c20e 95bd 7a66 80bc
00000370: 087a 33bc d271 5b3d 5d35 ae3d 5d0d 47bd
00000380: 491e 95bd f5ce 843d b66a 0e3d 2283 ea3a
00000390: 7355 9e3d 388b 4dbd 8dcc 333d 8115 1f3c
000003a0: b3d6 08bd 2ed4 803d 1567 1cbc 533b 0c3c
000003b0: 2df3 8b3c 2f55 593d 8e4f 883d 5b19 053b
000003c0: 72c6 b13d 1553 f9bb e5bc 31bd 4ef8 ce3b
000003d0: 8a07 86bd a050 6d3c 2348 a93d 860b 593d
000003e0: 2438 47bd 302a 9c3d 8953 c4bc f04f abbd
000003f0: d981 a8bd 416d 293d baa1 ca3c 0edb fb3a

4.bias f4 [64]
-0.027737705 -0.025511244 -0.03483535 0.053653516 -0.049043633 0.07293382 -0.028678792 0.034249444
0.030224517 0.005316962 -0.06040858 0.013860792 -0.020975128 0.08293922 0.00419751 0.07392968
-0.06705769 0.015495405 -0.02900584 -0.056199104 0.08282234 -0.0076347645 -0.03254052 -0.035099525
0.002986884 -0.06317463 0.02969082 0.0022012983 0.034788337 -0.06601713 0.06452642 -0.01686759
0.05099109 0.035414215 0.08335067 0.060316555 0.03591493 0.05548195 -0.077842854 0.012915206
-0.085196175 0.070679545 0.042263616 -0.019605534 0.03343168 -0.021594116 -0.0129255 0.07782669
-0.023531923 -0.009134855 -0.024540655 0.041774184 0.06222291 -0.0735655 0.07902584 -0.047392096
0.014480593 -0.0010289415 -0.036843047 0.06309592 -0.010077469 0.061235692 -0.086804435 0.054344367
00000000: 2f3a e3bc f5fc d0bc 83af 0ebd cac3 5b3d
00000010: fae1 48bd 545e 953d c9ef eabc 2549 0c3d
00000020: 6899 f73c e939 ae3b fd6e 77bd 6018 633c
00000030: 08d4 abbc 0adc a93d 448b 893b 7268 973d
00000040: 8b55 89bd 70e0 7d3c a89d edbc 0831 66bd
00000050: c29e a93d 0c2d fabb 3549 05bd 85c4 0fbd
00000060: 99bf 433b b361 81bd 2a3a f33c a843 103b
00000070: 377e 0e3d fd33 87bd 6d26 843d e62d 8abc
00000080: 08dc 503d 7f0e 113d c2b3 aa3d 7e0e 773d
00000090: 891b 133d 0b41 633d 136c 9fbd 4d9a 533c
000000a0: 557b aebd 70c0 903d 9d1c 2d3d c99b a0bc
000000b0: a8ef 083d 25e6 b0bc 7ac5 53bc 9a63 9f3d
000000c0: 05c6 c0bc 5caa 15bc 7c09 c9bc 681b 2b3d
000000d0: 73dd 7e3d 82a9 96bd 4dd8 a13d 371e 42bd
000000e0: 0240 6d3c 8cdd 86ba bce8 16bd 6f38 813d
000000f0: f81b 25bc 47d2 7a3d 86c6 b1bd 3398 5e3d

6.weight f4 [32, 64]
-0.09070741 -0.106683835 -0.041285828 0.09809099 0.12078719 0.019197643 -0.11452934 0.04713483
-0.07747197 0.004725188 0.114035994 0.0003912449 -0.12118739 -0.11857925 -0.042515695 0.042027712
-0.090820625 -0.0021104068 0.0461701 0.016156271 0.071403936 -0.11323194 0.12139802 -0.039236173
0.08101116 0.05470471 0.007603541 0.0024229735 -0.034423545 0.01181148 -0.11256826 -0.09070526
0.115749806 -0.045495078 -0.054019094 0.08930901 0.11431733 -0.06996223 -0.03439179 0.058111474
0.008457616 -0.099098384 0.026861072 -0.10446675 0.10272436 0.04353556 -0.02957876 0.0037481487
-0.020307302 0.0060391426 0.004696116 -0.0073274523 -0.11518623 0.059921443 -0.099589184 -0.06811772
0.096866235 -0.057680964 -0.09827086 -0.108910844 -0.10494007 -0.1012937 -0.05417064 0.00899972
-0.036499664 0.05099465 0.044820726 -0.04716061 0.08260545 0.06771962 -0.11967485 -0.041134566
0.008994669 0.049703106 -0.0015939772 -0.033227995 -0.12299016 -0.08333689 0.01849696 -0.010615483
0.06414674 0.009572461 -0.12337166 -0.09067899 -0.12079434 0.118056476 -0.03729394 -0.090195015
-0.03982085 0.028170958 -0.07625364 -0.05800137 0.10842043 -0.09686269 0.019512802 0.044622466
0.09685446 -0.10065456 0.030913398 -0.011782303 -0.05157022 -0.06249471 -0.034904182 -0.017233402
-0.063207924 -0.023295224 -0.0701797 0.04501164 -0.07081176 -0.025387034 -0.10223426 0.0600515
0.10813901 0.110257655 0.012202635 -0.021403417 0.019197986 0.1000613 -0.037054166 0.07258122
-0.08459984 0.018010557 -0.042252406 -0.062603086 -0.10424936 0.11715765 0.03188388 0.11733189
-0.0906207 -0.07016328 0.004633397 -0.058510095 0.023383692 0.03422667 -0.083155826 -0.0310179
0.10373017 0.093072474 -0.0077812523 -0.08879186 0.032224283 0.013198286 -0.057590783 0.055516973
0.09789701 0.100890845 0.11210507 0.089980274 -0.10821736 0.041708156 -0.02373302 0.078923225
0.08060296 0.12045178 0.014781177 0.056976885 -0.07454273 0.104877055 0.10495745 -0.1229344
0.09515141 -0.10149823 0.00064086914 0.018376604 0.12153624 0.07270074 -0.091135964 -0.10058318
0.0769207 -0.087057784 0.0330292 -0.0307433 0.00019723177 0.04934922 -0.067809254 -0.08138186
-0.048620924 0.004237041 -0.07603669 -0.11570573 -0.053695306 -0.096359834 -0.07118946 0.0024715066
0.02690196 -0.101278305 0.0033922642 0.105311155 -0.10524939 -0.05927363 -0.049309224 -0.02605024
-0.016910136 -0.108614445 0.04916945 -0.09111206 0.10196757 0.021953166 -0.039707243 -0.093967915
-0.0835505 -0.049736142 -0.07788016 0.04697515 -0.039872617 -0.097261816 0.06461401 -0.024517998
-0.08656499 0.03683515 -0.12266548 -0.114696205 -0.04441975 -0.09294139 -0.060885027 -0.10225187
0.076538876 -0.063565746 -0.044968963 0.04455027 -0.0406906 -0.101949945 0.012269691 0.106762454
-0.092441574 -0.02340135 0.022406682 -0.11151129 -0.06485148 0.026521772 0.031416506 -0.04673791
0.041267037 -0.0882597 -0.05559495 -0.031142026 -0.092190504 0.11600813 -0.11030312 0.07843514
-0.113499925 -0.063166514 0.1081776 0.094227135 0.09265764 0.120566055 0.096119225 -0.07269159
0.11895029 -0.04328029 0.06450203 -0.123096526 -0.11861396 -0.12460697 0.078027636 0.04332277
00000000: cec4 b9bd 0e7d dabd 541b 29bd eee3 c83d
00000010: 465f f73d 6044 9d3c 5c8e eabd 7410 413d
00000020: a0a9 9ebd c0d5 9a3b b48b e93d 0020 cd39
00000030: 1831 f8bd aed9 f2bd f024 2ebd 4025 2c3d
00000040: 2a00 babd c04e 0abb dc1c 3d3d 285a 843c
00000050: 3a3c 923d 26e6 e7bd 869f f83d 1cb6 20bd
00000060: 2ee9 a53d 0c12 603d 2027 f93b c0ca 1e3b
00000070: b4ff 0cbd f084 413c 308a e6bd aec3 b9bd
00000080: 3c0e ed3d 0c59 3abd 2043 5dbd a4e7 b63d
00000090: 341f ea3d 5c48 8fbd 68de 0cbd 4c06 6e3d
000000a0: d091 0a3c 18f4 cabd c00b dc3c aaf2 d5bd
000000b0: 2661 d23d 5852 323d 284f f2bc 80a3 753b
000000c0: 805b a6bc 00e4 c53b e0e1 993b 201b f0bb
000000d0: c2e6 ebbd 3070 753d 6af5 cbbd 4e81 8bbd
000000e0: ce61 c63d e042 6cbd 3c42 c9bd a60c dfbd
000000f0: d2ea d6bd 1273 cfbd 08e2 5dbd 9073 133c
00000100: ac80 15bd c4df 503d f095 373d 7c2b 41bd
00000110: 0c2d a93d 96b0 8a3d 1618 f5bd b87c 28bd
00000120: 605e 133c 7c95 4b3d 00ed d0ba 141a 08bd
00000130: 44e2 fbbd 88ac aabd f086 973c 90ec 2dbc
00000140: 5e5f 833d d0d5 1c3c 48aa fcbd e8b5 b9bd
00000150: 0663 f7bd 98c7 f13d 88c1 18bd 2ab8 b8bd
00000160: 301b 23bd c8c6 e63c de2a 9cbd d892 6dbd
00000170: 880b de3d f25f c6bd 50d9 9f3c 0cc6 363d
00000180: a25b c63d fa23 cebd 183e fd3c 900a 41bc
00000190: 4c3b 53bd 74fa 7fbd b0f7 0ebd 102d 8dbc
000001a0: 2873 81bd a0d5 bebc 60ba 8fbd 205e 383d
000001b0: c205 91bd 78f8 cfbc 3260 d1bd 90f8 753d
000001c0: fc77 dd3d c4ce e13d 90ed 473c 3856 afbc
000001d0: 1845 9d3c f0ec cc3d 1cc6 17bd 76a5 943d
000001e0: ae42 adbd e08a 933c dc10 2dbd 0c36 80bd
000001f0: b080 d5bd 5af0 ef3d ac98 023d b44b f03d
00000200: 5897 b9bd c4b1 8fbd c0d3 973b 48a8 6fbd
00000210: 288f bf3c 4431 0c3d 9a4d aabd 4019 febc
00000220: 7c70 d43d c89c be3d e0f9 febb 82d8 b5bd
00000230: 9cfd 033d a03d 583c 50e4 6bbd c465 633d
00000240: 3a7e c83d dc9f ce3d 5897 e53d 9447 b83d
00000250: 10a1 ddbd 2cd6 2a3d c06b c2bc 80a2 a13d
00000260: 2a13 a53d 6caf f63d c02c 723c 9860 693d
00000270: dca9 98bd c8c9 d63d eef3 d63d 08c5 fbbd
00000280: bede c23d 4ede cfbd 0000 283a 888a 963c
00000290: fee7 f83d 20e4 943d 7ea5 babd 8efe cdbd
000002a0: 9a88 9d3d 5a4b b2bd a049 073d 60d9 fbbc
000002b0: 00d0 4e39 6822 4a3d 94df 8abd 88ab a6bd
000002c0: bc26 47bd e0d6 8a3b 20b9 9bbd 20f7 ecbd
000002d0: 9cef 5bbd 4e58 c5bd c8cb 91bd 00f9 213b
000002e0: 8061 dc3c 006b cfbd c050 5e3b 60ad d73d
000002f0: fe8c d7bd e8c8 72bd 78f8 49bd 5067 d5bc
00000300: 2087 8abc 4071 debd e865 493d f698 babd
00000310: 60d4 d03d 20d7 b33c 10a4 22bd 4072 c0bd
00000320: 861c abbd 20b8 4bbd a27f 9fbd 0469 403d
00000330: 7851 23bd 3431 c7bd 5a54 843d f8d9 c8bc
00000340: fc48 b1bd 74e0 163d 0a38 fbbd d8e5 eabd
00000350: 7cf1 35bd 0e58 bebd 9462 79bd 6e69 d1bd
00000360: 6ac0 9c3d c22e 82bd 6031 38bd 587a 363d
00000370: 30ab 26bd 22cb d0bd d006 493c 46a6 da3d
00000380: 0252 bdbd 30b4 bfbc 388e b73c 0860 e4bd
00000390: dad0 84bd 3044 d93c 98ae 003d 4070 3fbd
000003a0: a007 293d 80c1 b4bd 88b7 63bd 901d ffbc
000003b0: 60ce bcbd ac95 ed3d 9ae6 e1bd 9aa2 a03d
000003c0: a672 e8bd 725d 81bd 388c dd3d 28fa c03d
000003d0: 4ac3 bd3d 56eb f63d 28da c43d 54df 94bd
000003e0: 369c f33d ac46 31bd a419 843d 081a fcbd
000003f0: e0eb f2bd f031 ffbd f4cc 9f3d 3873 313d

6.bias f4 [32]
-0.07722367 -0.0489168 0.023171857 0.105629995 -0.08307776 0.06311986 0.014791071 -0.0582314
0.097761184 0.06357321 0.10073656 0.049638763 -0.029757276 -0.036112458 -0.032066613 0.10563193
0.050696403 0.04885891 0.059982374 -0.039569557 -0.09927109 0.12251349 0.013653174 -0.09289268
-0.038493633 0.050549164 -0.045073107 0.06147094 -0.029825345 0.08073063 -0.012021422 -0.0582446
00000000: 7227 9ebd fc5c 48bd e8d2 bd3c 8a54 d83d
00000010: ac24 aabd fc44 813d 4056 723c 0c84 6ebd
00000020: 0437 c83d ac32 823d f84e ce3d 0452 4b3d
00000030: 88c5 f3bc a8ea 13bd 4858 03bd 8e55 d83d
00000040: 08a7 4f3d 4820 483d 14b0 753d b013 22bd
00000050: a44e cbbd 5ae8 fa3d 90b1 5f3c 843e bebd
00000060: 80ab 1dbd a40c 4f3d 949e 38bd f4c8 7b3d
00000070: 4854 f4bc 1a56 a53d 80f5 44bc e491 6ebd

8.weight f4 [12, 32]
0.043491583 -0.08088049 0.15902573 0.11486426 -0.11693171 0.11911934 0.019730857 0.021412432
-0.028881675 0.047097165 -0.06723242 -0.024608133 0.10813162 0.038424354 0.1327046 -0.04572309
-0.090791136 0.021986578 -0.11565236 0.045190293 0.11947272 0.0996837 0.14667825 -0.12976854
0.060517795 -0.11115763 -0.052528564 0.17038389 0.0050098905 -0.13750556 0.1558767 0.016222006
-0.1045026 0.06711266 0.021031888 0.11463106 0.0779039 0.09590138 -0.14813812 0.082807705
-0.09625295 -0.15003519 0.075441174 -0.080242775 -0.1716472 0.0984535 -0.13143873 0.14369576
-0.103686385 0.041849144 -0.10960486 0.004490346 -0.0013625654 -0.088695936 0.049913794 -0.06470848
-0.10630765 -0.1145658 -0.07187005 -0.06479766 0.101198226 -0.0044839187 -0.03680564 0.06657217
0.036851056 0.15361506 0.17661455 0.06490962 -0.16392875 0.020976782 -0.07015311 0.14689945
-0.004349639 -0.116611116 -0.1024753 0.026404051 -0.02030359 -0.10941109 0.14161716 0.15836772
0.014949066 -0.095170006 0.088601395 0.09295569 -0.16312993 0.09262406 -0.12153456 0.16809657
0.03996537 -0.13944125 0.14875068 -0.073399745 0.07028193 -0.07128016 -0.020606562 -0.17300262
0.043282833 0.07620757 0.019981736 0.080399305 -0.13394357 -0.020042112 0.011971243 -0.14907692
-0.100392 -0.114827484 0.17556788 -0.111996695 -0.16523033 -0.08251706 -0.056471508 -0.101416424
0.17596868 0.08992237 0.0010325977 -0.06800737 -0.026413409 0.062946044 0.12508681 0.06616865
-0.10851115 -0.15095876 0.11188602 -0.0010044648 -0.09945354 0.04916533 0.112484984 -0.072083734
-0.032189824 -0.019610317 0.028125666 0.12985235 0.16132465 0.003779097 0.16746104 0.047931883
0.10372491 0.15408057 0.052913196 0.034606986 0.06285214 0.049021505 -0.09945973 0.123523496
-0.14069301 0.053910453 -0.07160022 -0.11467557 -0.065680765 0.11480243 0.08344102 -0.12858048
0.0752018 0.13302654 0.09362631 0.10866507 0.102850534 0.014720692 0.16886699 0.027120022
0.049929347 -0.026897866 -0.13108104 -0.061212882 0.09341676 -0.06745209 -0.13708577 0.11707463
0.099643454 -0.040018346 -0.10658466 -0.10422528 -0.15758474 -0.057212766 -0.06015565 -0.015861038
-0.15906401 0.059147093 -0.12035551 0.09678554 -0.13921365 -0.08616533 0.09120519 0.09482784
-0.053254776 0.009841752 -0.011620982 -0.16911083 -0.12220607 0.10421577 -0.03928282 0.046153687
-0.0038504938 0.0026761773 0.1710956 -0.12103605 -0.020127395 -0.0031241563 -0.10136121 -0.13741784
-0.047114633 -0.10423663 0.09040088 -0.011194182 -0.11821036 -0.14439869 0.074170195 0.111004785
-0.08640687 -0.078066796 -0.0011237193 -0.14872704 -0.16284569 -0.15271719 0.14614375 0.03230737
0.0140859615 -0.115061045 -0.14060672 0.1712512 0.07608587 -0.14335492 0.13381378 -0.17666914
0.031729434 -0.07750205 0.0639437 -0.1202862 0.16319202 -0.10546279 -0.1033259 0.14235982
0.023009988 0.0047585475 0.06293481 0.13511306 0.04017364 -0.06838046 -0.15567344 -0.08137589
-0.016965497 0.061133623 0.13580255 0.08710097 -0.07723935 0.1450112 0.05354563 -0.07671991
-0.017031604 -0.11138849 0.13605852 0.1160525 -0.03048157 0.1543122 0.0225222 -0.035276134
00000000: 3b24 323d aca4 a5bd a4d7 223e f43d eb3d
00000010: e479 efbd d7f4 f33d 9ba2 a13c 2069 af3c
00000020: 4399 ecbc f5e8 403d 27b1 89bd ff96 c9bc
00000030: 1c74 dd3d db62 1d3d b7e3 073e 2348 3bbd
00000040: b4f0 b9bd 321d b43c 25db ecbd 7519 393d
00000050: 1dae f43d f826 cc3d d332 163e 0be2 04be
00000060: 82e1 773d 9da6 e3bd 3128 57bd 1d79 2e3e
00000070: 022a a43b 42ce 0cbe 249e 1f3e 03e4 843c
00000080: 7605 d6bd 5d72 893d 114b ac3c b0c3 ea3d
00000090: 148c 9f3d f167 c43d 85b1 17be 1697 a93d
000000a0: 4420 c5bd d3a2 19be e780 9a3d 5356 a4bd
000000b0: 49c4 2fbe fda1 c93d e097 06be fb24 133e
000000c0: 8759 d4bd 026a 2b3d 8378 e0bd c123 933b
000000d0: 1c98 b2ba 37a6 b5bd 6872 4c3d e185 84bd
000000e0: d3b7 d9bd 79a1 eabd 9b30 93bd a3b4 84bd
000000f0: 0441 cf3d d6ed 92bb 83c1 16bd fd56 883d
00000100: 22f1 163d 444d 1d3e 72da 343e 56ef 843d
00000110: f0dc 27be 80d7 ab3c 6fac 8fbd cf6c 163e
00000120: 6b87 8ebb cfd1 eebd 92de d1bd 4f4d d83c
00000130: b753 a6bc ec12 e0bd 1704 113e 262b 223e
00000140: edec 743c 7ee8 c2bd a674 b53d 8e5f be3d
00000150: 880b 27be afb1 bd3d 1de7 f8bd 8221 2c3e
00000160: bab2 233d b0c9 0ebe 1952 183e 9b52 96bd
00000170: f9ef 8f3d 55fb 91bd 18cf a8bc 9927 31be
00000180: 5749 313d b712 9c3d bdb0 a33c 64a8 a43d
00000190: 8128 09be 5b2f a4bc 0823 443c 9fa7 18be
000001a0: 529a cdbd ac2a ebbd 11c8 333e 865e e5bd
000001b0: 2432 29be b4fe a8bd ab4e 67bd 6ab3 cfbd
000001c0: 2231 343e 3829 b83d 3b58 873a 7347 8bbd
000001d0: ef60 d8bc dbe9 803d c216 003e 6e83 873d
000001e0: 183b debd ef94 1abe 7f24 e53d 3fa8 83ba
000001f0: 4cae cbbd 9661 493d 875e e63d a3a0 93bd
00000200: 7ad9 03bd d1a5 a0bc cc67 e63c 04f8 043e
00000210: 4a32 253e baaa 773b e87a 2b3e 3954 443d
00000220: ba6d d43d 4cc7 1d3e 82bb 583d 0ec0 0d3d
00000230: 9fb8 803d c6ca 483d 8bb1 cbbd e3f9 fc3d
00000240: d411 10be 35d1 5c3d 23a3 92bd 06db eabd
00000250: a383 86bd 891d eb3d 20e3 aa3d 9aaa 03be
00000260: 6703 9a3d 1c38 083e 27bf bf3d cb8b de3d
00000270: 4da3 d23d 0f2f 713c 78eb 2c3e cf2a de3c
00000280: b782 4c3d ea58 dcbc 1c3a 06be 5cba 7abd
00000290: 4951 bf3d 5224 8abd 3660 0cbe d3c4 ef3d
000002a0: de11 cc3d 47ea 23bd 0f49 dabd 1074 d5bd
000002b0: e55d 21be ef57 6abd c565 76bd 02ef 81bc
000002c0: ade1 22be 3944 723d f37c f6bd 7f37 c63d
000002d0: 068e 0ebe 7377 b0bd c9c9 ba3d 1935 c23d
000002e0: ae21 5abd 4d3f 213c ee65 3ebc 642b 2dbe
000002f0: 2d47 fabd 146f d53d 06e7 20bd a60b 3d3d
00000300: 9158 7cbb ce62 2f3b af33 2f3e c0e1 f7bd
00000310: 35e2 a4bc a5be 4cbb 7796 cfbd 43b7 0cbe
00000320: 46fb 40bd 047a d5bd 1924 b93d cd67 37bc
00000330: 4618 f2bd 40dd 13be 8be6 973d 7a56 e33d
00000340: 16f6 b0bd 7ce1 9fbd c349 93ba e74b 18be
00000350: 05c1 26be e561 1cbe b5a6 153e bc54 043d
00000360: cec8 663c 20a5 ebbd 35fb 0fbe 795c 2f3e
00000370: e9d2 9b3d a2cb 12be 7b06 093e c1e8 34be
00000380: b9f6 013d 65b9 9ebd eaf4 823d 9c58 f6bd
00000390: cf1b 273e e0fc d7bd 889c d3bd c6c6 113e
000003a0: 717f bc3c 97ed 9b3b f7e3 803d 145b 0a3e
000003b0: 1d8d 243d 0e0b 8cbd dc68 1fbe 67a8 a6bd
000003c0: 3afb 8abc 4067 7a3d d30f 0b3e fe61 b23d
000003d0: aa2f 9ebd d17d 143e aa52 5b3d 541f 9dbd
000003e0: dd85 8bbc a61f e4bd ed52 0b3e efac ed3d
000003f0: 7cb4 f9bc 0404 1e3e 7a80 b83c b57d 10bd

8.bias f4 [12]
0.079310864 0.16715318 0.056553546 -0.16943035 -0.16109878 -0.071443394 0.14365464 0.1467374
0.123429194 0.050305825 0.091210686 0.10270725
00000000: bc6d a23d 342a 2b3e b1a4 673d 267f 2dbe
00000010: 14f7 24be ea50 92bd 341a 133e 5442 163e
00000020: 72c8 fc3d 7b0d 4e3d abcc ba3d 2e58 d23d
