unitree_6_sa.pt (torch, 85182 bytes, 10 tensors)

0.weight f4 [64, 19]
0.035378657 -0.14630051 0.21176772 -0.19680695 0.075562365 -0.08481299 0.050309483 -0.034221597
0.20891476 0.20468663 0.11887104 -0.1248739 -0.09511464 -0.07560431 -0.04798139 0.13531618
0.10410773 -0.12359724 -0.22592032 0.091624044 0.010147929 -0.09018997 0.05041822 0.011787881
0.0459378 0.18873163 0.22010575 0.12906913 -0.11300621 0.0565981 0.033593103 0.21656482
0.1980749 0.013143683 0.09896578 -0.15793899 0.12361193 0.07121639 -0.2269974 0.20748828
0.1919969 -0.1834866 -0.1783025 -0.03872663 -0.059565768 0.08161902 -0.22132312 -0.19335535
0.22324389 0.20313594 0.14635454 0.22333917 -0.14886448 0.12316147 -0.1886558 -0.20755565
-0.1123987 0.11335679 0.20923525 0.12108244 -0.018144052 -0.18142588 0.2132117 0.09188971
0.025194738 0.08147901 -0.107048295 -0.18613869 -0.043745574 0.14352296 0.091646776 -0.08513702
0.062354084 0.082827106 -0.15555242 0.22683989 0.10023294 -0.035463847 -0.021897469 0.031991683
0.07665392 -0.14134431 0.0074366005 0.20124644 -0.21153572 -0.18222192 -0.16311513 0.040078495
-0.20590125 -0.08670236 -0.15172994 -0.20138006 -0.002651463 -0.068270795 -0.1000703 0.08365601
-0.11202596 -0.023760173 0.083316535 0.07046004 -0.009801506 0.03429314 -0.17279501 -0.118710205
-0.112271905 0.11024618 -0.16148989 0.0841665 0.13212977 -0.1244221 -0.14838034 0.082764834
0.1565613 -0.06731406 0.10561496 0.11784255 -0.17827909 0.09019339 0.13477135 0.0643409
0.206941 0.22934806 -0.05581911 -0.21790932 -0.2155286 0.17929313 0.15718803 0.03644123
0.14484546 -0.1668308 -0.119481355 -0.12653102 0.07662494 -0.0017713615 0.0082231425 -0.17763603
-0.011571336 0.07379387 -0.1445339 -0.0917161 0.049270377 0.1107897 0.22770222 0.16798717
-0.19810978 -0.17186803 0.0011775711 -0.0064602047 -0.18328956 -0.15803008 0.093900725 0.18200171
0.1461199 0.1502307 0.2168703 -0.21866912 0.08831132 0.11659056 -0.18471463 0.011137179
-0.14871335 0.0049788468 -0.042752165 -0.0981608 -0.17996198 -0.046596844 -0.0069240895 -0.19973475
-0.2205758 -0.01537458 0.01502184 0.22885793 0.030792864 0.19429138 0.20723598 0.18479574
0.21204256 0.17387629 -0.21303087 -0.21057238 0.17569228 -0.16624907 0.11016 -0.1914548
-0.12422853 -0.08457807 -0.015669316 0.20241563 -0.13044576 0.20107138 -0.13838553 -0.08764509
0.21542783 0.2287577 0.22155933 0.18689321 -0.16042072 -0.078921385 0.12751056 -0.13428028
-0.083310574 0.083128154 0.09471112 -0.070627056 -0.045599744 0.22844444 -0.22432713 0.16164066
0.015419377 -0.082587175 0.1300607 0.1349115 -0.040850542 -0.014793726 -0.17119786 -0.13224785
-0.19728273 -0.104542896 0.14812331 -0.048634715 -0.20640887 -0.08008856 0.0526585 -0.115185946
0.1326393 0.085087456 0.14399798 0.00038438296 -0.18029144 -0.01891982 0.08019033 0.08763352
0.15107112 -0.016778816 -0.14692058 0.014429116 -0.16512688 0.066586785 0.16833644 0.19005546
0.19219197 -0.19635266 0.1699043 -0.069456406 0.07244789 -0.20648317 -0.18934049 -0.06344009
-0.21674834 -0.07933055 -0.124594696 -0.19351354 -0.061568964 0.14279443 0.16848212 -0.09768663
00000000: 36e9 103d cdcf 15be a3d9 583e c387 49be
00000010: 71c0 9a3d 6fb2 adbd 5111 4e3d f22b 0cbd
00000020: c0ed 553e 5f99 513e a972 f33d e3bd ffbd
00000030: 77cb c2bd 6fd6 9abd 2288 44bd 5390 0a3e
00000040: 6f36 d53d 8d20 fdbd a857 67be 63a5 bb3d
00000050: 8043 263c 85b5 b8bd 5683 4e3d f521 413c
00000060: 4629 3c3d dd42 413e 6763 613e b32a 043e
00000070: cd6f e7bd 69d3 673d ec98 093d 2bc3 5d3e
00000080: 26d4 4a3e 9a58 573c 92ae ca3d c2ba 21be
00000090: 4028 fd3d e6d9 913d 0272 68be cf77 543e
000000a0: d69a 443e e9e3 3bbe ee94 36be d19f 1ebd
000000b0: 3cfb 73bd df27 a73d 87a2 62be f2fe 45be
000000c0: 0c9a 643e de02 503e f7dd 153e 06b3 643e
000000d0: ee6f 18be 153c fc3d fc2e 41be 7889 54be
000000e0: 4a31 e6bd 9b27 e83d c441 563e 12fa f73d
000000f0: d6a2 94bc b5c7 39be 2b54 5a3e ac30 bc3d
00000100: 3265 ce3c 78de a63d 233c dbbd 249b 3ebe
00000110: 8f2e 33bd aff7 123e 4eb1 bb3d 515c aebd
00000120: ff66 7f3d 42a1 a93d 2249 1fbe b748 683e
00000130: ed46 cd3d 8a42 11bd 5262 b3bc b609 033d
00000140: bbfc 9c3d 90bc 10be baae f33b 8c13 4e3e
00000150: d29c 58be 6298 3abe a707 27be 5929 243d
00000160: c7d7 52be 0291 b1bd 185f 1bbe 9336 4ebe
00000170: 2bc4 2dbb 8fd1 8bbd a8f1 ccbd d853 ab3d
00000180: de6d e5bd b2a4 c2bc dca1 aa3d 5a4d 903d
00000190: 7f96 20bc f776 0c3d 2df1 30be 561e f3bd
000001a0: d0ee e5bd c0c8 e13d 9b5d 25be 7c5f ac3d
000001b0: 074d 073e 04d1 febd 04f1 17be 9c80 a93d
000001c0: 9b51 203e f4db 89bd a84c d83d 6f57 f13d
000001d0: cb8e 36be 50b7 b83d 8001 0a3e 29c5 833d
000001e0: 57e8 533e 38da 6a3e 94a2 64bd 9f23 5fbe
000001f0: 88b3 5cbe 9e98 373e e6f5 203e 6643 153d
00000200: 5e52 143e b1d5 2abe a4b2 f4bd 5991 01be
00000210: 89ed 9c3d 072d e8ba 5cba 063c 38e6 35be
00000220: b395 3dbc 3e21 973d b200 14be a7d5 bbbd
00000230: bccf 493d b6e5 e23d c52a 693e d404 2c3e
00000240: 4add 4abe 2cfe 2fbe bb58 9a3a 20b0 d3bb
00000250: 42b0 3bbe a3d2 21be 064f c03d a85e 3a3e
00000260: 74a0 153e 14d6 193e 3f13 5e3e ccea 5fbe
00000270: 91dc b43d 08c7 ee3d d525 3dbe b778 363c
00000280: 5048 18be 9825 a33b e51c 2fbd 8808 c9bd
00000290: f447 38be 55dc 3ebd 79e3 e2bb 4487 4cbe
000002a0: 9fde 61be aae5 7bbc 2a1e 763c bc59 6a3e
000002b0: 5141 fc3c 52f4 463e ab35 543e 183b 3d3e
000002c0: af21 593e a00c 323e c424 5abe 49a0 57be
000002d0: ade8 333e 323d 2abe 919b e13d ba0c 44be
000002e0: 876b febd 4437 adbd f05c 80bc 0b46 4f3e
000002f0: 9393 05be a8e5 4d3e f0b4 0dbe 457f b3bd
00000300: 1d99 5c3e 753f 6a3e 73e0 623e ef60 3f3e
00000310: 5445 24be 89a1 a1bd 2192 023e c580 09be
00000320: bc9e aabd 183f aa3d e7f7 c13d eba4 90bd
00000330: ccc6 3abd 57ed 693e 03b6 65be 2185 253e
00000340: 8ea1 7c3c 7723 a9bd a22e 053e 3e26 0a3e
00000350: e652 27bd 6261 72bc 7e4e 2fbe fb6b 07be
00000360: 7c04 4abe 961a d6bd a3ad 173e 3235 47bd
00000370: d95c 53be 7905 a4bd 70b0 573d 9ce6 ebbd
00000380: 99d2 073e 5542 ae3d 3574 133e 0287 c939
00000390: 529e 38be bdfd 9abc d43a a43d 3479 b33d
000003a0: 63b2 1a3e ba73 89bc 5972 16be 1968 6c3c
000003b0: 0517 29be a75e 883d 6360 2c3e e69d 423e
000003c0: f9cd 443e ac10 49be 65fb 2d3e 293f 8ebd
000003d0: 8f5f 943d 5370 53be 79e2 41be e1ec 81bd
000003e0: 47f3 5dbe 0e78 a2bd 812b ffbd 6a28 46be
000003f0: bd2f 7cbd b438 123e 9486 2c3e ee0f c8bd

0.bias f4 [64]
-0.18791014 -0.17210057 0.15477727 -0.18337943 -0.18526775 -0.14083841 0.116129436 0.19846565
0.17413948 0.098083325 -0.22565821 0.20156562 0.20824274 -0.0011778446 -0.0033792336 -0.22159427
0.02726275 0.20873648 -0.04700409 -0.081778646 0.16510078 -0.18572852 0.16601765 0.013528367
0.087072216 -0.17012174 -0.13765937 -0.17117812 0.07488095 -0.09337224 -0.15559995 -0.22725222
-0.115656964 0.15056871 -0.10821167 -0.079203375 -0.103971586 -0.15691037 0.07466484 0.18747045
0.12931535 0.0851319 -0.21482058 0.032676246 -0.21564513 -0.12324174 0.1757882 -0.15447111
-0.06169411 0.16604759 0.16236314 -0.118256114 0.21760713 0.075132445 0.13667442 -0.18780787
0.08263085 0.13653043 0.1534048 0.056126423 -0.080799244 0.04405253 -0.15092166 0.1992239
00000000: 846b 40be 223b 30be ef7d 1e3e d1c7 3bbe
00000010: d4b6 3dbe f237 10be 45d5 ed3d 943a 4b3e
00000020: 9f51 323e e9df c83d f212 67be 3867 4e3e
00000030: 963d 553e e861 9aba 2276 5dbb 9ce9 62be
00000040: 2156 df3c 04bf 553e 5c87 40bd 907b a7bd
00000050: 2e10 293e 9e2f 3ebe 8800 2a3e 15a6 5d3c
00000060: eb52 b23d 6534 2ebe 94f6 0cbe 5149 2fbe
00000070: 2f5b 993d f239 bfbd 9855 1fbe ceb4 68be
00000080: 8fdd ecbd af2e 1a3e 149e ddbd 6135 a2bd
00000090: 0eef d4bd 1dad 20be e1e9 983d 41f8 3f3e
000000a0: 3e6b 043e a259 ae3d edf9 5bbe 87d7 053d
000000b0: 14d2 5cbe 2a66 fcbd d201 343e ad2d 1ebe
000000c0: f7b2 7cbd 6108 2a3e 8642 263e 4330 f2bd
000000d0: 67d4 5e3e 0adf 993d 61f4 0b3e b550 40be
000000e0: 5d3a a93d a2ce 0b3e 2616 1d3e d2e4 653d
000000f0: 137a a5bd 6d70 343d 358b 1abe 5a01 4c3e

2.weight f4 [128, 64]
0.06537978 -0.007977352 0.08093491 -0.025726035 0.06465143 0.12108567 0.032003492 0.001557678
-0.11432797 0.11993025 -0.06843348 0.07637206 0.120936856 0.07306525 0.009692162 -0.05291599
-0.029504344 0.102431834 0.120738596 0.09310745 -0.023893714 0.09096581 0.04875298 -0.043981954
0.096861556 -0.11988287 0.036827832 -0.061137587 0.04270956 0.122406125 0.09823984 -0.08463256
-0.06709783 -0.08331941 -0.04394959 -0.037980974 -0.05708672 0.018067345 0.020940319 0.0410434
0.1111964 -0.109579995 0.031335905 0.12120849 -0.014104396 0.031404868 0.06007351 -0.11980668
0.013579935 0.022880763 -0.0686875 -0.00040370226 -0.044878826 0.11137009 -0.060700536 -0.01960969
-0.078538164 -0.043955654 -0.04680039 0.11876568 -0.10626505 -0.062813565 -0.08330241 0.12102543
0.05420749 0.041463003 -0.050987676 -0.112165004 -0.04192312 -0.06558123 0.09579134 -0.08807862
-0.05430889 -0.08641514 -0.11170408 0.0983198 0.09030253 0.035170734 0.03912048 -0.060676903
0.105952606 0.040410057 0.12449464 0.09593935 0.025083378 -0.052466154 -0.12214179 -0.050648496
0.048255056 0.08534947 0.071826994 0.070523664 -0.0334253 0.08673841 0.043676436 0.07462807
-0.0903174 -0.05445321 0.0022446364 -0.020686448 0.045797333 -0.06502427 -0.03772348 0.06981106
0.039039522 -0.08378339 -0.020734608 0.07872988 0.09793334 -0.08726756 0.0015130639 0.0065889657
0.042736515 0.07844347 -0.068272054 0.12271504 -0.022484645 0.11373846 -0.118167624 0.017896384
0.077433065 0.07607153 0.093589544 0.041709125 -0.031459585 -0.023640722 -0.07340784 -0.04273975
0.0075953305 0.057252362 -0.09472753 0.11769171 -0.051673114 -0.007092431 -0.03322172 -0.07144734
-0.11382645 -0.11050971 0.114822865 0.027281135 0.035033748 -0.05080317 0.054876894 0.026516408
0.0328518 0.06484105 -0.01429759 0.09162979 0.017342597 0.11422628 -0.1097568 0.1185323
0.07671504 0.004412383 -0.01899153 0.09554811 0.117718354 0.118677005 0.06086567 -0.050100267
-0.11463225 0.057792976 -0.08325343 0.107370436 -0.123637125 0.06342903 -0.0042372346 0.03308384
0.027462289 0.091240585 -0.020310491 -0.056157306 -0.0114849955 0.022107318 -0.06327857 -0.120857015
0.038995475 0.015169099 0.068580836 -0.018802002 0.024139896 0.09633365 -0.0663597 0.012014687
-0.030485228 0.097671986 0.10059315 0.06761502 -0.015967414 -0.11848666 0.03623484 0.05175352
-0.12137391 0.047108635 -0.11010519 0.037120372 0.03751488 0.105354115 -0.011308029 -0.021069452
-0.023577914 -0.046673506 -0.053238913 -0.075909734 0.036170974 0.01640141 -0.12027216 -0.07407609
0.093361735 -0.09918985 -0.014886841 0.099753335 -0.062284708 0.0086115 -0.02418013 0.056391194
-0.095567346 0.04990129 -0.014139026 -0.078759015 -0.06111808 -0.046689793 -0.105123416 0.08133905
0.046891347 -0.03528726 -0.0507721 -0.1200524 -0.02718915 0.11291285 0.011741534 -0.013048217
0.07154538 -0.028191432 -0.011710778 0.07197729 0.005117461 -0.061549917 -0.11186628 -0.12245461
0.068047926 -0.052224264 0.102434605 0.08857885 -0.052780703 -0.058332905 0.04349114 -0.012585476
-0.12333636 -0.100173086 -0.023499742 0.121905625 -0.11888881 -0.08249064 -0.03148149 0.094298795
00000000: d6e5 853d 70b3 02bc 34c1 a53d 68bf d2bc
00000010: f867 843d c4fb f73d 1816 033d 002b cc3a
00000020: c824 eabd fe9d f53d da26 8cbd f468 9c3d
00000030: bead f73d 3ca3 953d e0cb 1e3c 70be 58bd
00000040: 18b3 f1bc c8c7 d13d cc45 f73d 1eaf be3d
00000050: c0bc c3bc 484c ba3d 34b1 473d 6c26 34bd
00000060: 5a5f c63d 2685 f5bd c8d8 163d 686b 7abd
00000070: 38f0 2e3d 10b0 fa3d f831 c93d d653 adbd
00000080: 966a 89bd 5ea3 aabd 7c04 34bd f091 1bbd
00000090: c4d3 69bd f801 943c 088b ab3c 201d 283d
000000a0: f0ba e33d 7a6b e0bd 145a 003d 283c f83d
000000b0: 2016 67bc 64a2 003d a40f 763d 345d f5bd
000000c0: 607e 5e3c 7070 bb3c 08ac 8cbd 00a8 d3b9
000000d0: dcd2 37bd 0016 e43d 20a1 78bd 80a4 a0bc
000000e0: 9ed8 a0bd d80a 34bd c4b1 3fbd 6c3b f33d
000000f0: 7ea1 d9bd 66a4 80bd 749a aabd 2edc f73d
00000100: ac08 5e3d 1cd5 293d 74d8 50bd c4b6 e5bd
00000110: 94b7 2bbd 744f 86bd 402e c43d 9062 b4bd
00000120: 0073 5ebd 6cfa b0bd 1cc5 e4bd e45b c93d
00000130: 88f0 b83d 300f 103d cc3c 203d 5888 78bd
00000140: aefd d83d 0485 253d 0cf7 fe3d da7b c43d
00000150: a87b cd3c c0e6 56bd 7a25 fabd cc74 4fbd
00000160: 18a7 453d b4cb ae3d 081a 933d b66e 903d
00000170: f8e8 08bd e8a3 b13d 10e6 323d 9ad6 983d
00000180: 54f8 b8bd 540a 5fbd c01a 133b a076 a9bc
00000190: fc95 3b3d 722b 85bd f083 1abd 1af9 8e3d
000001a0: e8e7 1f3d a096 abbd a0db a9bc 223d a13d
000001b0: 4691 c83d 56b9 b2bd 0052 c63a 40e8 d73b
000001c0: 7c0c 2f3d f8a6 a03d 38d2 8bbd 0652 fb3d
000001d0: b831 b8bc b6ef e83d de01 f2bd 709b 923c
000001e0: 3a95 9e3d 64cb 9b3d e0ab bf3d 30d7 2a3d
000001f0: c4db 00bd 30aa c1bc da56 96bd e00f 2fbd
00000200: 40e2 f83b 7481 6a3d 8200 c2bd 5a08 f13d
00000210: 30a7 53bd a067 e8bb 8013 08bd fc52 92bd
00000220: d81d e9bd ea52 e2bd 4028 eb3d b07c df3c
00000230: 8c7f 0f3d fc16 50bd 98c6 603d f038 d93c
00000240: 9c8f 063d 62cb 843d 7040 6abc 66a8 bb3d
00000250: 1012 8e3c 78ef e93d 2cc8 e0bd 10c1 f23d
00000260: c61c 9d3d c095 903b 2094 9bbc baae c33d
00000270: 5216 f13d ee0c f33d 484e 793d f035 4dbd
00000280: 50c4 eabd 54b8 6c3d c680 aabd 08e5 db3d
00000290: 7635 fdbd 14e7 813d 80d8 8abb ec82 073d
000002a0: 98f8 e03c 58dc ba3d 3062 a6bc 3405 66bd
000002b0: 902b 3cbc 681a b53c 3298 81bd e283 f7bd
000002c0: b8b9 1f3d d087 783c 1c74 8c3d a806 9abc
000002d0: 08c1 c53c 944a c53d 98e7 87bd 40d9 443c
000002e0: 28bc f9bc 4008 c83d c803 ce3d be79 8a3d
000002f0: 18ce 82bc 22a9 f2bd fc6a 143d 80fb 533d
00000300: e292 f8bd fcf4 403d d47e e1bd 880b 183d
00000310: 34a9 193d e6c3 d73d 5045 39bc d899 acbc
00000320: 7826 c1bc b82c 3fbd 0c11 5abd 9076 9bbd
00000330: 0428 143d 405c 863c 4051 f6bd 34b5 97bd
00000340: 7034 bf3d 0c24 cbbd f0e7 73bc 7a4b cc3d
00000350: 401e 7fbd 4017 0d3c 6815 c6bc 74fa 663d
00000360: d0b8 c3bd 4c65 4c3d 60a7 67bc 684c a1bd
00000370: f456 7abd cc3d 3fbd f24a d7bd 1695 a63d
00000380: 2411 403d 6089 10bd 68f6 4fbd 08de f5bd
00000390: c8bb debc da3e e73d 905f 403c 30c8 55bc
000003a0: 6286 923d b8f1 e6bc 90de 3fbc d468 933d
000003b0: 60b0 a73b c41b 7cbd 261a e5bd 7cc9 fabd
000003c0: b65c 8b3d 1ce9 55bd 3cc9 d13d d468 b53d
000003d0: 9430 58bd 7cee 6ebd c423 323d 5033 4ebc
000003e0: c697 fcbd 8c27 cdbd 8882 c0bc a8a9 f93d
000003f0: fa7b f3bd daf0 a8bd bcf2 00bd ba1f c13d

2.bias f4 [128]
0.11218497 0.08734654 0.003706798 -0.03364387 -0.027280137 -0.056917652 -0.084394306 0.006796032
0.046038195 0.010278195 0.096894875 0.06921826 -0.045843467 -0.06325157 0.10096304 -0.08957437
-0.08985703 0.07923855 -0.02629906 0.08917712 0.037471354 -0.07480009 -0.096334964 -0.018416956
-0.08368434 -0.0019170195 -0.051455334 -0.017636701 -0.06306076 -0.064532876 0.1248391 -0.115866974
-0.036300555 0.06792344 0.007504761 -0.07440592 0.081232116 -0.017859891 -0.053516984 -0.03966981
-0.0007452667 0.017409772 0.07055603 0.045526803 -0.035022423 -0.1218939 -0.053238332 -0.03670679
0.09315382 0.019537672 -0.062990844 0.0095731765 0.01311335 0.011468723 -0.019754872 -0.038682073
0.0016150773 -0.08288801 -0.0799555 -0.030848488 -0.096310586 0.06759265 -0.095430195 0.057814986
-0.040223807 0.091308355 -0.020184115 0.00094603 -0.12033163 -0.10198164 -0.050543725 0.04670073
-0.01679723 -0.092005506 -0.052424848 -0.019790202 0.042140096 -0.08199282 -0.025933176 0.1096866
-0.054986745 0.029299557 0.086910754 -0.12230474 -0.055052474 0.0036112964 0.10360959 0.043375432
0.034258828 0.003720358 -0.0899815 0.10102148 0.0065424144 -0.014717147 0.004560396 0.097464696
-0.042349145 -0.06051837 -0.04274951 -0.044822544 0.07628594 -0.09005149 -0.014251858 -0.10497202
-0.0070952326 0.09077427 -0.001030907 0.072384134 -0.08594194 -0.06325184 0.04369764 0.11156382
-0.020473152 0.021603972 0.05331646 -0.062141538 -0.10750131 -0.010498181 0.085573286 0.09739509
-0.041713923 0.028235361 -0.0775093 -0.0054048747 -0.104500026 -0.10144335 -0.0010513365 0.12012376
00000000: 3cc1 e53d bee2 b23d c0ed 723b 28ce 09bd
00000010: 987a dfbc 7c22 69bd ecd6 acbd 40b1 de3b
00000020: 8c92 3c3d e065 283c d270 c63d 4ec2 8d3d
00000030: 5cc6 3bbd 0a8a 81bd b6c5 ce3d c472 b7bd
00000040: f606 b8bd d247 a23d 2071 d7bc 7ea2 b63d
00000050: 907b 193d ca30 99bd 444b c5bd 28df 96bc
00000060: b262 abbd 8044 fbba d4c2 52bd d87a 90bc
00000070: 0026 81bd d029 84bd a4ab ff3d aa4b edbd
00000080: e4af 14bd 721b 8b3d 80ea f53b 2262 98bd
00000090: 065d a63d e84e 92bc a034 5bbd d07c 22bd
000000a0: 005e 43ba f09e 8e3c ae7f 903d 507a 3a3d
000000b0: ac73 0fbd 82a3 f9bd 7010 5abd dc59 16bd
000000c0: 6ec7 be3d 780d a03c 5801 81bd d0d8 1c3c
000000d0: 60d9 563c 50e7 3b3c f8d4 a1bc 1871 1ebd
000000e0: 00b1 d33a 30c1 a9bd b6bf a3bd f8b5 fcbc
000000f0: 7c3e c5bd 046e 8a3d e870 c3bd 68cf 6c3d
00000100: b8c1 24bd e0ff ba3d 2859 a5bc 00ff 773a
00000110: 6e70 f6bd c0db d0bd f006 4fbd 4449 3f3d
00000120: 589a 89bc 626d bcbd 70bb 56bd 101f a2bc
00000130: 189b 2c3d daeb a7bd d071 d4bc 5ea3 e03d
00000140: c839 61bd a005 f03c 44fe b13d e87a fabd
00000150: b47e 61bd 80ab 6c3b 4431 d43d 70aa 313d
00000160: fc52 0c3d 40d1 733b 3848 b8bd 5ae4 ce3d
00000170: c061 d63b 3020 71bc 606f 953b 929b c73d
00000180: 4c76 2dbd 1ce2 77bd 1c1a 2fbd d897 37bd
00000190: ce3b 9c3d ea6c b8bd a080 69bc 92fb d6bd
000001a0: 207f e8bb dce7 b93d 801f 87ba 223e 943d
000001b0: 5402 b0bd 2e8a 81bd 4cfc 323d 927b e43d
000001c0: 50b7 a7bc d0fa b03c 5c62 5a3d 2088 7ebd
000001d0: a629 dcbd 9000 2cbc 0c41 af3d 1477 c73d
000001e0: 38dc 2abd d84d e73c 32bd 9ebd 601b b1bb
000001f0: 1c04 d6bd 88c1 cfbd 00cd 89ba 7203 f63d

4.weight f4 [64, 128]
0.014728606 -0.049350083 0.08313571 -0.061467428 -0.06374372 0.053623065 -0.058427375 -0.062095657
-0.050195124 -0.08362942 0.027881572 0.066363394 0.009580221 -0.022175143 -0.013779543 -0.05361907
0.006319688 -0.029705372 0.055458087 0.066436484 -0.0028800732 -0.029107362 -0.03167537 -0.057817806
0.044550966 -0.0056410604 0.03169918 0.049586747 -0.015949653 -0.015540976 0.0025295168 -0.0816609
-0.056868374 0.07301987 0.084524825 0.058747344 -0.06826671 -0.071134344 0.069294415 0.0366282
-0.027023148 -0.0284 0.018027809 -0.062799044 -0.060748074 -0.06291572 -0.0853586 -0.00414372
-0.04025691 0.03995383 -0.05243777 0.013975241 0.00386691 0.084920496 -0.060156755 0.029391231
0.0649824 0.08487286 -0.008831303 -0.039434686 -0.029934399 0.010485429 -0.060217604 -0.07148649
-0.07750308 0.07408626 0.07859105 0.012499491 0.08045206 -0.01135042 0.06626691 0.036705088
0.08733441 0.024468604 -0.04944427 -0.0009254289 0.032686535 0.05545496 -0.029263621 -0.042470418
0.06532967 -0.06718905 -0.050369836 -0.07485507 0.024243109 -0.023054611 0.04187779 -0.080346696
-0.056067415 -0.04138807 -0.041347165 -0.061303023 -0.019042399 0.0013111146 0.00075034035 -0.03043484
-0.06913037 -0.03305259 0.03589897 0.05372545 0.036133334 -0.08303987 -0.015587611 -0.088152885
0.05267491 0.0819893 0.027248854 0.04290841 0.025106655 -0.016425975 -0.018417519 -0.048103284
0.06978852 -0.025007706 0.01264318 -0.051085424 -0.050505232 0.06980252 0.022866657 0.04454413
0.0771506 0.002043943 -0.0648717 0.051240094 -0.006507558 0.0013630817 -0.033969432 -0.08417848
-0.08019699 0.034917895 -0.080065206 -0.04112284 0.06850109 0.05370957 0.037969936 0.010549188
0.015729982 -0.028071834 -0.0012929916 -0.057266407 0.06971353 -0.05633747 -0.08595368 0.012141854
-0.051698323 0.08221445 -0.08083594 -0.07333729 0.08538818 0.052141096 -0.0322714 0.061093237
0.019016763 -0.057877917 0.0029596782 -0.030515002 -0.0585855 0.020802895 -0.018809928 -0.08220404
-0.054126237 0.011379976 -0.01199062 0.084492706 -0.059263527 0.03516967 -0.071004 -0.079799585
0.0339784 0.038897 0.047325145 0.0874274 0.040682297 0.053113226 -0.068137415 0.04338273
-0.022118265 0.028372953 0.07600301 0.04432838 0.04457072 0.033709135 0.071122244 -0.016948806
-0.025528187 -0.017579861 0.07067614 0.032020446 0.06109982 0.020222278 -0.06355185 0.016427608
0.027987361 0.04816702 -0.03909434 -0.045602594 -0.01840986 0.0005274994 0.050222438 0.005116733
-0.03248541 0.042840164 0.07904321 -0.06052833 0.04570101 -0.02321853 -0.06708677 0.008954129
-0.014800372 0.056956943 0.070160985 -0.06131143 -0.036715288 0.034713376 -0.0659777 -0.027662577
0.06964229 -0.06181228 0.01221736 -0.0021280681 -0.07033192 -0.06627141 -0.06372554 0.068258144
0.07267885 -0.037938602 0.06658536 -0.08297109 -0.004629642 -0.015572997 -0.082991086 -0.028505715
-0.046693943 0.016278388 0.0027960113 -0.0071315626 0.027337141 0.042041324 0.07679223 -0.073005766
-0.011340105 -0.010683994 0.015804857 0.012765469 0.004212567 -0.038982324 0.049502864 0.08804759
0.0672108 0.06669276 0.006917636 0.072412014 -0.025989696 0.028043881 0.022616472 0.016661555
00000000: 4050 713c 5023 4abd 0e43 aa3d 45c5 7bbd
00000010: 118c 82bd dca3 5b3d 8b51 6fbd 0458 7ebd
00000020: 6799 4dbd e745 abbd e567 e43c 88e9 873d
00000030: 5cf6 1c3c a5a8 b5bc 98c3 61bc ac9f 5bbd
00000040: 6315 cf3b ae58 f3bc 0528 633d da0f 883d
00000050: 9cbf 3cbb 9072 eebc 08be 01bd 5dd2 6cbd
00000060: 137b 363d a5d8 b8bb 00d7 013d 791b 4b3d
00000070: d9a8 82bc 949f 7ebc 40c6 253b d43d a7bd
00000080: d0ee 68bd 718b 953d 5a1b ad3d 0ea1 703d
00000090: 6bcf 8bbd e2ae 91bd 3bea 8d3d 7407 163d
000000a0: a65f ddbc 1ea7 e8bc 0eaf 933c c99c 80bd
000000b0: f9d2 78bd f5d9 80bd 7dd0 aebd 0bc8 87bb
000000c0: 6ee4 24bd a1a6 233d fdc8 56bd 69f8 643c
000000d0: fc6b 7d3b ccea ad3d ee66 76bd e1c5 f03c
000000e0: 7e15 853d d2d1 ad3d 2bb1 10bc 4486 21bd
000000f0: fc38 f5bc 14cb 2b3c bca6 76bd 8267 92bd
00000100: efb9 9ebd 89ba 973d 58f4 a03d aaca 4c3c
00000110: 0dc4 a43d 1df7 39bc f2b6 873d 1358 163d
00000120: 62dc b23d 6272 c83c 1386 4abd 7b98 72ba
00000130: 51e2 053d bd24 633d 43ba efbc 76f5 2dbd
00000140: 90cb 853d 6a9a 89bd 9a50 4ebd 9d4d 99bd
00000150: 7c99 c63c 06dd bcbc 0c88 2b3d cf8c a4bd
00000160: f2a6 65bd 8986 29bd a55b 29bd e118 7bbd
00000170: cefe 9bbc b5d9 ab3a 7db2 443a 7c52 f9bc
00000180: 3994 8dbd 2762 07bd cc0a 133d 380f 5c3d
00000190: 8c00 143d cf10 aabd 2e63 7fbc 8089 b4bd
000001a0: a5c1 573d 02ea a73d fd38 df3c bbc0 2f3d
000001b0: 79ac cd3c c48f 86bc 56e0 96bc f307 45bd
000001c0: 49ed 8e3d f6dc ccbc 5725 4f3c f33e 51bd
000001d0: 93de 4ebd a0f4 8e3d db52 bb3c e873 363d
000001e0: 2201 9e3d acf3 053b 74db 84bd 22e1 513d
000001f0: 5a3d d5bb 6fa9 b23a 8823 0bbd c465 acbd
00000200: 523e a4bd 1106 0f3d 3af9 a3bd 6c70 28bd
00000210: 4d4a 8c3d 91fe 5b3d 5d86 1b3d 80d6 2c3c
00000220: 2adc 803c e7f6 e5bc 9979 a9ba 2e90 6abd
00000230: f8c5 8e3d 1ec2 66bd 7c08 b0bd a0ee 463c
00000240: 9fc1 53bd 0d60 a83d 508d a5bd dc31 96bd
00000250: 00e0 ae3d e791 553d 042f 04bd e73c 7a3d
00000260: 0bc9 9b3c 6511 6dbd 29f7 413b 99fa f9bc
00000270: 59f7 6fbd d56a aa3c 4717 9abc 975a a8bd
00000280: 79b3 5dbd 1473 3a3c 4e74 44bc 830a ad3d
00000290: 50be 72bd 120e 103d 8c6a 91bd f76d a3bd
000002a0: ef2c 0b3d 7652 1f3d 03d8 413d 230d b33d
000002b0: 7ba2 263d 418d 593d a18b 8bbd 17b2 313d
000002c0: 5d31 b5bc 656e e83c 77a7 9b3d ad91 353d
000002d0: ca8f 363d 9712 0a3d 8aa8 913d 39d8 8abc
000002e0: 7d20 d1bc a403 90bc a7be 903d df27 033d
000002f0: ce43 7a3d 31a9 a53c 7927 82bd 3193 863c
00000300: c045 e53c c84a 453d 6321 20bd c9c9 3abd
00000310: 46d0 96bc e347 0a3a 0bb6 4d3d 44aa a73b
00000320: 6c0f 05bd 2b79 2f3d 68e1 a13d 8eec 77bd
00000330: fb30 3b3d c934 bebc ca64 89bd 57b4 123c
00000340: 427d 72bc af4b 693d 90b0 8f3d b221 7bbd
00000350: c562 16bd 9d2f 0e3d 511f 87bd a19c e2bc
00000360: 9ea0 8e3d e02e 7dbd 522b 483c 0f77 0bbb
00000370: 2f0a 90bd 4eb9 87bd 8982 82bd edca 8b3d
00000380: a6d8 943d 8265 1bbd e85d 883d bfec a9bd
00000390: 40b4 97bb e225 7fbc 3bf7 a9bd d184 e9bc
000003a0: 2642 3fbd 415a 853c 493d 373b e2af e9bb
000003b0: 24f2 df3c 8633 2c3d 3f45 9d3d 0c84 95bd
000003c0: d9cb 39bc eb0b 2fbc 3079 813c 4226 513c
000003d0: 9309 8a3b eeab 1fbd 84c3 4a3d 4b52 b43d
000003e0: d1a5 893d 3796 883d 56ad e23b c04c 943d
000003f0: 58e8 d4bc 48bc e53c 2e46 b93c d07d 883c

4.bias f4 [64]
0.030362505 -0.025132017 0.07372932 0.03147317 -0.019129084 0.07565265 0.011715938 -0.08539579
-0.004033938 -0.04631274 0.031314664 0.02157986 -0.011019135 0.044299845 -0.029417953 -0.020697432
-0.010912167 0.07791576 0.049495634 0.054276206 0.014649822 0.07311911 -0.03944945 0.08241265
0.03729308 0.057183728 -0.054344557 -0.032688327 0.07084741 -0.08111674 -0.044154987 0.05139
-0.083266996 -0.022694591 0.03847627 -0.07846392 0.03486658 -0.049570058 -0.06538131 0.07574626
-0.012862722 0.080262266 -0.0009649521 -0.07879008 -0.06157429 -0.05565053 0.086743094 0.060110107
0.021121377 -0.04051996 -0.039134424 -0.07477993 0.013160722 0.08667953 -0.03440169 0.06321474
-0.045756787 -0.03383925 -0.07867462 -0.04170064 0.075801514 0.045903996 0.029258985 -0.033906814
00000000: caba f83c a9e1 cdbc 66ff 963d 03ea 003d
00000010: 99b4 9cbc c7ef 9a3d 35f4 3f3c fde3 aebd
00000020: 202f 84bb 6db2 3dbd ce43 003d 3fc8 b03c
00000030: 9a89 34bc c173 353d ebfd f0bc a98d a9bc
00000040: f2c8 32bc 4c92 9f3d efbb 4a3d ba50 5e3d
00000050: cf05 703c 79bf 953d bf95 21bd f7c7 a83d
00000060: a1c0 183d 7c39 6a3d 6698 5ebd 32e4 05bd
00000070: 7218 913d 8920 a6bd dcdb 34bd 527e 523d
00000080: e387 aabd 02ea b9bc 4b99 1d3d b1b1 a0bd
00000090: 42d0 0e3d f909 4bbd a3e6 85bd db20 9b3d
000000a0: 2bbe 52bc 8b60 a43d d7f4 7cba b25c a1bd
000000b0: 5335 7cbd cff1 63bd 5da6 b13d 0436 763d
000000c0: bd06 ad3c 42f8 25bd 6b4b 20bd 3826 99bd
000000d0: 12a0 573c 0a85 b13d c9e8 0cbd bb76 813d
000000e0: 786b 3bbd 079b 0abd 2920 a1bd 4ace 2abd
000000f0: d33d 9b3d d405 3c3d 8ab0 ef3c dfe1 0abd

6.weight f4 [32, 64]
-0.07371758 -0.029688358 0.09478125 0.08433738 -0.0987207 0.056647852 0.046057224 0.10122289
0.088597134 0.06505419 0.06723356 0.026794106 -0.06098278 -0.11616182 -0.035662442 -0.10808593
0.058831513 -0.039541066 0.09005019 -0.031622693 -0.007917792 -0.06062548 0.038118824 0.030185789
-0.08989903 0.003289178 0.027855128 0.02796413 -0.107902035 0.094971284 0.058246702 -0.1003734
0.030555293 0.057822585 0.090004995 0.068501145 0.08805163 -0.01595065 0.0029806346 0.01629369
-0.028737187 -0.04783207 0.03511201 0.07731138 -0.06282085 -0.04320447 0.0372241 -0.10098536
-0.0064154863 -0.026262686 -0.01956214 -0.10263571 0.06432977 -0.11265236 0.07993543 -0.1174486
0.0029682517 0.10893683 0.03212951 0.118965 0.040529236 0.00017414987 0.034302533 -0.063081756
-0.11889778 0.016567841 0.008386135 0.06968488 0.05978526 0.07958765 0.014619678 0.072169214
0.110490814 -0.0922751 0.03115289 0.08694853 -0.12025501 -0.014131382 -0.08171441 0.11108993
-0.052649364 0.10368493 0.06992747 0.038234174 0.06193231 -0.004375145 -0.004534021 -0.039720774
0.07100482 -0.0033309013 0.008087918 -0.013354301 0.0006032288 0.07293649 0.084415704 0.07559268
0.11640373 -0.10868424 -0.053971678 -0.07488765 0.108296245 -0.0670712 -0.03849022 0.056967884
-0.09316191 0.07414323 -0.08825128 -0.02997978 -0.10261144 0.052063674 -0.06729886 0.05885449
0.09066181 0.03325197 -0.10883699 0.09480129 0.10683389 0.07106489 0.11999723 0.10314369
0.0019173175 0.105193734 -0.12385316 0.10711098 -0.017930776 0.0440958 0.12160161 0.08076927
-0.051562726 -0.061089694 -0.09194194 -0.031232655 -0.021838278 -0.08145879 0.09773226 -0.0569095
0.0023508966 0.0628909 -0.012557685 -0.103808284 -0.10814531 -0.067599595 -0.09623402 -0.04683584
-0.11685903 0.017305613 -0.078874975 -0.055275634 0.11198582 -0.054982334 -0.009594411 -0.08212909
0.055835053 0.05482234 0.10476136 0.04543838 0.0225946 0.05231245 0.05245225 -0.050336227
0.0019325316 -0.04322985 0.061472833 0.11667991 0.108845845 -0.031263947 0.025001466 -0.0868694
-0.10907033 -0.1080285 0.065537006 0.10751577 -0.05196029 -0.027304128 -0.04798995 -0.021591052
0.029727057 0.109483615 0.048384026 -0.007281184 -0.026926279 0.03516768 -0.12490407 0.056581795
-0.07002604 0.011213243 0.0013222396 0.08853099 -0.116539255 0.028930053 0.00547415 -0.006134838
-0.087218165 0.07347256 0.06695548 0.08819072 0.040157005 0.034857377 0.059752375 0.09215027
0.068323284 -0.02688019 0.07975195 -0.028231874 0.11958836 -0.07030851 0.06419936 0.090262726
-0.08182378 0.108631134 -0.08622484 0.0972431 -0.08006865 0.07944161 -0.11313462 -0.11369796
-0.054452613 -0.119232 0.1042393 0.08948064 -0.030923665 -0.058966175 0.0038942397 0.02638027
-0.07545628 -0.04232271 0.07715 -0.060596332 -0.11099839 0.016970038 -0.05881709 -0.11678256
-0.119091004 -0.09448372 -0.088749096 0.09443906 0.118743375 0.028846115 -0.046005115 -0.06702992
-0.013272032 0.04829797 0.008852154 -0.11238667 0.071398675 -0.09281404 0.0021577477 0.08523074
0.06175986 -0.035476327 0.06447381 -0.090012625 0.09382112 -0.04987192 -0.10650119 0.09636326
00000000: 3ef9 96bd 0035 f3bc ac1c c23d 14b9 ac3d
00000010: 142e cabd 9407 683d 80a6 3c3d f24d cf3d
00000020: 6a72 b53d 223b 853d c0b1 893d 507f db3c
00000030: 14c9 79bd 40e6 edbd c812 12bd 285c ddbd
00000040: 50f9 703d d0f5 21bd 3c6c b83d cc86 01bd
00000050: a0b9 01bc 6c52 78bd 7c22 1c3d 3048 f73c
00000060: fc1c b8bd 408f 573b 7030 e43c 0815 e53c
00000070: befb dcbd 4e80 c23d 1894 6e3d 9290 cdbd
00000080: 184f fa3c 60d7 6c3d 8a54 b83d 544a 8c3d
00000090: 6a54 b43d f0aa 82bc c056 433b 587a 853c
000000a0: 406a ebbc 90eb 43bd 9cd1 0f3d 6e55 9e3d
000000b0: 38a8 80bd 2cf7 30bd 4c78 183d 6ad1 cebd
000000c0: 0039 d2bb d824 d7bc c840 a0bc ac32 d2bd
000000d0: 54bf 833d 48b6 e6bd 30b5 a33d e488 f0bd
000000e0: 0087 423b 461a df3d 3c9a 033d eca3 f33d
000000f0: fc01 263d 009c 3639 d080 0c3d 0231 81bd
00000100: ae80 f3bd 48b9 873c 0066 093c f2b6 8e3d
00000110: 64e1 743d dafe a23d 6087 6f3c 74cd 933d
00000120: 0249 e23d bafa bcbd 5834 ff3c 1212 b23d
00000130: 4248 f6bd 5087 67bc e259 a7bd 1e83 e33d
00000140: dca6 57bd c458 d43d 2236 8f3d 709b 1c3d
00000150: bcac 7d3d 605d 8fbb 2092 94bb 40b2 22bd
00000160: fa6a 913d 404b 5abb 3083 043c 00cc 5abc
00000170: 0022 1e3a ba5f 953d 24e2 ac3d 56d0 9a3d
00000180: 1465 ee3d d895 debd 6811 5dbd b25e 99bd
00000190: 6cca dd3d a05c 89bd eca7 1dbd 2857 693d
000001a0: accb bebd 68d8 973d 16bd b4bd 2898 f5bc
000001b0: f225 d2bd b840 553d fcd3 89bd 6811 713d
000001c0: e6ac b93d 3833 083d eee5 debd 2e27 c23d
000001d0: bacb da3d 788a 913d 1cc1 f53d 003d d33d
000001e0: 804e fb3a d06f d73d baa6 fdbd 005d db3d
000001f0: 90e3 92bc cc9d 343d 440a f93d 5c6a a53d
00000200: 7033 53bd 3039 7abd 0e4c bcbd a0db ffbc
00000210: 30e6 b2bc ded3 a6bd da27 c83d f019 69bd
00000220: 8011 1a3b f2cc 803d c0be 4dbc 7099 d4bd
00000230: 4a7b ddbd a871 8abd 5816 c5bd f0d6 3fbd
00000240: ca53 efbd 80c4 8d3c 3489 a1bd b468 62bd
00000250: d258 e53d 2835 61bd e031 1dbc 4c33 a8bd
00000260: 4cb3 643d 648d 603d 208d d63d 981d 3a3d
00000270: 5018 b93c 9445 563d 2cd8 563d 5c2d 4ebd
00000280: 004d fd3a c811 31bd f0ca 7b3d e0f5 ee3d
00000290: 92ea de3d a00e 00bd e0cf cc3c 96e8 b1bd
000002a0: 4460 dfbd 0c3e ddbd 4438 863d 3a31 dc3d
000002b0: 50d4 54bd e8ac dfbc 1c91 44bd b8df b0bc
000002c0: 2886 f33c f238 e03d 542e 463d 0097 eebb
000002d0: 8094 dcbc fc0b 103d b4cd ffbd 50c2 673d
000002e0: d069 8fbd c0b7 373c 004f ad3a bc4f b53d
000002f0: 22ac eebd b8fe ec3c 8060 b33b c006 c9bb
00000300: 709f b2bd c878 963d f41f 893d 569d b43d
00000310: ac7b 243d 9cc6 0e3d e8be 743d 48b9 bc3d
00000320: 14ed 8b3d d833 dcbc fe54 a33d 8846 e7bc
00000330: beea f43d e8fd 8fbd f47a 833d aadb b83d
00000340: 3a93 a7bd 007a de3d a696 b0bd 6427 c73d
00000350: 08fb a3bd 48b2 a23d 20b3 e7bd 7ada e8bd
00000360: b409 5fbd e82f f4bd 6a7b d53d a041 b73d
00000370: a053 fdbc 8486 71bd 8036 7f3b 701b d83c
00000380: d288 9abd 945a 2dbd d200 9e3d dc33 78bd
00000390: 2053 e3bd c004 8b3c 30ea 70bd b22b efbd
000003a0: fce5 f3bd ae80 c1bd 16c2 b5bd 4469 c13d
000003b0: ba2f f33d b04e ec3c dc6f 3cbd fc46 89bd
000003c0: f072 59bc 18d4 453d a008 113c fc2a e6bd
000003d0: 7839 923d 4a15 bebd 0069 0d3b 748d ae3d
000003e0: e8f7 7c3d a04f 11bd d80a 843d 8a58 b8bd
000003f0: 4a25 c03d 8046 4cbd 4c1d dabd 1a5a c53d

6.bias f4 [32]
0.03047657 0.04142964 -0.0041797757 0.103678256 -0.048577145 -0.014967069 0.080031544 0.0047249347
0.07650371 0.08801125 0.0067643225 0.07673995 0.030825898 -0.070383176 0.0858804 0.070728764
-0.098204136 0.094790235 -0.06793663 0.021527648 0.10583159 -0.0352512 0.11800519 0.02084148
0.025138542 -0.009357542 0.078978926 -0.09735578 -0.1024203 0.023974836 -0.037146106 -0.026634932
00000000: 00aa f93c 20b2 293d 80f6 88bb 4455 d43d
00000010: d4f8 46bd 7038 75bc 94e7 a33d a0d3 9a3b
00000020: faad 9c3d 3e3f b43d 40a7 dd3b d629 9d3d
00000030: 9886 fc3c 0e25 90bd 10e2 af3d 3eda 903d
00000040: 401f c9bd 6221 c23d 5c22 8bbd c05a b03c
00000050: 3cbe d83d 9063 10bd b4ac f13d c0bb aa3c
00000060: 58ef cd3c 6050 19bc b4bf a13d 7862 c7bd
00000070: bcc1 d1bd e066 c43c 8426 18bd 8031 dabc

8.weight f4 [12, 32]
-0.16180478 0.11266733 -0.15258521 0.030416284 -0.03639389 -0.018131595 0.112885445 0.14545229
0.07751671 0.106868915 -0.05776095 -0.054182153 0.0033558584 0.1336511 -0.12343518 0.08297239
-0.1662767 0.028635917 0.12271404 0.05805981 0.13300306 -0.17370105 -0.043162145 0.10822116
-0.10376841 0.01879212 0.091587394 0.1637381 0.050524544 0.13549286 -0.013493334 -0.005217674
-0.10814831 0.094866104 -0.13961044 -0.09554554 0.15941554 0.02177776 0.17315763 0.06299763
0.061255448 0.10925976 -0.038201332 -0.00544826 -0.16864975 -0.020590654 0.071387656 0.04775569
0.14583807 0.16698729 0.06346702 0.15826526 -0.042771485 0.14762825 0.12166012 -0.06932255
-0.06481237 0.14999025 0.0061182682 -0.045228984 -0.17262614 -0.08541779 0.10599302 -0.12955864
0.14529558 0.13389693 0.06756403 0.046707116 -0.092176065 -0.10467663 0.086624146 -0.06695271
0.14464077 0.15172552 0.1557239 0.027545178 -0.0612769 0.10675027 0.103269726 0.025717754
-0.0022095065 0.16620785 0.11446479 0.082538135 0.024179814 0.13640194 -0.040647265 -0.12484196
-0.084077016 -0.026485037 0.05728846 0.059992794 0.14837603 0.12515064 0.15003486 0.08104388
-0.013323314 -0.1762971 -0.17229956 0.09581489 0.15839437 -0.010090925 -0.07263577 0.0013353175
-0.15295848 -0.036527157 0.033376805 -0.12200926 0.16367172 -0.12828436 0.05530368 -0.10730977
-0.089025185 -0.09300435 0.033812962 0.124125905 -0.1559657 0.02663607 0.040586952 0.05496269
-0.14127214 0.13077658 0.054665495 0.13475445 0.124189965 -0.12842962 -0.106206894 0.021781618
0.08290534 0.021565888 0.03085851 0.08422392 0.027307702 0.17485847 0.034114145 -0.03503387
-0.04218282 0.026547119 0.16790242 -0.028952904 0.10516332 -0.14448419 0.0003621468 -0.06796272
-0.09113301 -0.012900054 0.14284927 0.115827754 -0.1577617 0.11967939 0.015123954 0.15926002
0.1301137 0.067847595 0.07980813 -0.1068407 0.08772651 -0.020890906 -0.048162676 0.022696646
-0.12523614 -0.01023041 0.06875881 -0.16492657 -0.15423365 -0.16672944 0.035216093 -0.012117556
-0.09948134 0.17660561 0.04568535 0.012214451 0.04653598 -0.081809394 -0.1279461 -0.16232748
0.13387516 0.09735464 -0.07248632 -0.10268633 0.14013796 0.06095216 -0.059626177 -0.02621536
0.12253374 -0.09947351 -0.1006424 0.08994546 0.11048552 0.13679697 0.16409414 0.078037225
-0.10655233 -0.003455578 -0.1151454 0.13143907 -0.042397726 -0.037731335 -0.11266139 -0.12298762
0.14104435 0.14678568 0.007556382 -0.04515997 -0.12978283 0.055374257 -0.08542132 -0.027334929
0.036984786 -0.13419063 -0.054213554 0.08689329 0.054484747 -0.006382592 -0.1717163 -0.043828696
0.0015275703 -0.16759484 -0.14460836 0.12298528 0.07135668 0.05581977 -0.061277997 0.043734036
0.12544706 0.14564471 -0.07817736 0.12504394 0.012227496 -0.014270227 0.15792488 -0.12953363
0.122637674 0.10899483 -0.035389632 -0.15452649 -0.103212066 -0.15402052 -0.06669821 -0.14563136
0.012654254 -0.053297702 0.14055683 0.041615862 0.10614142 -0.1647046 -0.10415896 0.052467663
-0.07770568 0.09116245 0.10282619 0.012867791 0.14456593 0.14292215 0.1513399 -0.10514412
00000000: 27b0 25be 21be e63d 4c3f 1cbe 922b f93c
00000010: c211 15bd b688 94bc 7c30 e73d 72f1 143e
00000020: 15c1 9e3d 17de da3d bf96 6cbd 1bee 5dbd
00000030: f6ed 5b3b d5db 083e 95cb fcbd 6eed a93d
00000040: 7044 2abe df95 ea3c 8051 fb3d 20d0 6d3d
00000050: f431 083e b0de 31be caca 30bd 0ea3 dd3d
00000060: 8884 d4bd eff1 993c 2c92 bb3d f6aa 273e
00000070: d3f2 4e3d a4be 0a3e 2513 5dbc 06f9 aabb
00000080: dc7c ddbd 2949 c23d 0af6 0ebe 61ad c3bd
00000090: d43d 233e 4667 b23c 3c50 313e e704 813d
000000a0: fee6 7a3d 95c3 df3d 0079 1cbd 5187 b2bb
000000b0: 85b2 2cbe bbad a8bc b133 923d 789b 433d
000000c0: 9356 153e b7fe 2a3e fffa 813d 4a10 223e
000000d0: 2731 2fbd dc2b 173e f128 f93d fbf8 8dbd
000000e0: 59bc 84bd 0b97 193e c17b c83b 0742 39bd
000000f0: e8c4 30be 86ef aebd de12 d93d 05ab 04be
00000100: 5dc8 143e 471c 093e 035f 8a3d f64f 3f3d
00000110: cec6 bcbd b360 d6bd 0068 b13d 811e 89bd
00000120: b61c 143e ef5d 1b3e 1676 1f3e 6da6 e13c
00000130: 7dfd 7abd e39f da3d 147f d33d 0aae d23c
00000140: 5ecd 10bb 6432 2a3e 846c ea3d c109 a93d
00000150: bf14 c63c f3ac 0b3e bf7d 26bd 24ad ffbd
00000160: 9230 acbd 26f7 d8bc 4ea7 6a3d 01bb 753d
00000170: e3ef 173e 7d27 003e bda2 193e 55fa a53d
00000180: 074a 5abc 3a87 34be 4c6f 30be 993a c43d
00000190: 2232 223e 6854 25bc 10c2 94bd d205 af3a
000001a0: 26a1 1cbe 809d 15bd 1eb6 083d fedf f9bd
000001b0: 8f99 273e fa5c 03be 1d86 623d 3ac5 dbbd
000001c0: d652 b6bd 1179 bebd 767f 0a3d b935 fe3d
000001d0: 79b5 1fbe e333 da3c 813e 263d 8f20 613d
000001e0: a5a9 10be 4cea 053e ede8 5f3d 12fd 093e
000001f0: 4f57 fe3d 0e83 03be 0083 d9bd 5d6f b23c
00000200: 46ca a93d f2aa b03c fcca fc3c 977d ac3d
00000210: 67b4 df3c 190e 333e 46bb 0b3d ad7f 0fbd
00000220: e5c7 2cbd 5879 d93c 9dee 2b3e a42e edbc
00000230: de5f d73d aaf3 13be 85de bd39 0a30 8bbd
00000240: f2a3 babd c05a 53bc 1447 123e 1a37 ed3d
00000250: 488c 21be 781a f53d 76ca 773c 0f15 233e
00000260: 873c 053e aef3 8a3d 7272 a33d 4ccf dabd
00000270: f5a9 b33d 6823 abbc 3a46 45bd 51ee b93c
00000280: e73d 00be 739d 27bc 6bd1 8c3d 83e2 28be
00000290: 6def 1dbe 1fbb 2abe c03e 103d b788 46bc
000002a0: dfbc cbbd 1ad8 343e 9020 3b3d 1f1f 483c
000002b0: 839c 3e3d af8b a7bd 4d04 03be 2d39 26be
000002c0: 9216 093e df61 c73d b573 94bd 364d d2bd
000002d0: 5380 0f3e f9a8 793d 943a 74bd 98c1 d6bc
000002e0: f8f2 fa3d c5b8 cbbd 9a1d cebd 5335 b83d
000002f0: 3b46 e23d 8114 0c3e 4b08 283e fbd1 9f3d
00000300: 1c38 dabd fa76 62bb 5ad1 ebbd f797 063e
00000310: 3da9 2dbd 2c8c 1abd 04bb e6bd efe0 fbbd
00000320: ee6d 103e fc4e 163e 879b f73b a9f9 38bd
00000330: cae5 04be 1ed0 623d 5ff1 aebd 80ed dfbc
00000340: 5c7d 173d 4569 09be 080f 5ebd 1cf5 b13d
00000350: 662b 5f3d 1025 d1bb 66d6 2fbe b885 33bd
00000360: c138 c83a fb9d 2bbe 3714 14be b5df fb3d
00000370: 7323 923d 45a3 643d a3fe 7abd 7622 333d
00000380: 3275 003e e323 153e 741b a0bd 850b 003e
00000390: d655 483c accd 69bc 0fb7 213e 77a4 04be
000003a0: 7629 fb3d ae38 df3d b8f4 10bd 313c 1ebe
000003b0: d960 d3bd 8eb7 1dbe 1299 88bd 6320 15be
000003c0: ca53 4f3c b14e 5abd 21ee 0f3e 6575 2a3d
000003d0: ac60 d93d 53a8 28be 4b51 d5bd 55e8 563d
000003e0: 2824 9fbd 61b3 ba3d 8a96 d23d 6dd3 523c
000003f0: 1709 143e 2f5a 123e d9f8 1a3e cd55 d7bd

8.bias f4 [12]
-0.10701177 -0.11776261 0.030137336 -0.08194382 -0.0072210194 -0.041817132 0.06334296 -0.17594148
0.018749973 0.11221697 0.14843321 0.12551944
00000000: fd28 dbbd 862d f1bd 93e2 f63c 29d2 a7bd
00000010: 4d9e ecbb 7148 2bbd f4b9 813d 012a 34be
00000020: 8b99 993c 03d2 e53d e0fe 173e 2b88 003e
