unitree_4_sa.pt (torch, 85182 bytes, 10 tensors)

0.weight f4 [64, 19]
00000000: d4e6 933d b3fc dfbd cc01 21be 9c13 3c3e
00000010: b763 683d 3f3d 833b 6bb4 353d 1989 133e
00000020: 2abd 693e 15a5 9cbd 9830 453e c725 923d
00000030: 5c5d 1cbe 5733 e2bc 5d7f 433e 257a 3a3d
00000040: 381c 3c3e 7405 afbd 0205 7c3d 06f9 5139
00000050: e042 ecbd 9fcd 50be 3611 fb3d d84b f8bd
00000060: 66bd 563e 67b4 313e 9693 2b3e 8979 393e
00000070: fdd8 03be d99e 65bd cd57 18be 78f6 1bbe
00000080: b786 2ebb 3554 183e 643f 8c3d 06e1 68be
00000090: bd79 38be 4fb8 62be 0efc f13d 6dd3 83bd
000000a0: 1452 5dbe ada8 473c 455b a9bd cca8 69be
000000b0: 657e 31be bd27 54bd 0e71 f23d 078d 14be
000000c0: 0cc6 bf3a 956b 31be 9992 6ebc 30e6 21be
000000d0: c002 cd3d 2abf 2f3e f932 0abe 9ad6 373d
000000e0: 1d25 5bbe 1e41 0cbe 310c 9abd f519 393e
000000f0: 9357 28be 98f8 133e 0900 e53c f160 32bd
00000100: 5a3a 3abe 3b99 0abe 4bf3 22be 5f10 223d
00000110: 0cab 7c3d 32bb 183e cb7f b9bd 0f73 5abe
00000120: cb17 053d 4a2e 9abd b4f9 8f3d 3a83 c73c
00000130: 5f86 2ebc 139b 2ebd 76da b53d c278 403e
00000140: 707e 9dbd 3685 17be 856f 463e 9230 d3bd
00000150: e79b b53c feb9 e43d 5e83 353e 9438 a13b
00000160: d86d f5bd a249 0ebe c246 cc3d c665 edbc
00000170: 74ab 503d 238c 823b 70f4 46be 0162 16be
00000180: 461c 703b 6539 debd ced0 d13d 38ef 74bc
00000190: 10b1 373c eed5 9f3d 7665 453d a2e4 bfbd
000001a0: bbfc 303e 680c ffbd 2499 4abe 859d f4bd
000001b0: 05c0 6f3d 03d6 913d 1609 77bd 4388 84bd
000001c0: c6f6 ba3b 8358 453e c74e eabd fee8 823d
000001d0: e62c 0cbe 0856 0c3e 5636 a8bd aed4 0ebd
000001e0: e782 aabd b7fc 0dbe 9872 093e 0462 33be
000001f0: e158 423e e8f2 0cbd fa98 a2bd c125 8cbc
00000200: fd26 063e f059 3dbe e084 27be 1f6e c23d
00000210: 0990 05bd 0a20 323e c2f4 1e3d 9b9a d0bd
00000220: 2396 c7bd e48f 9bbd 7b03 f5bd ef6f d2bd
00000230: 548b da3d ebbc 633e 01ff 303e 80c7 4c3e
00000240: beab 243d a843 01be a20f 253e e828 8bbd
00000250: dfa6 8a3d 86e1 34be 4ade 9fbd 4ec3 a03d
00000260: f164 b3bd a09c be3d 2657 52be cefc 993d
00000270: 1e78 2dbe bed0 393e fafd deba 77be 283e
00000280: dd72 dc3d fd05 a5bc c657 283d 1ab9 003e
00000290: cf71 fbbc a0dd e13d cda6 b0bd aed1 0a3e
000002a0: 1b1b a8bd 81d8 813b dfe1 5ebc e836 5cbe
000002b0: 4ca7 2fbe 30c1 85bd fcda e2bc 2125 963d
000002c0: 875c 613e 21ac 603e e58a c9bd 9579 d33c
000002d0: 1858 70bd 44a5 ef3d a45a 623e ee1a af3d
000002e0: b2ff a4bd 01a8 c43d 6a87 eebd 08fd 21be
000002f0: 4b15 8c3d 729c 333d 4155 74bd 6e10 b3bd
00000300: dcc8 643e dcd9 273e b450 3e3e 250e cf3d
00000310: 822a 13bd d0b4 bebb 1523 36be ecac 45bd
00000320: 904c 4dbd e226 a23c 0915 0cbe 82ae 3d3d
00000330: 37a4 2cbe 3e10 e03d bd40 283e 3646 e1bd
00000340: 9a25 fa3d 1909 0d3e cfd4 cbbd 3ceb 16be
00000350: 9129 203e 503e 0fbe e23d 543e f32e 993c
00000360: 7bfc 56be eec7 4dbc 2190 6ebd cb7b 283d
00000370: 991f 2c3e 42e1 b23d 3cbe a8bc b657 31be
00000380: 6812 68be 3ada 933d 8f25 bdbd 4bf5 ab3d
00000390: 98dc 393d ac34 2b3d 8b6b 693e 7352 4a3e
000003a0: f9a8 59be 0d70 09be 7947 603d 8840 b93c
000003b0: 8d5b 0abe 5b8c 62bd 79c2 15be b364 5a3e
000003c0: 3724 5f3e 55c4 60bc a31b d4bd 6065 c4bc
000003d0: d238 2f3e 8528 8c3d 97d8 00bd 6214 123e
000003e0: ceb5 5dbe 865b 30be 341d 383e 1b18 003e
000003f0: f79a a63d 8d69 86bc 9077 1f3e 8cb3 c63d
0.07221761 -0.109368704 -0.15723342 0.18366855 0.05673572 0.004005104 0.044361513 0.14407767
0.22826067 -0.076486744 0.19256818 0.07136112 -0.15269989 -0.027612371 0.19091554 0.045526642
0.1837014 -0.08545962 0.061528213 0.00020024562 -0.11536193 -0.20390938 0.12259142 -0.12123841
0.20970687 0.17353974 0.16755518 0.18112768 -0.12875743 -0.056059692 -0.14877243 -0.15230739
-0.002663059 0.14875872 0.06848028 -0.2274209 -0.1801519 -0.2214062 0.11815654 -0.06436811
-0.21613342 0.0121862115 -0.082693614 -0.22818297 -0.17333372 -0.05179571 0.1183797 -0.14506923
0.0014631166 -0.17326196 -0.014561319 -0.15810466 0.1001029 0.17162767 -0.13496007 0.044882394
-0.21400876 -0.13696715 -0.075218566 0.18076308 -0.16439657 0.144503 0.027954118 -0.04354948
-0.18186322 -0.13535015 -0.15913121 0.039566394 0.06168656 0.1491516 -0.09057578 -0.21332954
0.032493394 -0.0752836 0.07030049 0.024354566 -0.010652154 -0.04262836 0.08879559 0.18796065
-0.07690132 -0.1479691 0.19378479 -0.103119984 0.022169067 0.11168288 0.17725894 0.0049200747
-0.11983842 -0.13895276 0.099744335 -0.028979193 0.05094476 0.0039839908 -0.19429183 -0.14685823
0.0036637946 -0.10850791 0.102449045 -0.014949612 0.011211649 0.07804476 0.048192464 -0.0936978
0.17283909 -0.12453538 -0.19784981 -0.11944107 0.058532733 0.071208976 -0.0603114 -0.06471302
0.005705687 0.19272046 -0.11440807 0.06392096 -0.13689002 0.13704693 -0.08213489 -0.034870796
-0.08325749 -0.13865934 0.1342262 -0.17517859 0.18979217 -0.03441134 -0.07939334 -0.017107846
0.1310081 -0.1849134 -0.16359282 0.0949366 -0.032608066 0.17395034 0.038807638 -0.10185739
-0.09745433 -0.07595804 -0.119635545 -0.10275256 0.10671106 0.22240035 0.17284776 0.19997978
0.04020285 -0.12623465 0.16119245 -0.067949116 0.067701094 -0.17664155 -0.0780607 0.078497514
-0.087594874 0.093072176 -0.20541057 0.07518922 -0.16940352 0.18146035 -0.0017012947 0.16478907
0.10764096 -0.020144457 0.041099332 0.1257061 -0.030693917 0.110286 -0.08625565 0.13556549
-0.08208295 0.003962577 -0.013603657 -0.2150532 -0.17153662 -0.06530988 -0.02769231 0.073313005
0.22007953 0.21940662 -0.09840945 0.02581481 -0.058677763 0.11701444 0.22104889 0.08550058
-0.080565825 0.09602357 -0.11646922 -0.1581918 0.06839999 0.04385037 -0.059651617 -0.08743368
0.22342247 0.163917 0.18585473 0.1011012 -0.03592921 -0.0058198944 -0.1778682 -0.048260614
-0.050121844 0.019793931 -0.136799 0.046309 -0.16859518 0.10940598 0.16430946 -0.1099972
0.12214203 0.13773002 -0.099526994 -0.14738172 0.15640856 -0.13988614 0.20726731 0.018699145
-0.20994751 -0.012559874 -0.05824292 0.041133683 0.16808929 0.08734371 -0.020598523 -0.17318615
-0.22663271 0.07219358 -0.09235679 0.08396395 0.04537639 0.04179828 0.2279493 0.19758014
-0.21255864 -0.1342165 0.05475566 0.022613779 -0.13511486 -0.055309635 -0.14624967 0.21327476
0.21791159 -0.013718684 -0.10356834 -0.02397412 0.17111519 0.06843666 -0.031456556 0.14265588
-0.21651384 -0.17222413 0.1797989 0.12509196 0.08135026 -0.016407752 0.15572953 0.097022146

0.bias f4 [64]
00000000: 95ec f03d 23a4 9bbd 530c 4fbc de15 203e
00000010: df98 4cbe 7381 893d c078 163e e2c0 5a3e
00000020: 519f 303e ab20 173b a8ab 23be 96e5 37be
00000030: 9c36 1bbe c2eb 843d afe2 143e 7a9b 2c3d
00000040: 374b 38be 9ef6 1b3e 60c7 183e 236e afbd
00000050: 20ce 28bc 0ed5 283e b997 82bc 0c96 a4bd
00000060: d503 553d 8c8f 833d 9884 0c3e 8c73 813d
00000070: 8655 91bd 4c75 2abe 987c 483e c50c b93d
00000080: 515b 3cbe 4275 e0bd efae d33d 63fe 613e
00000090: fbb8 623e 5cd3 8e3d 4bd7 2fbe ecea 1cbe
000000a0: 9871 1b3d 91ec 5ebd 5b28 65ba fa17 43be
000000b0: f85c 47bc 4fc5 91bd c739 5cbe eb48 82bd
000000c0: d194 0cbe ce7e 1c3e 5429 3fbe ee9a 31be
000000d0: 77e5 493e 3a14 913d 2631 62be d29c b3bc
000000e0: 35e9 0dbe 8e53 3e3e 6a9f 21be 9df6 053e
000000f0: 9a22 2c3e 8deb b33d b7f9 423e 5e87 4b3e
0.117638744 -0.07599666 -0.012637216 0.15633342 -0.1998019 0.067141436 0.146945 0.21362641
0.17248274 0.0023060243 -0.1598345 -0.17958674 -0.1515755 0.0649028 0.14539598 0.04214046
-0.17997442 0.15230796 0.14919806 -0.08565929 -0.01030305 0.16487524 -0.015941488 -0.08036432
0.052005608 0.06423864 0.13722456 0.06320867 -0.070963904 -0.16646308 0.19578779 0.09035639
-0.1839421 -0.10959865 0.103361 0.22069697 0.22140877 0.06973907 -0.17171971 -0.1532399
0.03795013 -0.054424826 -0.000874167 -0.19052115 -0.012168162 -0.07117712 -0.21506415 -0.06361564
-0.13728644 0.15282747 -0.18668109 -0.17344257 0.1971644 0.07083936 -0.22089061 -0.021925364
-0.13858493 0.18586561 -0.15783468 0.13082357 0.16810074 0.08785162 0.19040571 0.19875857

2.weight f4 [128, 64]
00000000: 9880 32bd 6cf1 713d e4fd 503d 7425 583d
00000010: 20bf bc3b 4486 273d a668 bfbd f84d eebd
00000020: f6c1 ec3d 80f1 763b 04e7 6ebd 74aa bebd
00000030: c4a6 6dbd 286d ef3d 1072 65bd d0ef 543d
00000040: 1031 133d ac24 923d 26c4 87bd 6c60 403d
00000050: 40a6 e83b 5035 d13c 44a4 63bd c84d edbc
00000060: f410 28bd c034 043d 60ba 1d3d 7061 953c
00000070: 4076 23bb 8e39 cabd e299 a5bd 4880 80bd
00000080: 7276 edbd 8418 183d 6826 d23c 4a65 f3bd
00000090: a0d2 8fbb 880f 94bd 000c ab3c d055 cc3d
000000a0: 008b dcbc 24fd 323d aa98 e93d c26b b93d
000000b0: 08a5 933d 282a 96bc c451 0fbd 70f4 fa3c
000000c0: c42d 70bd a454 b13d 10f7 88bd b4e0 ef3d
000000d0: 70ce 34bc 800a 44bc a8dc 8c3c f262 cebd
000000e0: 207e 523c b81e cc3d e44b 46bd 20fe 643c
000000f0: 7805 953c c4f1 fc3d 9e0e ee3d 0e3a 873d
00000100: a4ff 59bd 28d7 e9bc 2a26 8d3d a8f2 48bd
00000110: 46e8 fb3d d677 e7bd 483e d33d ee44 e43d
00000120: 9c6a df3d e428 c3bd 5009 cdbd 508a e9bc
00000130: 8498 193d d842 603d 7aac eebd 1c67 433d
00000140: 3472 c63d b8d6 c83c 9ce3 d0bd c4c4 ea3d
00000150: d6da f33d 82c4 dabd 3094 103c 6081 193c
00000160: deca bfbd aede aebd 7a8a d13d 34cd 71bd
00000170: 90d0 183c 7a82 f53d 90eb 8b3d f418 f1bd
00000180: b08d 083d 3470 053d 9060 3c3c 86eb e4bd
00000190: b446 c83d 7a10 bebd 0888 9dbc ca01 90bd
000001a0: bad5 cfbd 72c6 d23d fa50 c73d 2aeb 85bd
000001b0: 4874 ba3c 2c1c 0dbd 68b7 9c3c a089 5a3c
000001c0: a240 bdbd 5cd1 c63d 0222 8fbd ae99 a9bd
000001d0: c00b 573c 1e03 fb3d a843 cf3c 807f 3ebd
000001e0: a0bf 1b3d 3e4f be3d c8ec 90bd 403d b3bd
000001f0: 227c d4bd 0acd b9bd d010 333d 1a9d ea3d
00000200: 1494 e1bd dcc4 5dbd 4672 c9bd 0c21 37bd
00000210: dc89 cd3d 6c69 ddbd c893 f3bc 86f0 8e3d
00000220: 6418 cabd eccd 0bbd 5205 883d a834 c13d
00000230: 94dc 923d 4842 b3bc de29 e43d 0020 bc37
00000240: d27b aebd 80ac bcbd 76c2 cc3d 86fd e63d
00000250: 9cea b9bd 062d b5bd 8e5e b53d 6cd9 3bbd
00000260: 0830 023d 34a5 66bd 3062 20bc ba8e a43d
00000270: f6e8 b63d 2e8a bb3d 34f8 93bd ae02 d9bd
00000280: b0d6 87bd 4c00 7a3d c4f3 ae3d 6891 623d
00000290: 2010 9bbc 6067 e13c fcb5 333d 86fd a9bd
000002a0: 382d b2bd 5826 babc 2c15 513d 007b c73b
000002b0: 62bb a63d 181f d93c 10d9 dabd 1aa4 c83d
000002c0: 64d3 fdbd 2c33 7f3d 84c8 ec3d 4452 f6bd
000002d0: c6f5 9d3d 40ed 873c ce56 9fbd 9c8e d7bd
000002e0: 02db f5bd 4024 933d 1817 ba3c c08f cdbd
000002f0: 0cb5 00bd f842 b9bd ee35 d23d 4cba a0bd
00000300: f03a 0cbd 045e 9a3d a279 f13d a0c0 c33c
00000310: a087 70bc c699 d63d 30c1 5a3c fc26 083d
00000320: 245c cbbd b806 fd3c c090 483c 1c75 5a3d
00000330: c88b f5bc e092 ecbd e0fe 373d d043 da3d
00000340: 5ea0 af3d 2c3c 28bd ce3e cbbd 8a3c 833d
00000350: 72ca 8f3d 4cb3 e7bd 60c2 b53b 5432 c83d
00000360: d8a1 403d 4069 233d 3aae b7bd b8b0 863d
00000370: 3066 a43c 004b bbbd 2ce4 37bd 2829 213d
00000380: e87a af3c 40a8 71bb b850 47bd 7cc5 d0bd
00000390: f429 893d 7c94 4d3d c886 f2bc f0fa 39bd
000003a0: aad4 91bd cc5d 823d c254 85bd 0c67 41bd
000003b0: ecb8 b2bd 7c6c 1b3d c0c5 153d 40c6 9abc
000003c0: e8fd 9a3d a026 9f3d 0284 b43d 60e1 2b3d
000003d0: 1c65 09bd 5217 a1bd 90e0 c73d 00e6 21bc
000003e0: c80b 783d 9ee2 b1bd f2e6 bd3d 58e3 bebd
000003f0: fc66 67bd 5a8b 833d 20ea 87bc 509c 763c
-0.043579668 0.05906813 0.05102338 0.052770093 0.0057600886 0.04089953 -0.09346132 -0.11635965
0.115604326 0.0037680566 -0.058325782 -0.09309855 -0.05802037 0.11690742 -0.05601698 0.051986516
0.03593546 0.07135901 -0.06629209 0.046966955 0.0070998967 0.025538117 -0.055576578 -0.028967753
-0.041031793 0.03227687 0.03850782 0.018234938 -0.0024942309 -0.09874259 -0.080859914 -0.06274468
-0.11594857 0.037132755 0.02565308 -0.11884554 -0.004389122 -0.07229525 0.020879745 0.09977305
-0.02692175 0.043698445 0.114060715 0.09053756 0.072092116 -0.018330649 -0.034990087 0.030634135
-0.058637396 0.08658722 -0.066877484 0.117127806 -0.011035547 -0.011965394 0.01719506 -0.10077466
0.012847453 0.09966797 -0.04841222 0.013976604 0.018191084 0.12350801 0.11623882 0.0660287
-0.053222314 -0.028544977 0.06892045 -0.04905954 0.12300162 -0.11302154 0.103146136 0.1114596
0.10909006 -0.09529284 -0.10011542 -0.028508335 0.037498966 0.054751247 -0.11653991 0.047705755
0.09689751 0.024516448 -0.10199663 0.11463311 0.11906974 -0.10682012 0.008824393 0.009369224
-0.09364866 -0.085385665 0.102314904 -0.059033588 0.009327069 0.11987777 0.06832039 -0.117723376
0.03333825 0.03257771 0.011497632 -0.11177735 0.097791106 -0.092804864 -0.019229904 -0.07031591
-0.10148187 0.10291757 0.09732242 -0.065389946 0.022760525 -0.034450695 0.019130424 0.013338476
-0.09240843 0.09707901 -0.06988908 -0.08281265 0.01312536 0.12256454 0.025300816 -0.046508312
0.038024545 0.09292458 -0.070764124 -0.08751917 -0.10375239 -0.09072311 0.043717206 0.11455746
-0.11014572 -0.054142818 -0.09836249 -0.04470925 0.1003606 -0.10811123 -0.029733554 0.0697947
-0.098679334 -0.03413193 0.0664164 0.094338715 0.07170978 -0.021882191 0.11140798 2.2426248e-05
-0.085197106 -0.09212589 0.09998028 0.112788245 -0.09077951 -0.08846478 0.088559255 -0.045861647
0.031784087 -0.056309894 -0.009789035 0.080350354 0.089311525 0.09157215 -0.07225075 -0.10596214
-0.06632745 0.06103544 0.08542588 0.05531445 -0.018928587 0.027515113 0.043874726 -0.08300309
-0.08700031 -0.022723362 0.05104558 0.006087661 0.08141209 0.026504084 -0.10685933 0.09796925
-0.12393835 0.06230466 0.11561683 -0.1202741 0.07712893 0.016592622 -0.077802286 -0.105252475
-0.12004663 0.071846485 0.02271609 -0.10037184 -0.03142266 -0.090459764 0.102641925 -0.07848033
-0.034235895 0.07537463 0.11790778 0.023895562 -0.014680773 0.10478549 0.013351724 0.033240303
-0.09929684 0.030886993 0.012241542 0.05333434 -0.02997388 -0.11551452 0.044920802 0.106574655
0.085755095 -0.04107301 -0.099240884 0.06408031 0.07021035 -0.11313495 0.005546853 0.09775224
0.047029346 0.039895296 -0.08968778 0.06576675 0.020068258 -0.091451645 -0.044895336 0.03934589
0.021420911 -0.0036873966 -0.048660964 -0.10193917 0.06697455 0.050190434 -0.029605284 -0.04540533
-0.071206406 0.063655466 -0.06510307 -0.047217414 -0.08726677 0.037945256 0.036565542 -0.018893361
0.0756796 0.07771039 0.08814241 0.04196298 -0.03354369 -0.07865776 0.09759629 -0.009881496
0.06055811 -0.08685802 0.09272565 -0.09320706 -0.056494698 0.064230636 -0.016591132 0.015051916

2.bias f4 [128]
00000000: 2c50 023d f886 14bd a83b a5bd c043 93bd
00000010: 44e7 eabd 8030 c1bc 50e5 12bc d076 903d
00000020: 5c0f a7bd 4cf8 0f3d 4639 d3bd 9c77 8abd
00000030: 96d7 e8bd 6453 f1bd 98da edbc a23f f8bd
00000040: 52ef bbbd 3611 cd3d e4ca 853d be7e 823d
00000050: 2afc fb3d 00d5 c7bd 4cdf 00bd 2e21 aebd
00000060: 16e8 87bd 6a81 b03d a06c f53b f679 d33d
00000070: 0c35 78bd 0e55 9bbd fae1 f53d 5c08 cdbd
00000080: 5009 a13c d82d bf3c e849 2fbd 30fc 743c
00000090: 4034 8bbd cc68 903d 5e29 d4bd ca66 eabd
000000a0: 7420 89bd 58f3 1bbd f424 d8bd 086c aa3d
000000b0: 2c6e 12bd 98fe 6e3d b89e cc3c 3c26 fb3d
000000c0: 3476 9abd c8ff 663d bac3 863d 6838 b83c
000000d0: c062 64bd 1696 f0bd d8e0 6b3d 4e22 dfbd
000000e0: 440a 9b3d d4ad a3bd 8c4f f03d 1064 b2bc
000000f0: 30fb e03d 800b 0e3c 80b9 1cbc 48c9 42bd
00000100: 5048 993d c4f1 ff3d 1895 e63c e0bb 71bd
00000110: 040c d23d 4037 e53d 145d 52bd 16d4 bfbd
00000120: 9cc2 e3bd f459 cebd 8c5d 2f3d 263f c7bd
00000130: fcb5 63bd 901b f1bd c0d2 e23d d633 b8bd
00000140: a09f b73b 9850 973d 543f 903d 50c4 2e3c
00000150: aec5 b73d ec37 64bd 0054 8139 0a7c ed3d
00000160: 4875 f03c 903b f6bc 5c98 fabd ca57 963d
00000170: cc16 af3d 4009 783d ce9e ad3d 581c 853c
00000180: b4a9 24bd e071 2e3d 5c85 e83d 0812 2a3d
00000190: c48c 01bd 42a6 80bd 9061 f8bc 584d 8b3c
000001a0: 20a0 b33d a004 35bd 344f c5bd d2f6 f7bd
000001b0: 8c1e 34bd 04a7 fbbd c666 c93d ae50 cc3d
000001c0: 981f 7ebd 84de 4dbd bec3 dc3d c4a9 c93d
000001d0: 7885 8a3d f048 573d b837 453d 8036 613d
000001e0: 72e3 f6bd 6003 25bc 9c4c 413d d070 8fbd
000001f0: a4f9 783d 8094 3abc 5e51 f3bd d081 79bc
0.03181474 -0.03626153 -0.08068019 -0.07190657 -0.11469892 -0.023582697 -0.008965805 0.07053912
-0.081572264 0.035148904 -0.103136584 -0.06761095 -0.11369245 -0.117834836 -0.029034898 -0.12121512
-0.09176506 0.10013048 0.06532839 0.063718304 0.12303956 -0.097574234 -0.031462952 -0.08502422
-0.06636064 0.08618434 0.0074897557 0.103259966 -0.060597464 -0.07584582 0.12005992 -0.1001136
0.01965776 0.02333729 -0.042795092 0.014952704 -0.06797075 0.070512384 -0.10359453 -0.11445387
-0.06695643 -0.038073868 -0.10553923 0.083213866 -0.0357496 0.05834827 0.024978027 0.12263152
-0.07542077 0.056396276 0.06580301 0.022487834 -0.055758238 -0.117473766 0.057587475 -0.10895215
0.075703174 -0.079921395 0.11733922 -0.02177623 0.1098541 0.008669734 -0.009565711 -0.047555238
0.07484496 0.12497285 0.028147265 -0.059017062 0.10256198 0.11192179 -0.051358297 -0.09366624
-0.11121103 -0.10075751 0.042813823 -0.097288415 -0.055593476 -0.11772835 0.110753536 -0.08994262
0.0056037456 0.07388419 0.07043329 0.010666922 0.08973251 -0.055717394 0.00024667382 0.11595924
0.029352799 -0.030057698 -0.122360915 0.07340963 0.0854927 0.060555696 0.08477555 0.016248867
-0.040200904 0.04258907 0.11353561 0.041521102 -0.031628385 -0.06281711 -0.030319959 0.017004654
0.08770776 -0.044193864 -0.096342474 -0.12107624 -0.043974444 -0.12287715 0.098340556 0.09976326
-0.06204185 -0.050261036 0.10779522 0.09846833 0.067637384 0.052559793 0.04814884 0.054983616
-0.120551005 -0.010071605 0.0471922 -0.07003939 0.06078495 -0.011387944 -0.11880754 -0.015228704

4.weight f4 [64, 128]
00000000: f11f f2bc e851 95bd 4cae 83bc 4c4c 29bd
00000010: f323 f03c 8c49 6ebd 1653 84bd 41ba e4bc
00000020: 8a30 e9bc 0abc 7e3d 990f 9c3d 9345 41bd
00000030: be2b a63c 1707 a4bd 24a9 7fbd 864e aabc
00000040: 4f9e 3c3d 80b7 943d d319 6d3d c2c0 9fbc
00000050: 3077 84bd 93df 733d db2c 5fbc e5b6 403d
00000060: 1f30 a3bd c868 90bb f815 9f3d bf5b 353d
00000070: c7c7 99bd 318c 4fbd 30e9 b1bc 149c bc3b
00000080: 5cc4 6b3d 47b0 66bc 462f 66bb 4a22 5cba
00000090: 1d42 113d c158 223d bf02 2b3b 2f08 b1bd
000000a0: 8b39 783d f858 62bd c055 b23d 8885 68bd
000000b0: d00d 0f3d 8f39 acbd f97f 333d 0448 69bd
000000c0: 7968 5d3d 2ca5 82bd 5bab 8a3d c3f2 893d
000000d0: b8cc 093c ef1e 3cbd bf0c 363c 3c10 58bc
000000e0: cf44 0bbd 7faa e0bc 1684 5fbd ad60 3bbd
000000f0: a0e6 f03c 8ee3 adbb 758e e4bc 3856 623d
00000100: c203 41bd d3c7 e33b 2668 debb cc38 6cbd
00000110: d698 54bd b772 96bc f3c9 9fbd a814 7d3b
00000120: d7b3 81bd 1647 333d d12b 073d f972 8fbd
00000130: 314f fdbc d2a0 6cbd c2b9 9cbd 41dd a7bd
00000140: 228f 1ebd 0a96 283d f6c7 21bd b0b4 613d
00000150: ac2d 9cbc 144c e83c fc0d babc 5b2b b5bc
00000160: 2752 a0bd e334 ea3c 20fc 923d 1ea3 2fbd
00000170: fe6f 4539 5255 bdbc be61 643d 2673 a1bd
00000180: 8656 d0bc f394 49bd 3422 2bbd 66c1 383d
00000190: 0641 aa3c 5deb 51bc 454b 27bd 8478 6c3d
000001a0: 9f9a 05bd 01a5 a53d f9f9 90bd 29b3 9c3d
000001b0: 1f03 4b3d 5322 953d b40f 523d 4fd1 a1bd
000001c0: e306 883d 0f3d 9f3d d845 0ebd c7c2 c3bb
000001d0: df5c a53c 936f cd3c 21f8 783d a750 ca3c
000001e0: 1c57 91bd 8900 e2bb cb18 5fbd 312b 063d
000001f0: 0b01 5abd e6af 8bbd 4074 3c3d 000b 293d
00000200: 702c 94bd 0f5f d73b 8483 b43d e09e be3c
00000210: 7c4d 963d 16c0 a13d b296 ae3c 45a0 92bd
00000220: 6c71 afbd 919f 693d 156c c9bc bd03 7e3d
00000230: 477e 993d 2915 9abd 85de 6d3d 1948 a6bd
00000240: 3cac 03bd 0662 983d e93f 9f3c 1e36 f4bc
00000250: e259 adbd e22b 893d 350e 903d 48f8 6cbc
00000260: 4ec8 213c 7df0 cd3c 49eb 8dbd cad0 753b
00000270: 9a85 50bd 9f2c afbc e87c 113c 8b76 303d
00000280: 8f21 8c3d bd6f a4bd 8542 0ebc 5f6b 963d
00000290: 8c74 abbd d02a 9f3d a43d 91bc 606c 9e3d
000002a0: f048 e0bc 3b49 a4bc ee95 543d 00ae 9bbd
000002b0: 33ba 463d bdbf 3b3d 4402 503d 5cf8 8abd
000002c0: e697 5abd 61f3 e73c 1191 5b3d 2b23 17bd
000002d0: 988b 92bc 5c44 d83c c3ec 78bd 2d55 ed3b
000002e0: 28c2 b3ba 3b82 3dbd 8fc3 20bb d0a8 023d
000002f0: b42d 75bd dc5b d23c 6a65 3b3d 472d 4ebc
00000300: 7ca7 5f3d 5d8e 88bd 3a0a b63a 7a4e a1bd
00000310: 4227 2a3d de57 573d e9f2 db3a d283 953d
00000320: 39a5 99bd 47d1 603d 587f 533d 84bf 463d
00000330: 0229 94bd f9f3 87bd 97ea a8bd 82a5 943d
00000340: de66 12bc 858e b63c e871 b63b a606 b03d
00000350: aa90 383d ecdb 8b3d ae44 30bc b87e afbd
00000360: 437e 6a3d 2b56 0d3c 2d34 04bd 906e 31bd
00000370: dd4d b6bc aaeb 9fbd 4bae 393d 6bc9 0c3d
00000380: 69a4 85bd bd03 2cbd d04d c8bc e39d 713d
00000390: 9826 8cbd 1cac 983c d1fc b33d 9592 5f3d
000003a0: ffb2 97bd d4b7 81bd 9406 1fbd cddf 133d
000003b0: 38f8 193d 3aeb 863c fcdf 4f3d 4db6 5dbd
000003c0: bf72 d7bc b422 4abd 0baa b43c 67eb 0fbd
000003d0: e5fc 98bd ea94 95bd ae75 fe3b 0553 aa3d
000003e0: b64f 0c3d 79ef 92bc e186 dbbc 5428 b9bc
000003f0: 1b28 f03a d9bb 2a3d f49d 9bbd d4ba acbd
-0.029556246 -0.07291013 -0.016074322 -0.041332528 0.029314017 -0.05817561 -0.0646116 -0.027920844
-0.028465528 0.062191047 0.076201625 -0.04718549 0.02028453 -0.08009165 -0.062417164 -0.020789396
0.046049412 0.07261562 0.057885956 -0.019501094 -0.06468046 0.05953939 -0.013621534 0.04704942
-0.07968163 -0.004407022 0.07767862 0.04427695 -0.07508808 -0.050670806 -0.021717638 0.0057559106
0.05756031 -0.014080114 -0.0035123392 -0.00083974435 0.03546344 0.039635424 0.0026094166 -0.08644139
0.060601752 -0.05526063 0.08707762 -0.05676797 0.034925282 -0.08409416 0.043823216 -0.056953445
0.05405471 -0.0637916 0.06770965 0.06735756 0.008410625 -0.045927938 0.011111437 -0.013187464
-0.034001168 -0.027425049 -0.054569326 -0.045746494 0.029406846 -0.0053066676 -0.02789996 0.055258006
-0.047122724 0.006951311 -0.006787318 -0.057671353 -0.05190357 -0.018365247 -0.07802191 0.0038617048
-0.0633313 0.043768965 0.03300077 -0.07004351 -0.03092155 -0.057770558 -0.07652618 -0.08196498
-0.03871072 0.041158713 -0.03949734 0.055103958 -0.019064747 0.02835659 -0.022711746 -0.0221154
-0.07828169 0.028589671 0.07176995 -0.04288017 0.00018829104 -0.023111973 0.055757277 -0.07883291
-0.025431883 -0.049214315 -0.041780666 0.045106314 0.020782959 -0.012812463 -0.040843267 0.05773212
-0.03261816 0.080881126 -0.070789285 0.076513596 0.049563523 0.072819375 0.051284507 -0.079012506
0.066419385 0.07775318 -0.034734577 -0.005974147 0.020185886 0.025077617 0.06078351 0.024696661
-0.07096693 -0.0068970365 -0.054467004 0.032756034 -0.05322365 -0.06820659 0.046009302 0.041270256
-0.07235038 0.006572611 0.08814147 0.023269117 0.07338998 0.078979656 0.021312091 -0.07159475
-0.085665554 0.05703694 -0.02458767 0.062015284 0.074947886 -0.07523567 0.05807354 -0.0811922
-0.032146677 0.074405715 0.019439654 -0.029810961 -0.084644094 0.06697823 0.0703396 -0.014463492
0.0098744165 0.025139088 -0.06929643 0.0037508481 -0.050908662 -0.021383582 0.008879878 0.0430818
0.06842338 -0.08029125 -0.008682852 0.07344698 -0.08371839 0.07771838 -0.017729588 0.07735515
-0.02737853 -0.02005445 0.051900797 -0.07601547 0.048517417 0.045837153 0.05078341 -0.06785652
-0.053367518 0.028314294 0.053605143 -0.036898773 -0.01788883 0.026399784 -0.06077267 0.0072428198
-0.0013714479 -0.046266776 -0.0024530625 0.031899273 -0.05985804 0.025678568 0.045751013 -0.012584037
0.054603085 -0.06667779 0.0013888546 -0.07876296 0.041541345 0.05257403 0.0016780767 0.07300533
-0.07502217 0.054887082 0.051635116 0.048522487 -0.07234384 -0.06638331 -0.082478695 0.072581306
-0.008935658 0.022284755 0.005567778 0.08595018 0.045059837 0.06829056 -0.010758562 -0.085690916
0.05724932 0.008626501 -0.03227632 -0.04331833 -0.022253925 -0.07808621 0.045332234 0.034371775
-0.065254994 -0.041995753 -0.024451166 0.058988463 -0.06843299 0.018636756 0.08788455 0.05458315
-0.07407188 -0.063338906 -0.038824633 0.036102105 0.037590235 0.016469587 0.050750718 -0.054128934
-0.026299832 -0.0493495 0.022053739 -0.035136607 -0.07470111 -0.07303794 0.0077654934 0.08316616
0.034255706 -0.017936455 -0.026797714 -0.022602238 0.0018322499 0.04168305 -0.075984865 -0.08434072

4.bias f4 [64]
00000000: a18f aa3d 5471 503d bbf5 b0bd 7951 70bb
00000010: 20d1 423c 2c1b 473d b62f 1f3c ccb5 413d
00000020: efcb 72bd a7ab 673d dc86 24bc e8b2 9abd
00000030: 3072 653d 813d 2b3d 4743 3f3d 89f8 8d3d
00000040: d5bd f9bc f77c 1d3d 3177 00bd 4480 023d
00000050: 7f5d 0c3d 0241 b2bd 72e1 b3bc dc7e 1cbd
00000060: e7b0 feba 4a29 aa3c 55de 98bd cdd8 aabd
00000070: b42a 3bbd f003 8ebd 3514 89bc 3d38 d23c
00000080: dd35 d4bc fc81 adbd a12e dabb 0ba7 22bd
00000090: 196f 6fbd b5c5 0c3d 5a6f acbd 45f4 093d
000000a0: 1a27 28bd 92be 4fbd 4696 d0bc 2498 863d
000000b0: f3c0 46bd 1836 b53b 209c 5d3d e17b 7c3d
000000c0: ccde 673d 0566 6e3d b1f8 263c ec4c f4bc
000000d0: 10e5 73bd cbff aebd 0306 d6bc 6868 b1ba
000000e0: 874d 613d 0b77 68bd 3b2c 993c 35a9 dd3c
000000f0: 71e4 82bc c8a1 6a3d f3c0 e4bc 7ea8 a73d
0.08328176 0.050889328 -0.08640619 -0.0036669655 0.01189068 0.048609897 0.009715965 0.047292516
-0.059276517 0.056560185 -0.010041919 -0.07553655 0.0560171 0.0418067 0.04669502 0.0693217
-0.030486027 0.038449254 -0.03136367 0.031860605 0.034268852 -0.087038055 -0.021958087 -0.03820692
-0.0019431383 0.020771641 -0.074642815 -0.08342133 -0.04569502 -0.06934345 -0.016733268 0.025661582
-0.02590459 -0.08472058 -0.0066583906 -0.039710086 -0.05845556 0.034368236 -0.08419676 0.03368022
-0.041052915 -0.05071885 -0.025462281 0.06571987 -0.048523854 0.00553013 0.05410397 0.061641578
0.05660896 0.058202762 0.010191129 -0.029821835 -0.059544623 -0.085448824 -0.026125913 -0.0013535144
0.055005576 -0.056754153 0.018697849 0.027058223 -0.01597807 0.057283193 -0.027924037 0.08186434

6.weight f4 [32, 64]
00000000: 70b5 903d f03f 493d 36d5 a33d b0a0 673c
00000010: 42f6 a23d c027 c4bc 302c d73c f4eb 4fbd
00000020: f88f a2bd bc4b 843d 60e1 d43b a014 f4bd
00000030: 8eda 813d 7021 febc eaf5 82bd 807f e0ba
00000040: ea8a c2bd 6c7a 793d f86a dbbc a0f2 eabc
00000050: 54a7 6a3d 6cc9 723d 1a09 d5bd e870 7a3d
00000060: 8098 08bd 1e3c 9cbd 90c2 2d3d f013 ecbd
00000070: 6e3b f2bd 285d 4cbd 0076 ec3d 4884 9ebc
00000080: 22c3 fc3d 309c 223d c4f5 c6bd c623 b93d
00000090: 7030 5f3c 309d 573d c066 3dbb 9caa 7e3d
000000a0: 8e63 bebd 2449 b63d a2cc cbbd da8a 943d
000000b0: 7041 533c 1031 303d 583d a8bd 586c 32bd
000000c0: 9e6b f63d 4a50 f4bd 7826 e83d d034 f0bd
000000d0: 326f d33d c25a f2bd b6e0 8bbd 406a 473d
000000e0: 6615 a93d 4409 973d d204 85bd d4b7 82bd
000000f0: 206b 933c ae45 b0bd 2cb4 30bd 0899 7dbd
00000100: eec4 e33d 7ae5 d93d e08d c1bd 28e3 a8bd
00000110: bc79 2c3d 94fb d73d 10aa 50bd 98b5 8abd
00000120: 285f f33c 7cc0 893d 4487 503d 9c25 ab3d
00000130: 50c7 143d 6039 67bc 4ea1 96bd 802f d7bd
00000140: b0d1 143c 76a3 c7bd ee69 de3d 6c03 66bd
00000150: 6876 65bd ac29 edbd de9c e3bd 5850 a93d
00000160: 40ba 093c 244b 2c3d 64ca 6bbd 1849 8bbc
00000170: ced5 83bd 00b3 6d3c f8f9 3cbd 34e1 5bbd
00000180: 0880 b93c 38d1 df3d 6c1f 623d 60b2 98bb
00000190: ac63 283d 18b2 bf3d f814 c13c 0c84 b13d
000001a0: e03b a23d e27f ff3d 2cc8 c6bd 00ea afb9
000001b0: 60ff 473d 903a 5c3c b698 e23d e269 a63d
000001c0: 500d 2fbc b416 3abd e0a6 26bc 7846 2f3d
000001d0: 581e 57bd 8c19 1c3d 76d1 9d3d d097 6ebc
000001e0: 104b 4bbd 00af c9ba 8ce8 b2bd 04b4 18bd
000001f0: 9c31 dcbd d8cf b73c ac94 cebd 1cb6 5f3d
00000200: c06a 633c 586d ce3d 6882 63bd accc 643d
00000210: 8001 d7bd f061 5fbd fab4 e1bd b067 1c3c
00000220: b08d 2e3c 9479 d0bd 2caf e33d 1099 a9bd
00000230: e012 e23b 6222 93bd d0ac 0f3d b245 c03d
00000240: 34c7 bebd 663d dcbd 00aa edbc a059 5bbc
00000250: e6f1 f23d ee88 a83d a06d 0a3c bc9c a6bd
00000260: 600a debb acb7 963d 2c1d d63d f0a7 063c
00000270: 60d7 553d c0c6 45bb f867 e1bc dc86 f3bd
00000280: e03c 82bc 165c bb3d 60c6 8d3b 54db 7abd
00000290: 6aa2 90bd 40a4 2ebc 32e3 d63d a067 04bc
000002a0: d200 dfbd 308c a5bd a0e7 efbb 3801 3c3d
000002b0: 6443 e2bd 10cb 8abc 4869 943c c0a6 c73d
000002c0: 00b3 133a 609c acbd 02fa f3bd 2a1f d7bd
000002d0: 185a 8a3c f457 f1bd 8c9f ad3d fc71 643d
000002e0: 183a cebc 6ca4 0cbd 7447 f6bd 185f dbbc
000002f0: e4d1 17bd bc50 f5bd a010 4f3d 8035 583d
00000300: 40ba 58bb 504b c73c b0c9 343d 6082 eabb
00000310: 804e 71bd 2054 d6bd 86de a5bd 704e 5c3c
00000320: 3415 0fbd 8046 c83d e8ba 903d 626b c03d
00000330: e057 3abd da58 babd e0b5 99bd 30dc c53d
00000340: b4c7 a5bd ccf7 9fbd 907e a33d 0095 dfbc
00000350: 38d9 46bd 7064 a1bc e8be ccbc 1aa4 fabd
00000360: d887 ffbc acfe c9bd b08d 6e3c fe2f ecbd
00000370: dccc a13d 38af 8d3d a010 b3bd 48d1 cabd
00000380: 4446 ca3d 2a72 c13d 1846 21bd 7a06 ad3d
00000390: 8460 cebd 8004 f23c 54c4 4b3d fa0b d33d
000003a0: 30f9 d03c 8610 9c3d 041a edbd 5ae7 bdbd
000003b0: dc14 b73d 40a9 0e3d aa71 b43d b076 fa3c
000003c0: 10d7 ca3d 50ec 7abd 907c c3bd c8a0 a53c
000003d0: d061 373c 3a90 d2bd 08ee bdbd eeb8 bb3d
000003e0: 3c85 ab3d 20a4 b23d 0c98 d5bd d6de ea3d
000003f0: 8ca0 483d 8a34 e8bd 721e fd3d d013 0ebc
0.070658565 0.04913324 0.07999651 0.014137432 0.07957126 -0.023944736 0.026266187 -0.05076213
-0.07937616 0.06459758 0.0064965934 -0.119179964 0.06340514 -0.031021804 -0.06394561 -0.0017127842
-0.09499152 0.060907766 -0.026784405 -0.028680146 0.057288483 0.059274122 -0.104021266 0.061142832
-0.03334856 -0.07628654 0.042421877 -0.1152724 -0.118277416 -0.04989353 0.11545944 -0.019350186
0.12341906 0.039699733 -0.09714845 0.09040026 0.013622388 0.05264014 -0.0028900355 0.062174425
-0.09296332 0.08900669 -0.0995114 0.07253046 0.0128940195 0.04301554 -0.082148254 -0.043560356
0.12032245 -0.119293764 0.11335462 -0.11728823 0.10323943 -0.11833717 -0.068299696 0.048685312
0.082560346 0.07374814 -0.0649506 -0.06382719 0.017995417 -0.0860704 -0.043140575 -0.06191352
0.11121546 0.10639472 -0.09450889 -0.082464516 0.042108282 0.105460316 -0.050943434 -0.067729175
0.02970846 0.067261666 0.05091025 0.08356783 0.03632289 -0.0141128 -0.07354985 -0.10507107
0.0090831965 -0.097479746 0.10860048 -0.056155607 -0.056021124 -0.11580214 -0.111139044 0.082672775
0.008406222 0.042063847 -0.05756606 -0.017002627 -0.064372644 0.014508009 -0.046136826 -0.053681567
0.022644058 0.10928577 0.055205747 -0.004659936 0.04111068 0.093601406 0.023569569 0.08667764
0.079215765 0.124755636 -0.097061485 -0.00033552945 0.04882753 0.013441697 0.110642835 0.08125664
-0.010684326 -0.045431808 -0.010171622 0.042791814 -0.052519172 0.0381103 0.07705967 -0.014562562
-0.049632132 -0.0015387237 -0.08735761 -0.03728105 -0.1075165 0.022437975 -0.10086951 0.054617032
0.013880432 0.100794494 -0.055544287 0.055859253 -0.10498333 -0.05453676 -0.11020847 0.009546205
0.010653898 -0.10179439 0.11117396 -0.082811475 0.0068992227 -0.071842924 0.035076916 0.09388293
-0.09315339 -0.10753898 -0.029011726 -0.0133880675 0.11862545 0.08229242 0.008448988 -0.081353635
-0.006776139 0.073592514 0.10454783 0.00821875 0.05220735 -0.0030178279 -0.027515396 -0.11890957
-0.015898168 0.091484234 0.0043266267 -0.061244324 -0.07062228 -0.010659277 0.10492553 -0.008081347
-0.10888828 -0.08083379 -0.007321313 0.0458996 -0.1104801 -0.01694253 0.018116608 0.09748602
0.0005634278 -0.08428264 -0.119129196 -0.10503991 0.016888663 -0.11784354 0.08477697 0.055772766
-0.025174186 -0.034336492 -0.12025347 -0.026778743 -0.0370654 -0.119782895 0.050552964 0.052785397
-0.0033069998 0.024327904 0.044137657 -0.007156655 -0.058912754 -0.10465264 -0.080990836 0.013446435
-0.03493233 0.09779072 0.070668995 0.09395482 -0.04549396 -0.09098978 -0.07505393 0.09661138
-0.08094731 -0.078109354 0.07983124 -0.027292728 -0.048547 -0.019701213 -0.024993375 -0.12238331
-0.031192705 -0.09863028 0.014560148 -0.11532591 0.07900402 0.06918186 -0.08743405 -0.099031985
0.09876683 0.09445603 -0.039373487 0.08448501 -0.10077003 0.029543161 0.04974778 0.10305019
0.025509447 0.07620339 -0.11577228 -0.092726424 0.089395255 0.034829378 0.08810742 0.030574173
0.09904301 -0.06126052 -0.09545243 0.020218268 0.011192754 -0.10281415 -0.092739165 0.09166132
0.08375022 0.087227106 -0.10429391 0.11468284 0.048981234 -0.11338146 0.123593226 -0.008671716

6.bias f4 [32]
00000000: cc58 babd c8b4 de3d ea9d c5bd 0026 15ba
00000010: be97 f8bd 384d 58bd 6e12 a03d b6ce bf3d
00000020: 704a 513d 82f0 f23d 8018 d23d 0cee 98bd
00000030: 1221 bd3d 0815 acbc 9248 e9bd bad2 933d
00000040: 587e 3b3d f4f7 8cbd 1420 8e3d ea2c e7bd
00000050: c070 943b b477 f63d d418 d93d b865 cbbd
00000060: d09b 7abd f021 e5bc 2022 90bb 9013 003c
00000070: fab9 853d 54c9 1ebd c009 f0bc 1807 1a3d
-0.09098968 0.10874325 -0.0964926 -0.00056895614 -0.121383175 -0.052808017 0.07816015 0.09365599
0.05109638 0.118622795 0.10258579 -0.07467279 0.09234823 -0.021006122 -0.11390795 0.07217927
0.045774788 -0.06883231 0.06939712 -0.112878636 0.0045300424 0.1203455 0.10600439 -0.09931511
-0.06118375 -0.027970284 -0.0043985993 0.007817164 0.06529613 -0.03876622 -0.029301524 0.03760442

8.weight f4 [12, 32]
00000000: ba38 aabd 953a 2c3c 1233 223e 8036 9ebd
00000010: 9930 15be a7cd a1bd 300a a6bd e3f6 943c
00000020: 2ac5 543d c8b2 1dbd 5b01 513a 7b2d cf3d
00000030: da60 dbbd e465 173e d0e5 63bd b276 3f3d
00000040: f7e5 0f3c 17d0 d6bc 3c21 aa3d 3a35 14bc
00000050: b64e 2d3e e69c ddbd a7c0 0dbe c009 0fbe
00000060: d8cc 1f3d 7b88 723c 8848 a93d 6468 9bbd
00000070: 3919 33be d5da 113e e726 1f3e ce54 22be
00000080: 658c 203e e6be ce3c 7d1a debd 3f5b 15be
00000090: 8549 aa3d 4c2b afbc 2984 a7bd 0a97 73bb
000000a0: ac5a 163d 4799 503d 3ffc 2cbe 6602 113b
000000b0: be46 023e d06b 74bd d873 22be 3180 8abd
000000c0: 8c3a 54bd 25f5 78bd af01 9f3d 4f7e bbbd
000000d0: 23da d1bd 1262 ebbd 4dd7 5d3d de79 17bd
000000e0: 5cb1 323e 3376 eb3b a507 2f3e 1c52 d1bd
000000f0: 77d0 913d af05 c73d f658 7d3d 664c 98bd
00000100: ef9c 093e 6af7 c13d 97ed fcbc ec8d 2abd
00000110: bd8c 8f3c e1bd c63c 9911 c4bd 2fff b4bd
00000120: 6afa 333d e815 fd3d 9fa1 30bd a1b4 27bd
00000130: 78bf 083e dcb6 b4bd aea7 a73d 4f3d 263c
00000140: c0a4 cf3a 7ed2 e8bd 8759 e5bd e8c1 2dbe
00000150: d597 023e 6689 98bc 27dc c6bb 4562 8a3c
00000160: 4525 15be b851 8e3c fd39 153e b3da 1e3e
00000170: 78a0 f43d 5a9d 1e3e 79e2 8bbd b1f2 09be
00000180: 207e debd 305e 33bd c6c7 0f3e b3ee 27bd
00000190: 5999 083c 48dd ac3d 6a4c e93d 368d 1b3e
000001a0: 3e32 cdbd dcd8 8b3d c11c 0bbe 5699 f13d
000001b0: e808 a4bc 166f 73bc ce5e 29be 716f 203e
000001c0: 0839 adbd 3e1c 9bbd 1a8b bdbd 1956 81bd
000001d0: 368c 093e 1c1c 803d 2c23 43bd be09 963d
000001e0: 6e24 d83c e43d fbbd 0757 9e3c 6683 dd3d
000001f0: 69eb a4bd fd21 19be 7e8f b63d aeb2 1d3e
00000200: e5d5 9d3c fc50 b13c 40f5 a9bd f086 193e
00000210: c3c0 17be 42af 21be 7388 633d 411b f9bd
00000220: 9f74 2cbe 8e24 283e 8b35 41bd 266e 143d
00000230: 758c d7bd 6e03 da3d ab04 003e 410a 63bd
00000240: bd04 163c 9790 2a3e 6d9d 22be 4012 2a3e
00000250: 8a52 a13d 5bbc d03d c940 27be c454 bd3d
00000260: bd62 be3d 4b90 1e3e 7b5b 5fb9 694d de3c
00000270: b2cd 5cbd c68e 04be 50ac 083e a321 a3bd
00000280: 47e6 183e ff2d 8d3b e60c 233e d768 933d
00000290: 93e9 ffbd e27c 3b3d 898f 2e3d d083 19be
000002a0: 4c13 33be c5de 85bc e340 af3d 1198 f13d
000002b0: 6d3e 7c3d 1dd7 a93c 855b 1dbb 4ea7 eabd
000002c0: 3d59 1bbe 165a 233e 1710 9fbd adce 13bd
000002d0: bc2d 23be e99e 23be ac23 773b ef28 403d
000002e0: f681 afbd ff6a 97bd cf99 bbbd 58da 2a3e
000002f0: 5132 02bd a9ea 6ebd d8cb 0ebe 5187 093e
00000300: 55d8 393d 121c 923d 46ee e33b 3455 85bd
00000310: 14de 95bd 35f0 a63c 8163 cabd af06 eabd
00000320: cf83 f2bd 5498 aa3c 525e ddbd e4e2 0b3d
00000330: c0fb e83c 0e49 67bd 3c52 f8bd 1f70 2b3e
00000340: 6e54 9cbc 6f9c a73d 1069 293e 8934 07be
00000350: ac8f 793d 2f1a 68bd 8ce6 1a3c 0d6c a73d
00000360: ac33 51bd 4345 0c3e d5e0 00be ec15 143e
00000370: d090 b3bd 05c9 133d a570 323d 51e4 1abd
00000380: e637 dc3d 0301 0abe 4748 fd3d 3c48 073e
00000390: 4073 08bc fa8f 14be 2a91 a7bd c250 b83d
000003a0: a850 30be b398 89bc de79 02bc f15a 15bd
000003b0: 81ba 45bd 8ad6 dd3d 5f19 e73c cf09 313d
000003c0: d177 2b3e 0d85 173b 8820 0c3e cc83 83bd
000003d0: ad24 3abd 60d6 d9bc 821e dabd b241 203e
000003e0: a3a9 81bd 4d28 4bbd 3e2a 97bd 580a fc3d
000003f0: 379b 9bbd 04d6 debc a5de cbbd e451 6c3d
-0.08311601 0.010512014 0.15839794 -0.07725239 -0.1456932 -0.07900553 -0.08107412 0.018184131
0.051945843 -0.038500577 0.0007972919 0.101160966 -0.10711832 0.14784962 -0.05563909 0.046744056
0.008782855 -0.026222272 0.0830712 -0.009045893 0.16924557 -0.108209416 -0.13843022 -0.13968563
0.039013714 0.014803047 0.08265787 -0.0758827 -0.1749009 0.14243634 0.15542184 -0.15852663
0.15678556 0.025237512 -0.10844896 -0.14585589 0.08314804 -0.02138295 -0.081795044 -0.0037168884
0.036707565 0.050927427 -0.16893099 0.0022126674 0.12722299 -0.05967313 -0.15864503 -0.06762732
-0.051813647 -0.060780663 0.07763993 -0.09154951 -0.102466844 -0.11493315 0.054160405 -0.036981456
0.1745047 0.0071857213 0.1709276 -0.10220739 0.0711984 0.09717881 0.061852418 -0.07436447
0.13438772 0.094710186 -0.03087501 -0.041639253 0.017523164 0.024260463 -0.09573669 -0.08837735
0.043939985 0.12357694 -0.043122884 -0.040943746 0.1335429 -0.0882394 0.08186279 0.010146453
0.0015841946 -0.11368273 -0.111987166 -0.169685 0.12753232 -0.018620204 -0.0060687247 0.016892562
-0.14564998 0.01737295 0.14572902 0.15513115 0.119446695 0.15489712 -0.068303056 -0.13471486
-0.108639 -0.043790996 0.14041051 -0.040999126 0.008337342 0.084406435 0.11391528 0.15190586
-0.100193486 0.06828472 -0.13585187 0.11796825 -0.020023778 -0.014858028 -0.16540071 0.15667512
-0.084581435 -0.07573746 -0.09255047 -0.0631525 0.13432392 0.062553614 -0.047640964 0.07326077
0.026384559 -0.12267664 0.019328607 0.10816078 -0.080527134 -0.14954372 0.08914088 0.15400192
0.019267032 0.021645062 -0.08298731 0.14992881 -0.14819627 -0.15789512 0.05555005 -0.121634014
-0.16841362 0.16420195 -0.047170203 0.03623786 -0.10524837 0.106451854 0.1250178 -0.0554297
0.009156403 0.16656719 -0.15880366 0.16608524 0.07877071 0.10192176 -0.16333307 0.092446834
0.092961766 0.15484731 -0.00021301016 0.027136521 -0.053907104 -0.12945089 0.13346982 -0.079654
0.14931594 0.0043084617 0.15922889 0.07197731 -0.124957226 0.045773394 0.042617355 -0.14991689
-0.1748783 -0.016341576 0.08557298 0.117965825 0.06158297 0.020732457 -0.0024010849 -0.11457692
-0.1517076 0.15952334 -0.07766741 -0.036085773 -0.15935415 -0.15978588 0.003771047 0.046914037
-0.0856971 -0.07393455 -0.09160196 0.16684854 -0.031786267 -0.058329258 -0.13944948 0.13430525
0.045372326 0.0713426 0.0069558946 -0.06510392 -0.07317749 0.020378212 -0.0988226 -0.11427056
-0.11841547 0.020824589 -0.10809006 0.034151927 0.028440356 -0.056466155 -0.1212506 0.1674199
-0.019083228 0.08184134 0.16543984 -0.13203634 0.06092803 -0.056665596 0.009454381 0.08174906
-0.05107467 0.13698296 -0.12585767 0.14461488 -0.08767855 0.03608038 0.043564457 -0.037815396
0.10752849 -0.13476948 0.123673014 0.13211149 -0.008328259 -0.14508048 -0.08181985 0.08999778
-0.17218268 -0.016796445 -0.007963626 -0.03646368 -0.048273567 0.10831936 0.02821034 0.043222245
0.16744925 0.0023120076 0.13684285 -0.06421623 -0.045445133 -0.02659148 -0.1065035 0.15650061
-0.06331184 -0.04959898 -0.07381104 0.123066604 -0.07597964 -0.02720166 -0.099545754 0.057695284

8.bias f4 [12]
00000000: 1444 a73d 28fb 743d 0f04 b6bd dcb3 80bc
00000010: 45e5 12be 2cb4 473d 7b61 34be 3f5f 053d
00000020: 40c5 823d 5a4e a53c 945a 783d 4819 67bd
0.08167282 0.059809834 -0.08887493 -0.015710764 -0.14345272 0.04875581 -0.17615311 0.032561537
0.06385279 0.020178962 0.060633257 -0.056420594
