unitree_7_ar.pt (torch, 19322 bytes, 5 tensors)

fc1.weight f4 [64, 31]
000000 5d 56 28 3d 31 93 41 3d ba b6 57 bd be 99 69 bb
       0.041097987 0.047259513 -0.052664496 -0.0035644616
000010 22 e2 6b bd 5c 6a 19 3e e3 f3 58 3c ff 33 00 3b
       -0.057588704 0.14981979 0.013241741 0.0019562242
000020 39 a1 fc 3c ab 49 2d 3e fc f7 32 3e b2 1d d1 bb
       0.030838596 0.16922633 0.17477411 -0.006381714
000030 07 98 7a bd 19 d8 30 bd 5e 0d 1d be 75 1a 99 3d
       -0.06118014 -0.043174837 -0.1533713 0.074757494
000040 1b ad 01 be 05 fd 95 bd 9c 03 f8 3d 86 ab e9 3c
       -0.12663691 -0.0732365 0.121100634 0.028524172
000050 67 6e 0e 3e 6a c9 1d 3c 8b 44 de bd 9b ec b4 3d
       0.13909303 0.00963054 -0.10852917 0.088341914
000060 d4 cf 1c be 65 82 a5 3d 4d 44 78 3c 4c 8a 06 be
       -0.15313655 0.080815114 0.015153003 -0.13138694
000070 25 b1 92 3d 5e 74 06 bd 42 e8 ea bd d2 e2 2d be
       0.07162694 -0.03282582 -0.11470081 -0.16981056
000080 62 17 a7 3c 7f 35 9f 3d e3 90 1c 3e cd 57 cb bd
       0.020396892 0.077738754 0.15289645 -0.09928856
000090 0d 38 35 bc 99 ee 3e bd fb 4f c2 bd af 19 2e 3e
       -0.011060727 -0.046614263 -0.09487911 0.17001985
0000a0 de 02 cc bd 5d f2 82 3d 93 6d 93 bd c0 5e 96 bd
       -0.099614844 0.063938834 -0.07198634 -0.07342291
0000b0 22 31 c9 bd 17 04 cc 3d 41 09 b1 bd cf 43 ab b9
       -0.098238245 0.099617176 -0.08644343 -0.00032666183
0000c0 e9 23 b7 3d 42 63 8c bd 91 cc e6 bd b1 22 1a be
       0.08942396 -0.068548694 -0.11269487 -0.15052296
0000d0 32 4c cb bd 69 96 15 3d 84 7b 9c bd 60 18 bf 3d
       -0.099266425 0.036520395 -0.07640746 0.09330821
0000e0 9e b8 df 3d 6e 09 17 bc 7d a9 92 bd 1c d7 19 be
       0.10923885 -0.009218557 -0.071612336 -0.15023464
0000f0 d8 f0 10 be 16 c8 21 3e 14 05 c3 bd b5 8d 09 bd
       -0.14154375 0.15798983 -0.09522453 -0.033582408
000100 02 e4 33 3e 02 ed b8 3d cb 9e 28 be e9 bc 2b bd
       0.17567447 0.09029581 -0.16466825 -0.041928206
000110 fe 29 79 bd d6 7d 92 3d 36 06 2a be fe 70 b4 3d
       -0.060831062 0.071529076 -0.16603932 0.08810614
000120 9e dc e8 bd 0c 0b e7 bd 4f 94 19 be 83 e4 f4 3d
       -0.113702044 -0.11281404 -0.14997981 0.11957648
000130 53 4a 2d 3e 9f 77 85 3c 21 03 a2 3d 06 9b 77 bd
       0.16922884 0.016292391 0.07910753 -0.060450576
000140 f8 c6 19 3b 84 e4 1f 3e 12 26 ba bd 39 b9 c1 3d
       0.0023464542 0.15614516 -0.090892926 0.094591565
000150 57 ed 06 3e 25 81 4b bd 20 dd c6 bb 70 0c 0e be
       0.13176475 -0.04968371 -0.0060688406 -0.13871932
000160 5b 07 be bc 5b ee c6 3d 70 71 1a bd d3 ea 2f be
       -0.023196867 0.097134314 -0.03770584 -0.17179422
000170 39 85 31 be 31 8c 1a be 92 1a 6b bd f3 6e 4d 3c
       -0.17335977 -0.15092541 -0.057398386 0.012538659
000180 cf 73 db bd 36 49 17 3d 8b 53 25 3c 12 64 46 bb
       -0.10715448 0.036935054 0.010090719 -0.003027205
000190 aa 2f 16 3e 3b 06 fe bc 58 43 be bb d8 c7 79 bd
       0.1466662 -0.03100883 -0.005806368 -0.0609816
0001a0 d0 2f 75 3d 2f ed 12 3e 3a 2e d9 bd 05 6d b0 bd
       0.05986005 0.14348291 -0.1060452 -0.08614544
0001b0 3c 34 2a 3e e9 c1 7c 3d bc 0e f8 bd c0 63 ae bd
       0.16621488 0.061708365 -0.12112185 -0.085151196
0001c0 39 8b 10 3e 05 bb f8 bd 4b a1 bd 3c b2 9d c5 bc
       0.14115609 -0.12145046 0.0231482 -0.024123047
0001d0 76 83 6c 3c 07 4a bd 3d 85 c7 0f 3e 70 a7 c5 bd
       0.01443564 0.09242635 0.14040954 -0.09651077
0001e0 da c9 82 3d 39 01 b0 3a 3b 81 f3 bb 3a 9f a6 3c
       0.063861564 0.0013428099 -0.007431177 0.020339597
0001f0 42 4c 4c bc e1 c7 f0 3d f4 bd 34 be 27 4d c5 3d
       -0.012469353 0.11756874 -0.17650586 0.09633856
000200 98 36 d1 3d de 66 23 be b5 b3 ae bd 18 a9 f6 bb
       0.10215491 -0.1595721 -0.0853037 -0.0075274818
000210 53 97 a8 bd 74 6d b6 3d 5c 54 07 be 20 96 db bb
       -0.08231988 0.08907595 -0.13215774 -0.006701246
000220 33 fe 80 3d 76 6d 3a 3d c5 6f eb bb 57 54 12 be
       0.06298485 0.045514546 -0.007184955 -0.14289986
000230 76 5f e9 bd ae 10 b2 bc 5c 0f ce 3d 7c 77 f5 3d
       -0.11395161 -0.02173647 0.10061523 0.119856805
000240 83 57 f4 bd c9 cf b8 3d b3 e8 b2 bc e6 c5 28 3d
       -0.11930754 0.09024007 -0.021839475 0.041204356
000250 76 ad f6 bd fa 55 8c 3d 1b dd 22 3d 8f c2 fe 3d
       -0.12044804 0.06852336 0.039761644 0.12439453
000260 ae f5 c7 3d f5 c9 f7 bd 78 d0 03 be 84 85 f0 bd
       0.097636566 -0.12099067 -0.12872493 -0.11744216
000270 ed e0 d5 3d 4a c6 21 be b8 1e 86 3d 88 99 c3 3d
       0.10443292 -0.15798298 0.06548828 0.09550768
000280 da a8 32 be 34 07 dd 3d d8 c9 30 be a3 15 f6 ba
       -0.17447224 0.107923895 -0.17264497 -0.0018774759
000290 12 d6 ca bd 26 b8 cf bc 99 68 77 bd 15 69 c7 bc
       -0.09904112 -0.025356364 -0.060402486 -0.0243421
0002a0 19 91 d2 3d 5f 1b 13 bd 5a dc b4 3d dd e8 af bd
       0.102815814 -0.035914775 0.08831091 -0.08589337
0002b0 7b c7 25 be 3d 11 cd 3c 94 8f 30 be d6 f8 95 3d
       -0.16189377 0.025032634 -0.1724227 0.07322852
0002c0 f7 15 0c 3e 5e 59 34 3e 26 8d 49 3d 79 a6 14 3e
       0.13680254 0.17612216 0.049206875 0.1451663
0002d0 91 ee 2f 3d 3c d0 fc 3d 2a 2b 03 be 0b 3e a5 bd
       0.042952124 0.12344405 -0.12809435 -0.080684744
0002e0 9f d0 7d bd 33 7e 53 3d c8 bb 9c bd 08 af 09 be
       -0.061966535 0.051634025 -0.07653004 -0.13445675
0002f0 2b f6 64 3d a7 53 9c bb 06 40 df bd 0f 10 e1 3d
       0.055898827 -0.0047707143 -0.109008834 0.10989391
000300 b0 88 d4 bd fe 18 df bd ce b1 7f 3d f4 33 37 3e
       -0.103776336 -0.10893439 0.062425427 0.17890912
000310 5c f2 ca bd 0b 9b 12 3e 18 26 15 be 3c 94 68 3c
       -0.09909508 0.14316957 -0.14565313 0.014195498
000320 06 3f 58 bc 62 c4 34 bc 9f f4 23 be 83 35 d5 bc
       -0.01319862 -0.011033149 -0.16011284 -0.026026493
000330 02 67 88 3d 0f bf 6e 3c ad 89 fb bd f8 17 9c bd
       0.06660272 0.014571919 -0.12282119 -0.07621759
000340 ea 2b 16 3e 3c c5 88 bd 10 b5 f4 3d 43 c4 fd bd
       0.1466519 -0.066782445 0.119485974 -0.123909496
000350 8a 04 05 bd 5d 18 98 3c d0 5b e5 3d af 04 63 bc
       -0.032475032 0.018566305 0.111991525 -0.013856097
000360 8a a7 1e 3e c0 79 4e 3c b1 33 a2 3d 24 0c 17 3e
       0.15493599 0.01260227 0.079200156 0.14750725
000370 29 0f 9d 3d 32 72 de 3c ac 58 8a 3d d8 14 62 3d
       0.07668907 0.027154062 0.06755194 0.05519566
000380 89 5e 0c 3e 92 85 b7 bd 8b 13 6b bd 82 b1 50 bd
       0.13707937 -0.089610234 -0.057391685 -0.050950535
000390 5f 0f 23 3e 28 20 9d 3d 84 4d 91 3b d0 8d 5e 3d
       0.15923832 0.07672149 0.0044342894 0.05433446
0003a0 b1 f4 18 be 44 67 13 be 38 9f 12 bd 4f 40 f9 bd
       -0.14937092 -0.14394861 -0.035796374 -0.12170469
0003b0 d3 68 f7 bc fc b6 e9 bd 7d 2c 03 3d b7 4a d0 3d
       -0.030201351 -0.114118546 0.03202485 0.10170501
0003c0 2e 0a 3d bd 93 0f 29 3e 82 c5 a2 3c 55 43 b5 3d
       -0.046152286 0.16509847 0.01986957 0.08850733
0003d0 55 cc bb 3d ec ae b9 3d 1d ab 8a bd b8 51 bb bc
       0.091698326 0.09066567 -0.067709185 -0.022866115
0003e0 87 76 d2 bd 6a 21 1d 3e 3a 72 22 3e d6 f9 73 bd
       -0.102765135 0.15344778 0.15863886 -0.059564434
0003f0 78 b2 0b 3d f3 19 17 be 96 a9 09 3e 43 ce 06 3e
       0.034105748 -0.14755993 0.13443598 0.1316462

fc1.bias f4 [64]
000000 08 07 11 be 3c dc 37 3e 97 65 20 3d 07 57 ab 3b
       -0.14162838 0.17955106 0.039159384 0.0052288803
000010 e3 0c be 3d 02 fc 04 3d 58 ba da bd c1 55 04 3e
       0.09279802 0.032466896 -0.106800735 0.12923338
000020 a2 6d 20 be 19 50 ca bd 12 bf 15 3d 44 a3 33 be
       -0.15666822 -0.09878559 0.036559172 -0.1754275
000030 c7 d5 7c bd f2 ce ef bd 37 40 27 3e e9 07 8b bd
       -0.06172731 -0.117093936 0.1633309 -0.06788618
000040 75 dc ee 3d e6 01 9e 3d d6 87 d9 bd 8f cd 2d be
       0.116631426 0.07715206 -0.10621612 -0.16972946
000050 6e b6 e4 bb a6 b6 b9 bd c7 4b 27 be 88 71 c0 3d
       -0.006979755 -0.090680405 -0.163375 0.09396654
000060 f6 e8 8c bd 7c 02 12 be 22 15 00 be 44 00 18 be
       -0.06880371 -0.1425876 -0.12508062 -0.14843851
000070 aa ee c5 3d e8 84 d2 bd 12 a8 ff 3d 39 cb 34 3e
       0.09664662 -0.10279256 0.12483229 0.17655648
000080 bb 95 0c 3e fa c7 32 3e fe af 8c bd f9 40 97 bd
       0.13728993 0.17459098 -0.06869505 -0.073854394
000090 2f 88 7b 3c b4 b2 76 bd b2 13 b1 3d 51 45 5e bd
       0.015352293 -0.06022902 0.08646335 -0.054265324
0000a0 9b e4 27 bd c5 98 2b be 92 86 f7 bd b4 b5 d0 3c
       -0.0409895 -0.16757496 -0.12086214 0.025477268
0000b0 f0 d3 31 be 70 90 f9 bc 81 5f 09 3d 66 56 1a be
       -0.17366004 -0.030464381 0.033538345 -0.15072021
0000c0 ab 93 bb bd 69 ad ce bd 1e 24 c3 3d ea ac 92 3d
       -0.09159025 -0.10091669 0.09528373 0.07161887
0000d0 96 d7 9e 3c 82 22 b7 3c 33 e1 2e be 44 31 19 bd
       0.019389909 0.022355322 -0.17078094 -0.0374005
0000e0 ac 3a dd bd 43 68 49 3d 06 c1 09 be db 55 30 be
       -0.108022064 0.049171697 -0.13452539 -0.17220251
0000f0 75 30 6b 3c d6 fe 0b 3e 64 d1 1b be 2a 27 23 3e
       0.014354815 0.13671431 -0.15216595 0.15932909

fc2.weight f4 [32, 64]
000000 58 be 1c bd 34 36 bc 3d e0 c1 69 bc ba 9b b1 3d
       -0.038267463 0.09190026 -0.014267415 0.086722806
000010 c8 f5 fa 3c 4c 30 67 3d 08 60 b5 bd f0 fe 24 3d
       0.030634776 0.056442544 -0.08856207 0.04028219
000020 58 bb fe bd d0 4f 97 3c c0 71 a8 3c b4 0e 8d bd
       -0.12438077 0.018470675 0.020562053 -0.0688757
000030 e4 b9 eb 3d f4 6b 2d 3d 68 e0 92 bd 10 e7 67 bd
       0.11510065 0.04233928 -0.07171708 -0.056616843
000040 74 c2 58 bd d0 f1 3a 3c 50 9d a7 3d c0 41 c8 3b
       -0.05291982 0.011410192 0.08184302 0.0061113536
000050 e0 2a 44 3c 10 f0 39 bd 1e 8b a1 3d 88 d7 d7 3d
       0.011973113 -0.045394957 0.078878626 0.10539156
000060 08 32 ce 3d d2 85 e9 bd 8c a8 96 3d e8 15 b8 bd
       0.100681365 -0.11402477 0.073563665 -0.08988553
000070 08 7b ff 3c 14 3e d3 3d 6e d9 ad bd 48 d0 40 3d
       0.031186596 0.10314575 -0.08488737 0.047073632
000080 88 e2 c6 3c 7c 06 6d 3d f4 51 07 bd e0 92 96 bc
       0.02427794 0.057867512 -0.03303714 -0.018380582
000090 00 17 6c 3a 24 f9 c8 bd 3e d3 cf 3d f0 0e 32 3c
       0.0009006113 -0.09813145 0.10147713 0.010867819
0000a0 20 44 82 3d 7a 1c 89 bd f8 39 6b bd 0c 73 d7 3d
       0.0636065 -0.066948846 -0.05742833 0.1051999
0000b0 00 cf a1 3c 6e 04 e2 3d 0e 85 80 bd cc 8d 2a bd
       0.019752026 0.11036001 -0.06275378 -0.041639134
0000c0 00 d6 73 3c 00 91 61 3c 9c 42 41 bd 00 3d cb ba
       0.014882565 0.013767481 -0.047182664 -0.001550585
0000d0 bc 3b 10 bd 50 57 de bd 92 fc bc 3d 00 9c 0a bc
       -0.035213217 -0.10856497 0.092278615 -0.008460045
0000e0 9a 73 8a 3d 18 10 2e bd 10 b9 84 3c ac 3f 4e 3d
       0.067603305 -0.042495817 0.016201526 0.05035369
0000f0 c0 69 ff bc 74 6c 0b 3d 60 c0 c5 3b 88 95 30 3d
       -0.031178355 0.034038976 0.006034896 0.043111354
000100 fa 0b 9f 3d 82 60 89 3d 5c a6 60 3d 58 d5 ea 3c
       0.07765956 0.067078605 0.054846153 0.028666183
000110 ba b1 9f bd ca a6 e0 3d 00 e4 11 3d 20 b4 3b bc
       -0.077975705 0.109693125 0.03561783 -0.011456519
000120 20 65 48 3d f0 19 b4 3c 24 98 43 bd 2e 4a e9 3d
       0.048924565 0.021985024 -0.047752514 0.11391102
000130 e0 20 21 3d f8 e0 a0 bd 0c 47 44 3d 20 8b 25 bd
       0.039337993 -0.078554094 0.047919318 -0.040415883
000140 6e 87 97 3d 00 2e a0 3a f8 3f fc bc 8e 9f dc 3d
       0.07398878 0.001222074 -0.030792221 0.1077262
000150 a6 e1 8c bd 24 5e eb bd 48 71 ab 3c 6c b8 36 bd
       -0.068789765 -0.11492565 0.02092804 -0.044609472
000160 90 28 09 3d 00 23 9b 3a 42 1b ec 3d 10 99 8e 3d
       0.03348595 0.0011835992 0.115286365 0.06962788
000170 c0 91 4c 3c 84 93 ac 3d d4 13 a9 bd cc 59 67 bd
       0.012485921 0.08426574 -0.08255735 -0.05648212
000180 dc 80 ff 3d 00 11 18 bd 2c f1 5b bd b0 61 41 bd
       0.1247575 -0.037125587 -0.053696796 -0.047212303
000190 20 13 84 bd 44 18 66 3d ac f0 2d 3d c0 d6 56 bd
       -0.0644896 0.056175485 0.04246585 -0.052450895
0001a0 50 48 ea bc e8 7b a3 bd 8e de b7 3d 28 79 04 3d
       -0.028598934 -0.079826176 0.08977996 0.032342106
0001b0 ac 8d 52 bd 22 b0 b2 3d 6c 30 04 bd 1a 28 88 bd
       -0.05140464 0.08725001 -0.03227274 -0.06648274
0001c0 e0 f3 fd bc c0 0e c9 3d 14 8b dc 3d 2e 76 97 bd
       -0.031000078 0.098172665 0.107687145 -0.07395588
0001d0 c0 58 53 bb c0 fa ab bc 84 cf c7 bd e6 f6 f3 bd
       -0.0032248944 -0.02099359 -0.09756377 -0.119123265
0001e0 96 8e cc bd c8 8f 76 bd 52 2e ff 3d 48 00 73 bd
       -0.099881336 -0.060195714 0.12460007 -0.05932644
0001f0 e0 71 f8 bb 10 8c e5 bc 24 d7 c4 bd 30 1c 69 bd
       -0.0075819343 -0.028020889 -0.09611347 -0.056911647
000200 a0 f5 a0 bb 36 2c 85 bd 60 ef 1e 3d de d6 c2 3d
       -0.0049120933 -0.06502573 0.038802505 0.09513639
000210 d4 c0 a5 3d 1c 26 6e bd b6 52 a1 bd c8 38 6a 3d
       0.0809342 -0.058141813 -0.07877104 0.057183057
000220 50 4d 0e 3d 50 06 b6 3d e0 fc 78 3c a4 a2 ad 3d
       0.0347417 0.08887923 0.015197009 0.08478287
000230 9a 54 8b 3d 00 e9 fe bb 68 68 9d bc ee 30 cb 3d
       0.06803246 -0.0077792406 -0.019214824 0.09921442
000240 a2 fa da 3d c0 1c c3 3b d2 a4 c3 bd 60 17 14 bc
       0.10692336 0.005954355 -0.09552921 -0.009038776
000250 08 86 2b 3d 2c a1 3c 3d 14 b6 95 3d 0e 3e d3 bd
       0.04187587 0.046052143 0.07310119 -0.1031457
000260 48 0d f1 bd b4 0c a9 bd 62 97 d1 bd 12 9e c1 bd
       -0.11770111 -0.08254376 -0.10233952 -0.09453978
000270 90 e7 a0 3d b0 ca 9c bc 58 f7 3b bd 42 ad a6 bd
       0.07856667 -0.019139618 -0.045890182 -0.08138515
000280 a0 6e ca bd 58 a4 88 3c 50 41 31 bd 50 9e c4 3d
       -0.09884381 0.016679928 -0.043275177 0.09600508
000290 78 60 95 3d 00 2e cc 3b 0c 5a e8 3d f0 70 16 3d
       0.072937906 0.0062310696 0.113453 0.0367288
0002a0 0c 73 07 3d 80 d2 bb 3b fe 64 db 3d 2c 4b b4 bd
       0.0330687 0.0057318807 0.10712622 -0.088034004
0002b0 22 47 d5 3d 94 73 52 bd 90 86 cc 3d 84 ad 0f bd
       0.10413958 -0.051379755 0.09986603 -0.035077587
0002c0 04 68 7d 3d 00 59 a3 3c 3a 8b 9a bd 68 61 ee 3d
       0.061866775 0.0199399 -0.075460866 0.116396725
0002d0 12 cd b1 bd e0 94 2f bd 40 7a b9 3b d2 b5 aa 3d
       -0.08681692 -0.042866588 0.0056603253 0.08335461
0002e0 10 8c 4e 3c da 0e 9f bd 00 55 6f ba fc 9a d3 bd
       0.012606636 -0.077665046 -0.00091297925 -0.10332295
0002f0 7a 34 89 bd a0 8a 0f 3c dc a1 3a bd 70 2c 9b 3c
       -0.06699462 0.008761078 -0.045564517 0.018942088
000300 9e 6d a1 bd a8 d0 3b bd 18 d4 14 bd 00 e0 9c b7
       -0.07882236 -0.045853287 -0.03633508 -1.8700957e-05
000310 f0 69 6c bd 50 2f d1 bd 72 97 e1 3d f6 62 ec bd
       -0.057718217 -0.10214102 0.11015214 -0.11542313
000320 fe 60 d2 3d 80 44 e7 3a 30 ab 2d bd 94 6b c7 3d
       0.10272406 0.0017644316 -0.042399585 0.09737316
000330 48 25 96 3c ac 71 d4 bd 88 d0 ab bc 68 db 9a 3c
       0.018328324 -0.10373244 -0.020973459 0.01890345
000340 8c 87 c0 3d c0 7d c1 3c b0 21 78 bd fe e2 d1 3d
       0.094008535 0.023619533 -0.060579002 0.102483734
000350 f0 fe f4 3c 8c be 12 3d a0 ee 4b bd 80 e4 c9 bd
       0.02990672 0.03582625 -0.049788117 -0.09858036
000360 4a 3c c8 3d a0 64 82 bd e4 30 f4 3d 46 1d d5 bd
       0.09777124 -0.06366849 0.11923388 -0.10405974
000370 78 ca d9 3d 24 94 2a 3d f8 14 b9 bc 08 94 a4 bc
       0.10634321 0.041645184 -0.022593006 -0.020090118
000380 84 a3 5f bd ca 4e fc 3d 08 b5 9f 3d ac 7b 3a 3d
       -0.0545993 0.12319715 0.07798201 0.0455281
000390 00 a8 b1 bd 00 bd 45 ba 68 31 bf bc f0 f7 1b 3d
       -0.086746216 -0.0007543117 -0.023338988 0.03807825
0003a0 da 43 e3 bd 00 d4 73 3c 6a 6b e1 3d 2c 0d c9 bd
       -0.11096926 0.014882088 0.11006816 -0.098169655
0003b0 60 78 e2 bd 40 63 81 3b f0 23 93 3c 26 de 9d 3d
       -0.11058116 0.003948599 0.017961472 0.07708387
0003c0 ac 4c 91 bd a0 7d 3d bd 60 6c 51 3d e0 c8 cb 3d
       -0.07094702 -0.046262383 0.051128745 0.09950423
0003d0 28 6a 99 3c ac 02 8a bd a0 68 e4 3d d8 c1 2d 3d
       0.018727377 -0.06738791 0.11152768 0.042421192
0003e0 74 ec 6c bd 6e 20 eb bd 84 11 62 3d 86 df c0 bd
       -0.057842687 -0.11480795 0.055192485 -0.09417634
0003f0 40 9e 8a 3b d2 c0 f1 bd 68 8f 08 bd 7e 3d 9d 3d
       0.0042302907 -0.11804356 -0.033339888 0.07677744

fc2.bias f4 [32]
000000 da 6c 9b 3d a0 57 75 bd 0e 9c ba bd 96 52 ca 3d
       0.07589121 -0.05989802 -0.09111796 0.09879033
000010 2c c3 b5 bd 3c d1 d9 bd 38 e9 8b 3d e0 2e a3 bc
       -0.08875117 -0.106356114 0.06831592 -0.019919813
000020 c0 46 ea 3c a2 72 ec 3d b0 7b a4 3c 62 90 d3 bd
       0.02859819 0.11545302 0.02007851 -0.10330273
000030 48 ad cc 3c 36 26 d8 3d 1c 87 a8 3d a0 7e 47 3d
       0.02498497 0.10554163 0.08228895 0.048704743
000040 e6 11 da bd de 58 cb bd cc df 0d bd c4 e5 f1 bd
       -0.10647945 -0.099290594 -0.034637257 -0.118114024
000050 f2 ff 8c bd 68 00 ae bc 2a cd a8 3d 98 f5 ff bc
       -0.06884755 -0.021240428 0.08242257 -0.031245038
000060 58 b1 d0 3c 60 d2 24 bc d4 a2 65 3d 50 bf 19 bd
       0.02547519 -0.010059923 0.056063488 -0.037535965
000070 06 d6 9d bd 0c 99 f4 3d c0 c7 b4 3c 38 6f cc bd
       -0.07706837 0.11943254 0.022067904 -0.09982151

fc3.weight f4 [1, 32]
000000 3a e0 10 3e a1 fe 0b be 23 f0 ab 3d cb 61 ed 3d
       0.14148036 -0.13671352 0.08395412 0.11590918
000010 00 19 1d 3e 7c 97 59 3c 93 e4 17 be ea 6a b1 bd
       0.15341568 0.013280746 -0.14833288 -0.0866297
000020 1f 2f 6a 3d 4d 0b 9a 3c 41 9a ba 3d 38 ea d4 bd
       0.057173844 0.018804217 0.09111453 -0.10396236
000030 ff fb 24 3d 56 7f 54 3d fc 1a f1 bd 3e 5a be 3d
       0.040279385 0.05187925 -0.11772725 0.09294556
000040 95 d2 ba 3c 05 7f cd bc 03 9f fc 3d d5 af 29 3e
       0.022805491 -0.025084982 0.123350166 0.16570981
000050 23 f8 87 3d 4b 29 21 3c a7 97 1c 3e a7 42 a3 bc
       0.06639125 0.009836505 0.15292226 -0.019929243
000060 ae 62 c7 bb f9 c1 1f bd 82 4c d1 bd ab 6b 8b 3d
       -0.0060847616 -0.039003346 -0.10219671 0.068076454
000070 05 5b 86 3d a2 a6 af 3d 25 3c 03 bc 4d d0 26 3b
       0.06560329 0.085767046 -0.008009945 0.0025453747
