unitree_6_ar.pt (torch, 19322 bytes, 5 tensors)

fc1.weight f4 [64, 31]
0.07574078 0.05893267 -0.12837699 0.08076737 0.17893025 0.045103442 -0.02662156 -0.071119405
0.07520517 -0.114247605 0.10019305 0.16326208 0.08408116 -0.12260114 0.09493272 -0.13843973
0.067967355 -0.121876255 0.008194529 -0.09848879 0.081384145 0.15154174 0.17358895 0.0042220675
-0.07377389 0.108438075 -0.044292215 -0.020257851 0.0032744762 -0.16307427 0.15221184 -0.052635808
-0.05572733 -0.031440042 -0.053406868 0.15840493 0.16058747 0.07510683 0.11200134 0.06553423
0.12189809 0.06707742 -0.044132106 0.11592078 0.03692482 0.02776752 0.02592216 0.07965828
-0.14576814 -0.02729685 -0.041816313 -0.10293411 -0.118157335 0.11748907 0.16583982 -0.07968907
-0.11748393 0.14300244 0.02960074 -0.123385936 -0.009039307 -0.080852434 0.15472828 0.0014004045
0.16767195 0.003407436 -0.013860079 0.17007619 0.022276467 0.07694855 0.10071948 -0.038401235
0.01262032 0.12149562 -0.09346192 -0.14204204 -0.019864881 -0.076480046 -0.10554487 0.056100924
-0.1346615 0.012880886 0.008046818 -0.038667947 -0.08318902 -0.15158507 -0.05778673 -0.0256177
0.03211349 -0.132172 0.13830942 0.16991907 0.13979007 -0.1531641 -0.039759245 0.013821433
-0.16645536 -0.0543299 -0.06598573 0.032804456 -0.16037054 -0.028364362 -0.11356662 -0.106606245
0.0017010096 -0.1714531 -0.13170306 -0.062334474 -0.12679672 -0.16853772 0.024247186 -0.078725524
-0.022919962 0.02725071 0.14490336 0.08127307 -0.14977077 -0.1557758 0.06602545 -0.09754717
-0.17828895 -0.0067085256 0.07597107 0.060302585 -0.08255193 0.13238423 0.10750534 -0.08924649
0.14332527 -0.09083625 0.15218207 0.025533343 0.047875155 0.10032269 -0.07452234 -0.061239623
-0.14951886 -0.09749711 0.085826956 0.13747318 -0.11023958 -0.1411282 -0.08670136 0.0373768
-0.16667613 -0.1492557 -0.014520919 -0.06757318 -0.1592964 0.13701019 -0.13736065 0.049441386
-0.11293184 0.17701413 -0.015633564 0.16061264 -0.100200355 0.032764696 0.064894095 -0.17938937
0.061393797 -0.04372556 0.09326304 0.02078663 -0.14536937 0.013240542 -0.17801912 0.088306524
-0.10203471 -0.008735704 -0.01873074 -0.024051642 0.09225541 0.030357499 -0.033748385 0.016276782
-0.15970062 0.11970288 -0.007655218 -0.09665838 -0.12788326 -0.08269551 -0.110852785 0.01899197
-0.04276487 -0.05504647 -0.06336176 -0.1595426 -0.13270898 0.16359787 -0.124331735 -0.15812986
-0.035475794 0.080005646 0.11997827 0.17605713 -0.06997468 0.06315285 0.11100467 0.10816658
0.008341449 0.06143634 -0.16782007 -0.062901966 0.12002788 0.124016695 -0.091488846 -0.12547381
0.0893216 -0.040645067 -0.113602184 0.07271743 0.17137837 -0.050498683 0.008125395 -0.028231295
-0.13865064 -0.03137904 0.13565487 0.16625722 -0.05962597 -0.1727015 0.17411172 0.038905926
-0.14022599 -0.04141951 0.16904454 -0.022038808 -0.04593362 0.07246052 -0.07342922 -0.019595364
-0.010151525 0.03370856 -0.0124297645 -0.13657665 0.039921172 -0.047592256 0.099650465 0.16834912
-0.14479338 -0.17724082 -0.015428108 -0.17106575 0.025709253 0.005482875 0.124994285 -0.053918645
-0.11346507 0.058357794 -0.103422806 0.10909979 0.15755892 -0.13002522 -0.1344927 -0.1426428
00000000: fb1d 9b3d 6263 713d 4275 03be 5d69 a53d
00000010: 7e39 373e 63be 383d 7515 dabc 0da7 91bd
00000020: 2b05 9a3d a6fa e9bd 0432 cd3d 2d2e 273e
00000030: be32 ac3d 4e16 fbbd 166c c23d 25c3 0dbe
00000040: 7832 8b3d 429a f9bd 5942 063c 7eb4 c9bd
00000050: bbac a63d c22d 1b3e 4dc1 313e 4559 8a3b
00000060: c416 97bd c814 de3d c16b 35bd cbf3 a5bc
00000070: 9898 563b f1fc 26be 6cdd 1b3e a598 57bd
00000080: 5742 64bd 46c7 00bd 29c1 5abd e734 223e
00000090: 0b71 243e 9cd1 993d f560 e53d cf36 863d
000000a0: b5a5 f93d e35f 893d dec3 34bd e067 ed3d
000000b0: 7b3e 173d b678 e33c b65a d43c e123 a33d
000000c0: 3e44 15be a59d dfbc 9547 2bbd 1ecf d2bd
000000d0: 79fc f1bd 1c9e f03d ead1 293e 0634 a3bd
000000e0: 6a9b f0bd 3b6f 123e 407d f23c c4b1 fcbd
000000f0: 9a19 14bc f695 a5bd 1771 1e3e c78d b73a
00000100: 32b2 2b3e 4a4f 5f3b 6315 63bc 7428 2e3e
00000110: 237d b63c 3497 9d3d 0446 ce3d 9d4a 1dbd
00000120: 75c5 4e3c b2d2 f83d f768 bfbd 7873 11be
00000130: adbb a2bc 92a1 9cbd e927 d8bd 15ca 653d
00000140: b4e4 09be 5a0a 533c cdd6 033c 4862 1ebd
00000150: 015f aabd 1e39 1bbe c7b1 6cbd 36dc d1bc
00000160: 6f89 033d 1958 07be fca0 0d3e 44ff 2d3e
00000170: 2125 0f3e 0dd7 1cbe 97da 22bd 4b73 623c
00000180: 4673 2abe 0789 5ebd 8723 87bd f75d 063d
00000190: 2d38 24be 615c e8bc 9e95 e8bd 6054 dabd
000001a0: 69f4 de3a 6791 2fbe 2bdd 06be 6f52 7fbd
000001b0: 00d7 01be 2795 2cbe 09a2 c63c d93a a1bd
000001c0: a5c2 bbbc e23c df3c 8c61 143e 7f72 a63d
000001d0: 825d 19be b183 1fbe 5a38 873d d0c6 c7bd
000001e0: 6191 36be 31d3 dbbb b896 9b3d d8ff 763d
000001f0: fc10 a9bd bb8f 073e c22b dc3d ddc6 b6bd
00000200: dcc3 123e 5b08 babd 9ed5 1b3e 4d2b d13c
00000210: bd18 443d fc75 cd3d 2b9f 98bd 66d6 7abd
00000220: 791b 19be 91ac c7bd 0bc6 af3d c5c5 0c3e
00000230: 4ac5 e1bd e983 10be 7c90 b1bd 6a18 193d
00000240: 26ad 2abe 7cd6 18be 26e9 6dbc cf63 8abd
00000250: 981e 23be 664c 0c3e 45a8 0cbe 0d83 4a3d
00000260: cf48 e7bd 3143 353e f611 80bc a477 243e
00000270: d835 cdbd 4634 063d 32e7 843d d9b1 37be
00000280: 1078 7b3d 9319 33bd b100 bf3d b948 aa3c
00000290: b5db 14be dcee 583c a54a 36be 0dda b43d
000002a0: 93f7 d0bd 3320 0fbc 3571 99bc f307 c5bc
000002b0: 68f0 bc3d 4ab0 f83c bf3b 0abd e356 853c
000002c0: 8f88 23be c926 f53d 9fd8 fabb d4f4 c5bd
000002d0: d4f3 02be 435c a9bd c906 e3bd 0c95 9b3c
000002e0: 372a 2fbd 6878 61bd cfc3 81bd 235f 23be
000002f0: dde4 07be 3386 273e a3a1 febd cbec 21be
00000300: 114f 11bd 00da a33d 2bb7 f53d 5248 343e
00000310: e34e 8fbd 4856 813d 6b56 e33d 7186 dd3d
00000320: 93aa 083c aca4 7b3d 06d9 2bbe bfd2 80bd
00000330: 2dd1 f53d 77fc fd3d 815e bbbd 357c 00be
00000340: 3eee b63d 717b 26bd 43a8 e8bd e0ec 943d
00000350: d07d 2f3e b5d7 4ebd 6020 053c 5145 e7bc
00000360: 6ffa 0dbe 4f87 00bd 1ce9 0a3e 553f 2a3e
00000370: 5c3a 74bd a9d8 30be 584a 323e d25b 1f3d
00000380: 6797 0fbe 81a7 29bd 031a 2d3e bb8a b4bc
00000390: e424 3cbd 2e66 943d 0f62 96bd 7586 a0bc
000003a0: 9552 26bc fd11 0a3d 36a6 4bbc c0da 0bbe
000003b0: 6284 233d 19f0 42bd 8b15 cc3d b663 2c3e
000003c0: b744 14be 9e7e 35be 2dc6 7cbc dc2b 2fbe
000003d0: 369c d23c b0a9 b33b 01fd ff3d ccd9 5cbd
000003e0: 6060 e8bd 9508 6f3d 56cf d3bd b66f df3d
000003f0: 2057 213e 5525 05be 74b8 09be f410 12be

fc1.bias f4 [64]
-0.05480057 -0.039727814 0.16334152 -0.07333868 -0.08760989 -0.041860227 -0.083546706 0.11107877
0.04994734 -0.0720662 0.045613743 0.084342815 0.17898574 0.020926526 0.16428746 -0.011795539
0.010898113 -0.09946835 0.03286603 0.11807998 -0.044555716 -0.08414858 -0.008250797 -0.085500255
0.17634767 -0.0120319985 0.17885126 -0.07755974 0.02339303 0.02247019 0.16880669 0.10599272
0.045814447 0.12735772 0.10604822 -0.11501753 0.16080712 0.007251413 -0.15713456 -0.08904992
-0.15716918 -0.040069163 0.074178874 0.07813682 -0.12481007 -0.1617653 -0.16504103 0.010307458
0.11882627 -0.031313352 -0.13155754 0.091487154 -0.06537309 0.032595593 -0.105473794 -0.024934296
-0.11936678 -0.1406798 0.11315222 0.15129575 0.1360345 0.13214147 0.12746821 -0.11781969
00000000: 9076 60bd a2b9 22bd 0043 273e 9732 96bd
00000010: d06c b3bd a175 2bbd 891a abbd 447d e33d
00000020: 9595 4c3d 7297 93bd 7ad5 3a3d edbb ac3d
00000030: 0a48 373e 1b6e ab3c f93a 283e 1442 41bc
00000040: 008e 323c 10b6 cbbd 889e 063d ebd3 f13d
00000050: 0e80 36bd 1756 acbd 5a2e 07bc c21a afbd
00000060: 7c94 343e dc21 45bc c924 373e a4d7 9ebd
00000070: bda2 bf3c 6713 b83c a9db 2c3e b612 d93d
00000080: eea7 3b3d 106a 023e cf2f d93d 508e ebbd
00000090: 9faa 243e 439d ed3b e2e7 20be ce5f b6bd
000000a0: f5f0 20be 901f 24bd 18eb 973d 3206 a03d
000000b0: 6c9c ffbd cea5 25be 8400 29be 9de0 283c
000000c0: 305b f33d 6e42 00bd 05b7 06be 9e5d bb3d
000000d0: 54e2 85bd f582 053d a502 d8bd 0243 ccbc
000000e0: 9276 f4bd 5e0e 10be 5abc e73d 46ed 1a3e
000000f0: a14c 0b3e 1850 073e 0787 023e 734b f1bd

fc2.weight f4 [32, 64]
-0.08294295 -0.08907655 0.11959264 -0.061592683 0.037143588 -0.0022051781 -0.08708459 -0.11206743
0.009357914 -0.001616314 0.118603274 -0.006060973 0.094699144 0.07793836 -0.06750305 -0.08955921
-0.0036279857 0.04565242 0.116488606 0.03921537 -0.01132004 0.07281418 -0.05564481 0.06479715
-0.012321189 -0.11042833 0.059041217 0.063216925 -0.093411475 0.09214747 -0.09873757 0.078535125
-0.11351715 0.022094682 0.063253105 -0.04602599 0.07772842 -0.04226531 -0.10684034 -0.028232232
-0.017237768 0.064600736 -0.07970324 0.04524067 -0.11455242 0.062355578 -0.09904942 0.08612381
-0.00035858154 -0.12313162 0.119625255 -0.09036465 0.0032228827 -0.040045917 0.007757485 0.018184438
-0.096901834 -0.123052076 -0.08388905 -0.11594443 0.11255509 -0.07385795 0.0672559 0.06964432
0.0662218 0.066270545 -0.069065616 -0.01394093 -0.08789165 0.053715557 0.08905786 -0.06373364
-0.067573756 -0.07773928 -0.12244955 0.005773008 0.08717379 0.098700956 0.043801725 -0.006553456
0.022566125 -0.007716492 -0.06806603 0.046287253 0.122253984 0.06051612 -0.050779 -0.06611094
0.124182925 -0.007575363 -0.09437291 0.101094544 -0.05875291 -0.04267083 0.104430825 -0.10587986
0.061993703 -0.08888571 0.11213547 0.1057968 -0.061467484 -0.06468864 -0.062946826 0.03844455
-0.072412804 -0.12169525 -0.094836354 -0.0034653395 -0.06603174 -0.049280927 0.012627333 -0.0063923
-0.11316402 -0.067573234 -0.019980505 0.109966636 -0.10660775 -0.06627925 -0.025516734 0.07530126
0.1101426 0.06411287 0.04604569 0.07319246 -0.116154864 -0.043277577 -0.10302295 0.063546896
0.019557849 -0.023989335 0.009400293 0.051534384 -0.12274267 -0.065593824 -0.027208582 0.06590909
0.04704684 -0.08548477 -0.026043564 0.036413908 -0.10100952 -0.124297366 0.118196696 -0.06987679
0.12115179 -0.03846863 -0.012812346 0.019798934 -0.10701318 0.032432765 0.030822396 -0.11256316
-0.0447772 -0.10589199 0.102940425 -0.12470019 -0.008641049 0.017240763 0.05583696 0.058662906
0.043235436 0.078999996 -0.09272283 -0.002991572 0.108627126 0.068204954 0.026691616 0.10116026
0.0034736842 0.03476751 0.053703845 -0.06176296 -0.076034054 -0.04847677 -0.08886173 -0.0289689
0.120549366 0.10418822 0.063287914 0.09761591 0.04139264 0.027119905 -0.09998329 -0.077442795
0.027316406 -0.1187416 0.072961405 0.046325773 -0.044288248 -0.1046737 -0.056846917 0.110445395
-0.07965669 0.067159206 0.02218835 0.09233886 -0.10419719 0.055581883 0.010348037 0.021793976
-0.10197061 -0.044425413 -0.10140818 -0.053872377 0.0905911 -0.11939487 0.037975654 0.033910364
0.008923098 -0.11667167 0.08729315 0.043314412 0.12001628 -0.0142300725 -0.02446498 -0.06608285
0.061098784 -0.03089486 -0.09248856 0.055348963 -0.12315489 0.076561034 0.09696528 -0.02143012
-0.074021935 -0.07617311 0.048415452 0.055799633 -0.10412648 -0.023770094 0.10146047 0.1048533
-0.06599653 -0.0624426 -0.03532639 0.12324345 -0.06803653 0.04849343 0.00082172453 -0.11262311
0.10184924 -0.05008571 -0.112862885 0.03999439 -0.012043789 0.11562537 0.023415938 -0.055601314
-0.08726969 0.07167892 -0.040387124 0.09013784 0.030874997 -0.03396687 0.08174181 0.043396294
00000000: fedd a9bd c46d b6bd fcec f43d 9c48 7cbd
00000010: e023 183d c084 10bb 6859 b2bd 9c83 e5bd
00000020: f051 193c 80da d3ba 46e6 f23d 209b c6bb
00000030: a0f1 c13d 269e 9f3d 0a3f 8abd d26a b7bd
00000040: 80c3 6dbb 08fe 3a3d 9491 ee3d 4ca0 203d
00000050: b077 39bc 9a1f 953d d0eb 63bd 5eb4 843d
00000060: d0de 49bc 4028 e2bd 34d5 713d e077 813d
00000070: 844e bfbd d0b7 bc3d ec36 cabd 06d7 a03d
00000080: ae7b e8bd e8ff b43c d88a 813d c085 3cbd
00000090: 1430 9f3d 641e 2dbd 1ccf dabd 4847 e7bc
000000a0: 3836 8dbc 644d 843d 743b a3bd 484e 393d
000000b0: 769a eabd 9068 7f3d 6cda cabd ae61 b03d
000000c0: 0000 bcb9 6e2c fcbd 16fe f43d 1a11 b9bd
000000d0: 0037 533b 3007 24bd 8032 fe3b 88f7 943c
000000e0: 7874 c6bd ba02 fcbd 06ce abbd 4674 edbd
000000f0: 4883 e63d d642 97bd 76bd 893d aea1 8e3d
00000100: 4c9f 873d dab8 873d 4672 8dbd 8068 64bc
00000110: 8a00 b4bd d804 5c3d f863 b63d c886 82bd
00000120: 1c64 8abd c635 9fbd d4c6 fabd 802b bd3b
00000130: 2c88 b23d ba23 ca3d 7069 333d 60be d6bb
00000140: 98dc b83c a0da fcbb 3466 8bbd b497 3d3d
00000150: 4c60 fa3d c0df 773d a4fd 4fbd 2c65 87bd
00000160: 9e53 fe3d c03a f8bb 9646 c1bd a80a cf3d
00000170: e4a6 70bd 9cc7 2ebd d4df d53d 8ad7 d8bd
00000180: 1ced 7d3d b609 b6bd 48a7 e53d feab d83d
00000190: 54c5 7bbd 7a7b 84bd 44ea 80bd 0878 1d3d
000001a0: 2a4d 94bd 5c3b f9bd 9039 c2bd c01a 63bb
000001b0: a63b 87bd ccda 49bd e0e2 4e3c 8076 d1bb
000001c0: 8ac2 e7bd d663 8abd 28ae a3bc 3036 e13d
000001d0: 2a55 dabd 6abd 87bd 7808 d1bc 8c37 9a3d
000001e0: 7292 e13d 9c4d 833d 689a 3c3d eee5 953d
000001f0: 9ae2 edbd d443 31bd b2fd d2bd e024 823d
00000200: c837 a03c 4885 c4bc b003 1a3c b815 533d
00000210: 8260 fbbd 0e56 86bd 88e4 debc 58fb 863d
00000220: 30b4 403d a412 afbd 5059 d5bc c026 153d
00000230: 14de cebd 9e8f febd 1c11 f23d 901b 8fbd
00000240: 6e1e f83d 4891 1dbd e0ea 51bc 6031 a23c
00000250: ba29 dbbd 38d8 043d 407f fc3c 8487 e6bd
00000260: 4c68 37bd e6dd d8bd 6ed2 d23d d062 ffbd
00000270: 3093 0dbc 803c 8d3c 4cb5 643d 8448 703d
00000280: a417 313d c0ca a13d 78e5 bdbd 400e 44bb
00000290: e677 de3d 0aaf 8b3d 60a8 da3c 1c2d cf3d
000002a0: c0a6 633b 6068 0e3d 90f8 5b3d 28fb 7cbd
000002b0: beb7 9bbd 948f 46bd 24fd b5bd 3050 edbc
000002c0: 96e2 f63d a260 d53d 189d 813d daea c73d
000002d0: 548b 293d 902a de3c 0ac4 ccbd 549a 9ebd
000002e0: a8c6 df3c cc2e f3bd ca6c 953d 18c0 3d3d
000002f0: 9867 35bd 2a5f d6bd 50d8 68bd 3231 e23d
00000300: 0c23 a3bd c48a 893d 58c4 b53c 281c bd3d
00000310: 5665 d5bd d4a9 633d d08a 293c 4889 b23c
00000320: f8d5 d0bd 6cf7 35bd 18af cfbd 48a9 5cbd
00000330: d487 b93d 4c85 f4bd 5c8c 1b3d 98e5 0a3d
00000340: 3032 123c 8ef1 eebd c0c6 b23d 746a 313d
00000350: 18cb f53d 4025 69bc c86a c8bc 7256 87bd
00000360: b842 7a3d 3817 fdbc a46a bdbd 98b5 623d
00000370: a238 fcbd 08cc 9c3d bc95 c63d 388e afbc
00000380: d098 97bd a600 9cbd 484f 463d 288e 643d
00000390: 4440 d5bd 80b9 c2bc 82ca cf3d 54bd d63d
000003a0: 3029 87bd d0c3 7fbd 68b2 10bd 1067 fc3d
000003b0: bc56 8bbd 0ca1 463d 0069 573a f2a6 e6bd
000003c0: 5696 d03d ac26 4dbd a824 e7bd 28d1 233d
000003d0: 5053 45bc fecc ec3d c8d2 bf3c 34be 63bd
000003e0: 74ba b2bd 66cc 923d f86c 25bd 309a b83d
000003f0: 90ed fc3c d820 0bbd 4068 a73d 50c0 313d

fc2.bias f4 [32]
0.07429299 -0.02453582 -0.043844253 0.11632645 0.014473394 -0.10590781 0.07733902 -0.026387542
-0.10665852 0.090916336 -0.0062970817 -0.055479467 0.120405346 0.005014971 0.04557459 -0.022911176
-0.0034851432 0.10309775 0.04034695 0.08491935 -0.029082388 -0.062343985 0.09065083 -0.09265983
0.08368477 -0.0021944642 0.08811951 0.0029076189 0.113262385 0.015996307 0.08977929 -0.023598164
00000000: ec26 983d 58ff c8bc 0896 33bd 903c ee3d
00000010: d021 6d3c 32e6 d8bd ec63 9e3d b02a d8bc
00000020: c86f dabd 5832 ba3d c057 cebb 703e 63bd
00000030: 1497 f63d a054 a43b 6cac 3a3d 38b0 bbbc
00000040: 0067 64bb ea24 d33d d842 253d 32ea ad3d
00000050: 303e eebc 685c 7fbd 24a7 b93d 70c4 bdbd
00000060: ec62 ab3d 00d1 0fbb 0078 b43d c08d 3e3b
00000070: 1cf6 e73d b00a 833c 34de b73d f050 c1bc

fc3.weight f4 [1, 32]
0.06727023 0.0032306823 -0.09593358 0.116097346 0.103004076 -0.066138245 -0.17262386 0.13568164
0.054879725 0.06690924 -0.15000828 0.15378731 -0.13811707 -0.1266736 0.048992675 -0.15782437
-0.16739784 0.0042500882 -0.16831419 -0.049431402 0.105912566 0.1711786 0.06305691 -0.053396158
0.1442327 -0.12561956 -0.06924202 0.11528756 0.06975784 0.04089342 0.10183003 -0.07200641
00000000: f9c4 893d dbb9 533b d378 c4bd 72c4 ed3d
00000010: cdf3 d23d 7d73 87bd 4fc4 30be 21f0 0a3e
00000020: 90c9 603d b607 893d c59b 19be 6c7a 1d3e
00000030: 906e 0dbe b9b6 01be 8bac 483d b69c 21be
00000040: 576a 2bbe 5344 8b3b 8e5a 2cbe 9578 4abd
00000050: b0e8 d83d 7149 2f3e fb23 813d eeb5 5abd
00000060: bdb1 133e 6aa2 00be c3ce 8dbd e21b ec3d
00000070: 33dd 8e3d dc7f 273d 438c d03d 1978 93bd
